checkpoint_actor_1_2021-06-21_01-42-19.pth (torch_old, 163992 bytes, 10 tensors)

fc1.weight f4 [256, 24]
0	0x3dd5df94	0.10443035
1	0x3d6bf229	0.05760399
2	0xbc9a2f67	-0.018821431
3	0x3d865e61	0.0656097
4	0xbe4180c4	-0.18896776
5	0x3f44569e	0.7669467
6	0xbcfaea0b	-0.030629179
7	0x3dd35a50	0.1031996
8	0x3e0a9f27	0.13537274
9	0x3d0f8fd6	0.035049282
10	0xbd6d1dc2	-0.057889707
11	0xbd5d751a	-0.054066755
12	0x3e7161a9	0.2357241
13	0x3f09e53b	0.538654
14	0xbcfe90c0	-0.031074882
15	0xbcc4c5f1	-0.024020167
16	0x3e3f5c88	0.18687642
17	0x3c9f9041	0.019477965
18	0x3c3f730c	0.011685144
19	0x3e874b70	0.26424742
20	0x3f3d9f36	0.7407106
21	0x3e525546	0.20540342
22	0x3d9b82dd	0.075933196
23	0x3e87cea1	0.26524833
24	0x3e8ef4da	0.27921182
25	0x3d7675b1	0.060170833
26	0xbd632e46	-0.05546405
27	0xbce5b67d	-0.028041119
28	0x3c084a8c	0.008318555
29	0xbcebe11b	-0.028793862
30	0x3c0625ab	0.008187692
31	0xbd86a7b9	-0.06574959
32	0x3ec82154	0.39087927
33	0x3ea469fd	0.32112113
34	0x3778ed26	1.4837167e-05
35	0x3e2dd9c3	0.16977601
36	0xbd3afdbb	-0.045652132
37	0xbd975a25	-0.073902406
38	0xbd15ccbf	-0.036572214
39	0x3e4f1ed9	0.20226611
40	0x3ede5399	0.43423155
41	0x3e62acba	0.22136202
42	0xbd48c214	-0.049013212
43	0x3c64ff30	0.013976857
44	0xbd8fa54b	-0.07013949
45	0xbca243e8	-0.01980777
46	0x3d2e7731	0.04259414
47	0xbd86c34f	-0.06580221
48	0x3ec851b9	0.3912485
49	0x3f10e5f2	0.5660087
50	0xbc911e65	-0.017714689
51	0xbd044fc0	-0.032302618
52	0x3b990fc8	0.0046710707
53	0xbdf40b12	-0.11916174
54	0x3d4bf041	0.04978967
55	0x3cb1fb08	0.021726146
56	0x3ef8f4e4	0.48624337
57	0x3f044622	0.51669514
58	0xbda5014d	-0.08056889
59	0x3dd60bd5	0.104514755
60	0xbe6ae269	-0.22937931
61	0xbeb83346	-0.3597662
62	0xbd0a870a	-0.03382019
63	0x3d495357	0.049151745
64	0x3f108b50	0.56462574
65	0x3f05d570	0.52278805
66	0xbcdb5a07	-0.026776327
67	0x3deb3d9a	0.11486359
68	0xbebb9f3d	-0.36644927
69	0xbf64896d	-0.89272195
70	0xbd5064b6	-0.050877295
71	0x3e004ebf	0.12530039
72	0x3af6c1c4	0.0018826057
73	0xbe7a80ad	-0.24463148
74	0xbd60c500	-0.054875374
75	0x3d900cb3	0.07033672
76	0x3e12cd89	0.14336218
77	0x3e612cac	0.21989697
78	0xbd723e3e	-0.05914139
79	0x3ce639a6	0.02810366
80	0x3d30dc86	0.043179058
81	0x3cbb31af	0.02285084
82	0xbe272341	-0.16322042
83	0x3e183848	0.1486522
84	0xbd46f309	-0.04857162
85	0x3f4a0d8b	0.78926915
86	0xbe231d5d	-0.1592917
87	0x3e0f82a3	0.14014678
88	0x3da2bc0d	0.07946024
89	0x3ded856e	0.11597715
90	0xbda5071d	-0.080579974
91	0x3e066b99	0.13126983
92	0xbe457ed5	-0.19286664
93	0x3f9f8bcc	1.2464538
94	0xbd14fbba	-0.036372878
95	0x3e219220	0.15778399
96	0x3f1f2bff	0.6217651
97	0x3ee263f8	0.44216895
98	0x3e0ed37f	0.13947867
99	0x3dfce031	0.123474486
100	0x3d9b35e2	0.07578637
101	0xbdcaa6c1	-0.09895087
102	0x3e2fced4	0.17168742
103	0x3d318fbc	0.043349966
104	0x3f19f1bc	0.6013448
105	0x3eb1126b	0.34584364
106	0xbc5f7616	-0.013638994
107	0x3d4483e4	0.047977343
108	0x3dc463a5	0.09589318
109	0xbe5db7ff	-0.2165222
110	0x3cbbe85a	0.022937942
111	0x3d144c4f	0.036205586
112	0x3f13b36e	0.5769566
113	0x3e6e477c	0.23269457
114	0x3b01f574	0.001983014
115	0xbe882d4e	-0.26597065
116	0xbda565d7	-0.08076065
117	0x3f2eebc8	0.68328524
118	0xbcac5220	-0.021035254
119	0xbe8948ad	-0.2681326
120	0x3dff0dfd	0.1245384
121	0xbf1e5168	-0.61842966
122	0x3deb7fe8	0.114990056
123	0x3e3f0cd4	0.18657237
124	0xbe2294c3	-0.1587706
125	0x3e62ac4c	0.22136039
126	0x3d7cf6ef	0.06175893
127	0x3de406ea	0.11134131
128	0x3e80b3c9	0.25137165
129	0xbf097525	-0.53694373
130	0xbe161afa	-0.14658728
131	0x3d3f3eea	0.04669086
132	0xbe845196	-0.25843495
133	0x3e13f259	0.14447917
134	0xbe6b8c71	-0.23002793
135	0x3c8824e6	0.016619157
136	0x3e83d7bc	0.2575053
137	0xbed9a816	-0.42511052
138	0xbcbfbdf9	-0.023406016
139	0x3ecb5d40	0.39719582
140	0xbf0520d7	-0.52003235
141	0x3e012c3f	0.12614535
142	0x3c264449	0.010148116
143	0x3ec1c783	0.37847528
144	0xbd26f99b	-0.040765386
145	0x3e02a456	0.12758002
146	0xbe4b114d	-0.19830818
147	0xbe608f09	-0.21929564
148	0xbe35e41c	-0.17762798
149	0xbe7a189b	-0.24423449
150	0xbe8ef583	-0.27921686
151	0xbe5287e6	-0.20559654
152	0x3d925279	0.07144637
153	0xbdbc1865	-0.091843404
154	0xbdd6fc30	-0.1049732
155	0x3ca2dcca	0.019880671
156	0x3c790013	0.015197772
157	0xbf9bf720	-1.2184792
158	0xbdb2e9ab	-0.08735975
159	0x3ca24138	0.01980649
160	0xbd866954	-0.065630585
161	0xbde5ea2d	-0.11226306
162	0xbdb92345	-0.0903993
163	0xbc711e2d	-0.014716667
164	0xbdeddd13	-0.11614432
165	0xbf589459	-0.8460136
166	0xbc7c6e94	-0.015407223
167	0xbc854a0e	-0.016270664
168	0x3e3d656e	0.18495724
169	0xbf17f631	-0.59360033
170	0x3db2d7e8	0.08732587
171	0xbe4862d4	-0.1956895
172	0xbe998457	-0.2998378
173	0xbf0b105e	-0.5432185
174	0x3d9ea97a	0.07747169
175	0xbde62cf1	-0.11239041
176	0x3e858cc5	0.2608396
177	0xbeffccdc	-0.49960983
178	0xbe01cade	-0.12675044
179	0x3de700e0	0.11279464
180	0xbebc13a8	-0.36733747
181	0xbdf991cf	-0.12186014
182	0xbdb6e49d	-0.08930323
183	0x3d512913	0.051064562
184	0x3e55b05b	0.20868056
185	0xbf037643	-0.5135233
186	0xbde1274a	-0.10993822
187	0x3e18e35e	0.14930484
188	0xbed75752	-0.42058808
189	0x3e888524	0.26664078
190	0xbde99510	-0.114053845
191	0x3dfdc417	0.12390917
192	0xbce952af	-0.02848181
193	0xbe487652	-0.19576386
194	0x3d2e285d	0.042518962
195	0xbe4d5140	-0.20050526
196	0x3f00e2da	0.5034615
197	0xbf05c888	-0.5225911
198	0x3d06bb07	0.032893207
199	0xbe67c749	-0.22634615
200	0x3ddb6a06	0.10713582
201	0xbe3efe1b	-0.18651621
202	0x3d9250ea	0.071443394
203	0xbde2b483	-0.11069586
204	0x3eb72237	0.3576829
205	0xbf605bf7	-0.8764033
206	0x3dcbfa58	0.09959859
207	0xbe14b927	-0.14523755
208	0x3e443326	0.19160137
209	0xbe3e39eb	-0.18576781
210	0xbdb191a9	-0.086703606
211	0xbd43dfd3	-0.047820877
212	0x3d8f9fb0	0.0701288
213	0xbd7d5fc4	-0.061858907
214	0xbe3f9699	-0.18709792
215	0xbd946710	-0.0724622
216	0xbdc59fad	-0.09649596
217	0x3f578912	0.8419353
218	0xbc8fb357	-0.01754157
219	0x3d9863f5	0.0744094
220	0xbd9d6681	-0.07685567
221	0xbe4360e5	-0.19079931
222	0xbd7257c8	-0.059165746
223	0x3ddb1eb2	0.10699214
224	0xbdfd729b	-0.12375375
225	0x3f838e89	1.0277873
226	0xbd8176fc	-0.063215226
227	0x3e0cf6c6	0.13766012
228	0x3c562242	0.013069691
229	0xbf070f57	-0.5275778
230	0xbb5981af	-0.003318887
231	0x3d7d597f	0.06185293
232	0xbdd1dc69	-0.10247118
233	0x3f822179	1.0166465
234	0xbca425a8	-0.020037487
235	0x3c3ce67b	0.01152956
236	0xbdc31d1f	-0.09527039
237	0xbf9b2421	-1.2120401
238	0x3a0386d2	0.0005017343
239	0x3d0a6eb3	0.033796977
240	0x3e0dd317	0.13850056
241	0x3d393e4d	0.04522543
242	0xbd00a12d	-0.03140371
243	0x3d43b007	0.047775295
244	0xbf16047f	-0.5860061
245	0x3f145458	0.579412
246	0x3ce8080a	0.028324146
247	0x3b874b88	0.004128877
248	0x3e15b48a	0.14619651
249	0x3961c814	0.00021532207
250	0xbbcd1293	-0.0062583177
251	0x3d9c31bd	0.07626674
252	0xbf81b914	-1.0134606
253	0x3e9f15b1	0.31071237
254	0xbc43b7af	-0.011945649
255	0x3ce759fc	0.02824115

fc1.bias f4 [256]
0	0xbf1ef294	-0.62088895
1	0xbc987035	-0.018608192
2	0xbe95d034	-0.2926041
3	0xbedb756f	-0.42863032
4	0xbef32cd5	-0.47495142
5	0xbf08bfe0	-0.5341778
6	0xbe175641	-0.14778997
7	0xbe14a922	-0.14517644
8	0xbeffeb71	-0.49984315
9	0xbc4c7785	-0.012479668
10	0xbf16e462	-0.58942235
11	0xbf09ffcb	-0.53905934
12	0xbe8904b2	-0.26761395
13	0xbec2c9d8	-0.3804462
14	0xbe73ad32	-0.23796538
15	0xbe2ea2ed	-0.17054339
16	0x3e16e239	0.14734735
17	0xbea32012	-0.31860405
18	0xbf2b17c6	-0.6683315
19	0x3d7da0af	0.061920818
20	0xbef047bf	-0.46929738
21	0xbef6ebdf	-0.4822683
22	0xbf314d5c	-0.69258666
23	0xbf27e972	-0.65590584
24	0xbf175cf3	-0.59126204
25	0xbf8377a9	-1.0270892
26	0xbd8ef0ca	-0.069795206
27	0xbdca31a2	-0.09872748
28	0xbe461ef9	-0.19347753
29	0x3d195175	0.0374312
30	0xbd7f5671	-0.062338296
31	0xbebb1955	-0.36542764
32	0x3eca318f	0.39490935
33	0xbe9636b0	-0.29338598
34	0xbed4021f	-0.41407868
35	0xbec287c7	-0.37994215
36	0xbdaa6173	-0.08319368
37	0xbd835aa4	-0.06413773
38	0xbe9999c7	-0.30000135
39	0xbe940803	-0.28912362
40	0xbe4bc576	-0.19899544
41	0xbee972e9	-0.45595482
42	0xbf47e4b0	-0.78083324
43	0xbf03708a	-0.51343596
44	0xbe18459b	-0.14870302
45	0xbe957948	-0.29194093
46	0xbe3776da	-0.17916432
47	0xbf0e7b50	-0.5565691
48	0xbf4c7b66	-0.7987579
49	0xbd32e73e	-0.04367756
50	0xbe9da9d5	-0.30793634
51	0xbf59143b	-0.84796494
52	0xbd2a2b00	-0.041544914
53	0xbed75046	-0.4205343
54	0xbe192099	-0.14953841
55	0xbea24c91	-0.3169904
56	0x3e8d6734	0.276178
57	0xbf2c0d72	-0.67208016
58	0x3eb2f61d	0.34953395
59	0x3e4003e4	0.18751484
60	0xbe4eb6d5	-0.20186932
61	0xbebf1334	-0.37319338
62	0xbed8ef78	-0.423702
63	0xbe933b91	-0.28756383
64	0xbf229135	-0.6350282
65	0x3ce490d5	0.027901093
66	0xbe262308	-0.16224301
67	0xbe86632d	-0.2624754
68	0xbe3ccf2e	-0.18438408
69	0xbf04dc74	-0.51898885
70	0xbeb8ee85	-0.36119476
71	0xbdc7d242	-0.097569
72	0xbf0605d9	-0.5235267
73	0xbee37e75	-0.44432417
74	0xbead5c63	-0.33859548
75	0xbe92c51d	-0.2866601
76	0xbe607eb7	-0.21923338
77	0xbe6d8148	-0.23193848
78	0xbeb5b72c	-0.35491312
79	0xbf3d815b	-0.74025506
80	0xbe513e4d	-0.20433922
81	0xbeaa1a85	-0.33223358
82	0xbdb20bf9	-0.0869369
83	0xbf102ec1	-0.5632134
84	0x3e1c28b3	0.152499
85	0x3e0ea6cf	0.1393082
86	0x3d57a009	0.052642856
87	0xbe629aaf	-0.2212932
88	0xbf0faeb1	-0.5612593
89	0xbeacf2f7	-0.33779117
90	0x3bb8fd88	0.0056454577
91	0xbef9f61d	-0.48820582
92	0xbf08a161	-0.53371245
93	0xbe7bfed9	-0.24608935
94	0xbf09d08d	-0.5383385
95	0xbe1fbc69	-0.15599217
96	0xbf457240	-0.77127457
97	0xbf4475b9	-0.7674213
98	0xbebed54c	-0.37272108
99	0xbe836d3f	-0.25669286
100	0xbe0c9756	-0.13729605
101	0xbf3fd011	-0.7492686
102	0xbdd33500	-0.10312843
103	0xbe980f9b	-0.29699406
104	0xbe20fdcd	-0.15721817
105	0xbeefb0c2	-0.46814543
106	0xbe7ffe80	-0.24999428
107	0xbf65c2ed	-0.8975056
108	0xbed1ae43	-0.40953264
109	0xbe8e2d18	-0.2776878
110	0xbea0c7e6	-0.3140251
111	0xbf0a8ca0	-0.54120827
112	0xbe5643f6	-0.20924363
113	0xbe804767	-0.25054476
114	0xbc5d24fb	-0.013497586
115	0xbeb55279	-0.35414484
116	0xbef06b7c	-0.46957004
117	0xbed40fe8	-0.41418386
118	0xbe93fd3e	-0.28904146
119	0xbe0b4f3a	-0.13604441
120	0xbef9bb2e	-0.4877562
121	0xbf1745b7	-0.5909075
122	0x3d862096	0.06549184
123	0xbeaa0bed	-0.33212224
124	0x3c267e57	0.010161958
125	0xbeb4920d	-0.35267678
126	0xbe00b728	-0.12569869
127	0xbe2082d4	-0.15674907
128	0xbf498a6b	-0.78726834
129	0xbe3219ca	-0.1739265
130	0xbed0c4e6	-0.40775222
131	0xbe9006eb	-0.28130278
132	0xbea34599	-0.31889036
133	0xbe7a8990	-0.24466538
134	0xbf09f115	-0.53883487
135	0xbe5d635e	-0.21619937
136	0xbe88a4e5	-0.26688305
137	0xbf0d8ce2	-0.55293095
138	0xbeea7677	-0.45793507
139	0xbf0b3db3	-0.5439102
140	0xbe8a9dc9	-0.27073506
141	0xbe257482	-0.16157725
142	0x3d211b50	0.039332688
143	0xbebb0dd8	-0.36534
144	0xbd82c5a8	-0.06385356
145	0xbf044151	-0.51662165
146	0xbe9a0cf8	-0.3008802
147	0xbf51a740	-0.8189583
148	0xbe1b5d02	-0.15172198
149	0xbe40b613	-0.18819456
150	0xbe992a9f	-0.2991533
151	0xbf07ae24	-0.5300009
152	0xbec78d3c	-0.3897494
153	0xbf34a795	-0.7056821
154	0x3de37e1d	0.111080386
155	0x3d9e3dd7	0.07726639
156	0xbf4f4294	-0.80960965
157	0xbde6970d	-0.112592794
158	0xbea1efb2	-0.31628186
159	0xbeca7aae	-0.39546722
160	0xbe1399c9	-0.14414133
161	0xbf102239	-0.5630222
162	0xbdb2fce4	-0.08739641
163	0xbef83945	-0.48481193
164	0xbe4cb465	-0.1999069
165	0xbedd6bca	-0.432463
166	0xbf15e93b	-0.58559006
167	0xbe8fed3b	-0.2811068
168	0xbea755d4	-0.3268267
169	0xbe26aea6	-0.1627756
170	0xbec7d960	-0.3903303
171	0xbf2d8dc3	-0.67794436
172	0xbedba869	-0.42901924
173	0x3f378ff5	0.71704036
174	0xbe3c8f30	-0.18413997
175	0xbebd9335	-0.37026373
176	0xbd04f42e	-0.03245943
177	0xbf3f5b5d	-0.74748784
178	0xbf072006	-0.5278324
179	0xbf12bc42	-0.5731851
180	0xbe8a0266	-0.26954955
181	0xbe451288	-0.1924535
182	0xbe395e06	-0.18102273
183	0xbf13061d	-0.57431203
184	0xbeb4e53b	-0.3533114
185	0xbe850a72	-0.25984532
186	0xbeaf36ae	-0.34221405
187	0xbea43fdb	-0.32079968
188	0xbeb1958f	-0.34684417
189	0xbf10aa56	-0.5650991
190	0xbd4a6e66	-0.04942169
191	0xbe48a511	-0.19594218
192	0xbf307a6b	-0.68936795
193	0xbed4e766	-0.41582793
194	0xbe15f9e8	-0.14646113
195	0x3ce77aac	0.028256737
196	0xbe08f24e	-0.13373682
197	0xbe72c5dd	-0.23708291
198	0xbf0afa64	-0.54288316
199	0xbf32362f	-0.6961393
200	0xbea0c37f	-0.31399152
201	0x3c9f6c94	0.019460954
202	0xbee50117	-0.44727394
203	0xbdfe16c4	-0.12406686
204	0xbf06a45b	-0.52594537
205	0xbe4c94f4	-0.19978696
206	0x3dca2881	0.09871007
207	0xbdaac409	-0.08338172
208	0xbc34f33e	-0.011044322
209	0xbf8b50f0	-1.0884075
210	0xbeff5c8d	-0.49875298
211	0xbec2b6c5	-0.38030067
212	0xbd872a17	-0.06599825
213	0xbed1e24e	-0.4099297
214	0xbeb02cd0	-0.3440919
215	0xbe6c2302	-0.2306023
216	0xbf143ef9	-0.5790859
217	0xbe8d535f	-0.2760267
218	0xbecf9bb2	-0.40548474
219	0xbe13176f	-0.14364408
220	0xbe522def	-0.20525335
221	0xbe0231de	-0.12714335
222	0xbec521cd	-0.3850235
223	0xbf083c6b	-0.5321719
224	0xbe6f254d	-0.23354073
225	0xbe011c60	-0.1260848
226	0xbeb42c35	-0.35189977
227	0xbbd63d88	-0.006538097
228	0xbe590eff	-0.21197127
229	0xbf1f89e3	-0.62319773
230	0xbdfd45a4	-0.123667985
231	0xbf08ef86	-0.53490484
232	0xbe833dce	-0.2563309
233	0xbf082083	-0.5317461
234	0x3e18823b	0.14893429
235	0xbe51e6aa	-0.20498148
236	0xbe8662a6	-0.26247138
237	0xbed6be16	-0.419419
238	0xbe29bd12	-0.16576031
239	0xbdcc26de	-0.09968351
240	0xbedf816f	-0.43653437
241	0xbed1d130	-0.4097991
242	0xbed7f1a3	-0.42176542
243	0x3ddc5fca	0.10760458
244	0xbd0a7cca	-0.033810414
245	0xbedc2d52	-0.43003327
246	0xbf201d10	-0.62544346
247	0xbecb8f38	-0.39757705
248	0xbe5754a9	-0.21028389
249	0xbedb1b73	-0.4279438
250	0xbeabb3b8	-0.33535552
251	0xbedfa8f5	-0.4368359
252	0xbe4be47f	-0.19911383
253	0xbdc49094	-0.095978886
254	0xbebc40b3	-0.36768112
255	0xbf02d587	-0.51107067

fc2.weight f4 [128, 256]
0	0x3ea9ad39	0.3313997
1	0xbd150c5f	-0.03638875
2	0x3e69afba	0.2282094
3	0xbdefb25e	-0.11703943
4	0xbe4a1a3d	-0.19736572
5	0x3e9673a4	0.29385102
6	0x3e55a26b	0.20862739
7	0x3dee60bf	0.116395466
8	0xbe0b480c	-0.13601702
9	0xbe2fadd2	-0.17156151
10	0xbe07ed39	-0.13274087
11	0x3e5ede17	0.21764408
12	0xbf00e8e1	-0.50355345
13	0xbef861e4	-0.48512185
14	0xbf480a8a	-0.7814108
15	0xbf2d46f8	-0.67686415
16	0xbd5e63a6	-0.05429425
17	0xbed9c69e	-0.42534345
18	0x3ea4c9b0	0.32185125
19	0x3bf5c4b5	0.007500256
20	0xbde40e96	-0.111355945
21	0x3e8c68f2	0.27423817
22	0x3ea64afe	0.3247909
23	0xbf1afcfd	-0.6054228
24	0x3eae17bd	0.34002486
25	0x3ec16c0d	0.3777775
26	0xbeb8f261	-0.3612242
27	0x3c171833	0.009222078
28	0xbcb64883	-0.022251373
29	0x3e7bee74	0.24602681
30	0xbd2aaacf	-0.041666802
31	0x3e8f23e3	0.27957067
32	0x3dca7c88	0.09887034
33	0x3f05e29e	0.52298915
34	0x3d93b0ee	0.07211481
35	0x3d71a2b4	0.058993056
36	0x3df18105	0.11792187
37	0x3e00df4c	0.12585181
38	0x3ea943ea	0.33059627
39	0x3d9c1f82	0.07623197
40	0xbc4cfa10	-0.012510791
41	0xbe289a0a	-0.16465011
42	0x3e9db103	0.30799112
43	0xbd1d8fa7	-0.038467076
44	0xbf25f8a4	-0.6483252
45	0xbd968ffe	-0.07351683
46	0xbe086547	-0.13319884
47	0x3e88e43f	0.26736638
48	0xbedc3559	-0.4300945
49	0x3ee3d5f8	0.44499183
50	0x3d2d6325	0.04233088
51	0xbd07ea65	-0.03318252
52	0x3e8f68f0	0.28009748
53	0x3dd40c48	0.10353905
54	0x3e88e57a	0.26737577
55	0x3ee46d70	0.44614744
56	0x3e810b9a	0.25204164
57	0xbe4abfd4	-0.19799739
58	0xbf0cb307	-0.54960674
59	0xbd93a036	-0.07208292
60	0xbe7ae025	-0.24499567
61	0x3eda3fcb	0.42626795
62	0x3d45fe3d	0.048338164
63	0xbe338137	-0.1752976
64	0xbddf0f4f	-0.10891592
65	0x3e006706	0.125393
66	0xbe5498c6	-0.20761403
67	0x3e4251da	0.18976536
68	0x3e661008	0.22467053
69	0x3e0e681d	0.13906904
70	0xbe1fadca	-0.15593639
71	0x3e09e776	0.13467202
72	0x3bc3ec5b	0.0059791035
73	0x3e5181c9	0.20459665
74	0xbe826bb0	-0.25472784
75	0xbeb6e124	-0.35718644
76	0x3e011eba	0.12609378
77	0xbca1708a	-0.019706983
78	0x3ee7024a	0.45118934
79	0xbf2c0a57	-0.6720328
80	0xbe067dd3	-0.13133936
81	0xbe7a2dfc	-0.24431604
82	0xbdb85e30	-0.0900234
83	0x3e2db2fa	0.16962805
84	0xbe3be1c7	-0.18347846
85	0x3d1ec601	0.03876305
86	0x3e0364c9	0.12831415
87	0xbea7a6cd	-0.32744446
88	0x3e69d171	0.22833802
89	0x3cc60c39	0.02417575
90	0xbe5ef258	-0.21772134
91	0x3f121541	0.5706368
92	0xbe36bd01	-0.17845537
93	0x3deb588d	0.11491499
94	0xbf01b326	-0.50663984
95	0xbe966a36	-0.29377908
96	0xbe8d12f1	-0.27553514
97	0x3d6434cf	0.055714425
98	0xbeab012e	-0.33399338
99	0x3d6772ae	0.05650585
100	0x3dfcc94a	0.1234308
101	0x3e2f8712	0.17141369
102	0xbe657c48	-0.22410691
103	0x3edc137b	0.42983612
104	0x3d203de8	0.03912154
105	0xbe0f078f	-0.13967727
106	0x3eb35466	0.35025328
107	0xbf191eb5	-0.5981248
108	0x3e7e49e7	0.24832879
109	0xbdab3b3c	-0.083609074
110	0xbd1c2bf7	-0.038127866
111	0x3e3003fd	0.17189021
112	0x3e577901	0.21042253
113	0xbe9304ea	-0.28714687
114	0x3b217d29	0.0024641252
115	0x3e513fa9	0.2043444
116	0xbe6c1f5b	-0.23058836
117	0xbe2bf9d5	-0.16794522
118	0x3f0cd80f	0.5501718
119	0x3e821675	0.25407758
120	0xbdcd30a4	-0.10019043
121	0x3e9105d4	0.2832476
122	0xbea72899	-0.3264816
123	0xbea4f7f6	-0.3222043
124	0x3cac3802	0.0210228
125	0xbeb8e494	-0.3611189
126	0x3d9b408a	0.07580669
127	0x3d7ecd45	0.06220748
128	0xbf1f14a7	-0.6214089
129	0xbe9cea07	-0.306473
130	0x3dca1254	0.09866777
131	0xbeab604b	-0.33471903
132	0xbf1241ac	-0.5713146
133	0x3e282cc1	0.16423322
134	0xbe82ef48	-0.25573182
135	0x3e6d77e9	0.23190273
136	0x3e9ca31e	0.305932
137	0xbc5100be	-0.012756525
138	0x3e71c063	0.23608546
139	0x3d833c30	0.06407964
140	0xbe0f1e16	-0.1397632
141	0xbcec7ed1	-0.028869065
142	0xbe34585a	-0.17611828
143	0x3eb3118a	0.3497432
144	0x3ea5d1b6	0.3238656
145	0x3daed608	0.08536917
146	0xbd6d0ae2	-0.057871707
147	0xbde2642c	-0.110542625
148	0x3df1f95e	0.11815141
149	0x3d54cd36	0.051953517
150	0x3ea48704	0.3213426
151	0xbf10c092	-0.5654384
152	0x3c663b77	0.014052263
153	0xbe7d22d0	-0.24720311
154	0xbe5e0365	-0.21680982
155	0x3da4218f	0.08014213
156	0xbeaaad19	-0.33335188
157	0x3eab08c2	0.3340512
158	0xbe606d9d	-0.21916814
159	0xbdccffd0	-0.1000973
160	0x3eb98967	0.36237642
161	0xbe07cea8	-0.13262427
162	0x3e3f66c0	0.1869154
163	0x3e60aded	0.21941347
164	0xbe69f07c	-0.22845644
165	0xbe012670	-0.12612319
166	0xbeb8a6b7	-0.36064693
167	0x3db04fd6	0.086089775
168	0x3ea2a47d	0.3176612
169	0x3dce07ce	0.100600824
170	0xbd9eb352	-0.077490464
171	0xbe81a423	-0.2532054
172	0xbe34ef1a	-0.17669335
173	0x3c90ac2d	0.017660225
174	0x3d353afc	0.044245705
175	0x3e6bdf62	0.23034433
176	0xbe983b28	-0.29732633
177	0xbe86e2f4	-0.26345026
178	0x3dfed104	0.1244221
179	0xbc0e07c0	-0.00866884
180	0x3e1bc574	0.15212041
181	0x3e1925c4	0.14955813
182	0x3ecaf090	0.3963666
183	0xbd473a84	-0.04863979
184	0xbe9aeecd	-0.30260316
185	0xbd97f067	-0.074189
186	0xbe05a397	-0.13050686
187	0x3e35ab12	0.1774104
188	0xbf02747e	-0.50959
189	0x3b864840	0.0040979683
190	0x3e9a3dd0	0.30125284
191	0xbddf7803	-0.10911562
192	0x3d495f14	0.04916294
193	0x3e585707	0.21126948
194	0xbeb4e891	-0.35333684
195	0x3cc3cc30	0.023901075
196	0x3e0e23e6	0.13880882
197	0xbd61de0c	-0.0551434
198	0x3e308baf	0.17240785
199	0x3e418235	0.18897326
200	0xbe5cb9d4	-0.21555263
201	0x3b58c74b	0.0033077772
202	0xbd91e948	-0.07124573
203	0xbc8aee68	-0.016959384
204	0xbcb1bd13	-0.021696603
205	0xbe80684d	-0.25079575
206	0xbce27753	-0.027644789
207	0x3edbe8df	0.42951104
208	0xbdb1a2d6	-0.086736366
209	0x3d143932	0.03618736
210	0xbe9a702b	-0.30163702
211	0x3ebb786c	0.36615312
212	0x3ebbabec	0.36654603
213	0x3e2c578a	0.16830269
214	0x3c0eeadf	0.00872299
215	0x3eea4f0e	0.4576344
216	0x3ed27397	0.41103813
217	0x3dd22762	0.10261418
218	0x3e27b2b3	0.16376762
219	0xbf35384d	-0.70789033
220	0xbeafd3f4	-0.34341395
221	0xbe3dcddb	-0.18535559
222	0x3e3949b1	0.18094517
223	0xbec68db8	-0.38779998
224	0x3e743150	0.23846936
225	0x39cadb81	0.00038691986
226	0xbe081765	-0.13290174
227	0x3e8c1e2b	0.27366766
228	0xbe9a5cbf	-0.30148885
229	0x3ecdb9ad	0.40180722
230	0x3b1d09ee	0.0023962217
231	0x3dbd5f63	0.09246709
232	0xbd952abf	-0.07283544
233	0x3e06bd94	0.13158256
234	0xbe648ab6	-0.22318539
235	0x3e5a635b	0.21326964
236	0xbedef4fd	-0.43546286
237	0xbe43c70b	-0.19118898
238	0xbe8538bc	-0.26019847
239	0x3e29c29b	0.16578142
240	0xbf0884cc	-0.5332763
241	0xbeb989a6	-0.3623783
242	0x3c9ff912	0.019527946
243	0x3e078633	0.13234787
244	0xbe1b4792	-0.1516402
245	0x3e473953	0.19455461
246	0xbe523fe6	-0.20532188
247	0xbe557eaa	-0.208491
248	0xbdd378b4	-0.10325757
249	0x3aa27ddb	0.0012397127
250	0xbde67d30	-0.11254346
251	0xbe2f3a1b	-0.17112009
252	0x3d2dc3b3	0.04242296
253	0x3ef3b52f	0.4759917
254	0x3e9f02dd	0.31056872
255	0xbef05de2	-0.46946627

fc2.bias f4 [128]
0	0xbe3a5041	-0.18194677
1	0x3dd2106f	0.10257041
2	0xbeace02d	-0.33764783
3	0xbe155bde	-0.14585826
4	0xbe569cb4	-0.20958215
5	0xbd7be46f	-0.061497148
6	0xbe3dc52b	-0.18532245
7	0xbc3c1fca	-0.0114821885
8	0xbd9f3256	-0.07773273
9	0x3d52fb75	0.05150934
10	0xbe958648	-0.2920401
11	0x3e60e5c5	0.2196265
12	0xbe05db75	-0.13071997
13	0xbddbad58	-0.10726422
14	0xbec81fb1	-0.3908668
15	0x3d20d295	0.039263327
16	0x3e17ee4f	0.14837001
17	0x3e195bd7	0.1497644
18	0xbd9b1fd6	-0.075744316
19	0xbe02fb82	-0.12791255
20	0x3d080a98	0.033213228
21	0xbe18c063	-0.1491714
22	0xbe20924c	-0.15680808
23	0xbe1af05e	-0.15130755
24	0xbf1824cc	-0.5943115
25	0xbdc7388e	-0.09727584
26	0x3d6bb973	0.057549905
27	0xbe95d597	-0.2926452
28	0xbe675158	-0.22589624
29	0xbec2c069	-0.38037422
30	0xbe481b10	-0.19541574
31	0xbdfc807d	-0.12329195
32	0xbe804c82	-0.2505837
33	0x3bb42640	0.005497724
34	0x3d8d51e7	0.06900387
35	0xbed0aa84	-0.40755093
36	0xbde6c0f6	-0.11267273
37	0xbe340dcf	-0.17583393
38	0x3d193c11	0.0374108
39	0xbc0881e0	-0.008331746
40	0xbe814d84	-0.25254452
41	0xbbdd5da2	-0.0067555467
42	0xbf0fb477	-0.5613474
43	0xbe297d41	-0.16551687
44	0xbe320956	-0.17386374
45	0x3c13b7cb	0.009015988
46	0xbddc5ddb	-0.10760089
47	0xbd6ed7a0	-0.058311105
48	0xbebc9615	-0.36833254
49	0xba7573bb	-0.00093632535
50	0x3e12475b	0.14285032
51	0xbe395169	-0.18097462
52	0xbd86bf97	-0.065795116
53	0x3d892e44	0.066982776
54	0x3bca175b	0.006167335
55	0xbe3fd9fc	-0.18735498
56	0xbc95855f	-0.018252073
57	0x3d5d98e7	0.054100897
58	0xbd9d9611	-0.076946385
59	0xbe0d6f3e	-0.13811967
60	0x3ea8647b	0.3288916
61	0x3b5c7b8e	0.003364298
62	0x3ca302ec	0.019898854
63	0xbcb6c296	-0.022309583
64	0xbe519226	-0.20465907
65	0xbe22cb44	-0.15897852
66	0xbe3fda0b	-0.1873552
67	0xbf02bdd0	-0.5107088
68	0xbec83f88	-0.3911097
69	0x3d2d0484	0.042240635
70	0xbe2efec1	-0.17089368
71	0x3be21241	0.0068991487
72	0xbe8f4449	-0.27981785
73	0xbe1bdcff	-0.15221022
74	0x3d533cf9	0.05157182
75	0xbc50e18c	-0.012749087
76	0xbe8eb769	-0.27874306
77	0xbee16fe1	-0.4403067
78	0x3b0b3a40	0.0021244437
79	0xbe4f5e03	-0.20250706
80	0x3c7b4bec	0.015337925
81	0xbdfc5dec	-0.12322602
82	0xbdeea0f5	-0.11651794
83	0xbbb55bbe	-0.005534618
84	0xbef922bb	-0.4865931
85	0xbe3dbade	-0.18528315
86	0x3e0c1659	0.136804
87	0xbe20ae62	-0.15691522
88	0xbe10f36a	-0.14155355
89	0xbe246493	-0.16053991
90	0xbe99cfaf	-0.30041263
91	0xbde13376	-0.109961435
92	0x3e17d43f	0.14827059
93	0x3e8da512	0.27665
94	0x3e7ee195	0.2489074
95	0x3e059647	0.13045608
96	0xbe0888bb	-0.13333409
97	0x3e0ee257	0.1395353
98	0xbe249b35	-0.16074832
99	0xbe25901e	-0.16168258
100	0x3c8bb5fb	0.017054548
101	0xbdfa5ef4	-0.12225142
102	0xbed15a09	-0.40889004
103	0x3e2d2ccc	0.1691162
104	0xbea6f746	-0.3261053
105	0x3e324d39	0.1741227
106	0x3c73e513	0.0148861585
107	0xbbcc0753	-0.006226459
108	0xbd9234a6	-0.07138948
109	0x3c0f1464	0.008732889
110	0xbb9b0836	-0.0047312034
111	0xbd980085	-0.07421974
112	0xbe1834f3	-0.14863949
113	0xbe608ebc	-0.21929449
114	0x3dc4b612	0.0960504
115	0xbec8ec8c	-0.3924297
116	0x3cdf4380	0.027253866
117	0x3ce86ef6	0.028373223
118	0xbf25f201	-0.64822394
119	0xbe356816	-0.17715487
120	0x3d32f783	0.043693077
121	0xbd70c6ce	-0.058783345
122	0xbe4dfe6a	-0.20116583
123	0xbd6359cf	-0.05550557
124	0xbdad58ae	-0.0846418
125	0xbe3acbb0	-0.18241763
126	0x3c5bb9f9	0.013411039
127	0xbe86b473	-0.26309547

fc3.weight f4 [2, 128]
0	0x3edb4fbc	0.4283427
1	0xbdad3fa4	-0.08459404
2	0x3d9fe0d1	0.07806552
3	0xbfde9a72	-1.7390883
4	0xbf8bbcd0	-1.0916996
5	0xbd0f76e4	-0.035025492
6	0x3b61c119	0.003444737
7	0x3f8e8dad	1.1136986
8	0xbf019a0d	-0.5062569
9	0xbc1870c0	-0.009304225
10	0xbe257ad2	-0.16160133
11	0xbefb1d76	-0.49045914
12	0xbfc450d6	-1.5337169
13	0x3fa992b0	1.324789
14	0x3e9d05d0	0.30668497
15	0xbfd3e8b1	-1.6555387
16	0xbf198108	-0.5996251
17	0x3f1e1000	0.61743164
18	0x3de87d34	0.113520056
19	0x3e949ae2	0.29024416
20	0x3e8f0e72	0.27940708
21	0xbfb19b1f	-1.3875464
22	0x3ee299a4	0.44257843
23	0xbc568e59	-0.013095462
24	0x3f0ca5a1	0.5494023
25	0xbd1e81b9	-0.038697932
26	0x3ed3f03b	0.4139422
27	0xbf39a4c3	-0.7251703
28	0xbeb9cfb3	-0.36291274
29	0xbf5e5b7c	-0.86858344
30	0x3d56d25e	0.052446716
31	0x3eefc5e5	0.4683067
32	0xbf075d71	-0.52876955
33	0x3e50b639	0.20382012
34	0xbe822398	-0.2541778
35	0x3cefecca	0.029287715
36	0x3f26da28	0.6517663
37	0xbf79f487	-0.97638744
38	0xbe646ed7	-0.22307907
39	0xbfbfac24	-1.4974408
40	0x3edf669c	0.43632972
41	0xbf41dc2d	-0.75726587
42	0xbed814d6	-0.42203397
43	0xbf7ec79f	-0.9952335
44	0x3f3050a1	0.6887303
45	0x3f964d5c	1.1742358
46	0xbfbf38f0	-1.4939251
47	0xbf3db2c9	-0.7410093
48	0xbf2cb355	-0.6746114
49	0x3f0eaeeb	0.55735654
50	0x3f5f7587	0.8728871
51	0xbebbefcd	-0.3670639
52	0xbf217948	-0.63075686
53	0x3f273afa	0.65324366
54	0x3f08f253	0.5349476
55	0x3f6fed6b	0.93721646
56	0xbe63f52d	-0.22261496
57	0xbf580a58	-0.84390783
58	0x3f6058dc	0.8763559
59	0x3e9e0b37	0.3086793
60	0xbeddb7a5	-0.43304172
61	0xbfc0efcc	-1.507318
62	0xbfaae76e	-1.3351877
63	0xbf674516	-0.9033979
64	0xbe244cfa	-0.16044989
65	0x3f1a4595	0.60262424
66	0x3f25d60c	0.64779735
67	0x3e4e2491	0.20131136
68	0xbe377265	-0.17914732
69	0xbdb7cd75	-0.08974735
70	0x3f0f4753	0.5596821
71	0xbe00869c	-0.1255135
72	0xbf254ddf	-0.64571947
73	0xbe87f12f	-0.26551196
74	0xbdcdc495	-0.10047261
75	0xbfd77461	-1.6832391
76	0xbfa6568b	-1.2995161
77	0xbc061cd3	-0.008185583
78	0xbf41d044	-0.75708413
79	0x3c56045d	0.013062564
80	0xbd075afb	-0.03304575
81	0xbfad8476	-1.3556049
82	0x3e8001d5	0.25001398
83	0x3da35ffc	0.07977292
84	0x3f36e69d	0.7144564
85	0x3e92513b	0.285776
86	0x3f850d44	1.0394673
87	0x3df9dc97	0.12200277
88	0xbfb5a0d8	-1.4189711
89	0xbeaac44b	-0.33352885
90	0xbea4b744	-0.3217107
91	0x3e2d83cc	0.16944808
92	0x3ec9a8c8	0.39386582
93	0xbeabc2aa	-0.33546954
94	0xbeb70763	-0.35747823
95	0x3f5420cc	0.82862544
96	0x3eb86c56	0.36020154
97	0x3f3257dc	0.6966531
98	0xc0147057	-2.3193567
99	0x3f4264bf	0.75934976
100	0xbe3abc88	-0.18235981
101	0xbec860fe	-0.391365
102	0x3e0cbf5f	0.13744877
103	0xbee642e7	-0.44972917
104	0x3eae9db2	0.34104687
105	0x3db0f7e6	0.08641033
106	0xbf327eaf	-0.69724554
107	0xbe478e38	-0.19487846
108	0x3ec3e5cb	0.38261256
109	0x3d889445	0.06668905
110	0x3f1db9e0	0.6161175
111	0x3ece3c42	0.40280348
112	0xbea9bec0	-0.33153343
113	0x3ed813f4	0.42202723
114	0xbba7c59a	-0.0051199915
115	0xbf41e26b	-0.7573611
116	0xbe009e6f	-0.12560438
117	0xbe051b15	-0.12998612
118	0xbeeb9001	-0.46008304
119	0x3e9d4a1f	0.30720612
120	0x3f11d7c2	0.56969845
121	0x3f65b35a	0.89726794
122	0xbf5e61c2	-0.86867917
123	0x3e641844	0.22274882
124	0xbf831424	-1.0240521
125	0x3e53f4bc	0.20698828
126	0xbf0388fa	-0.51380885
127	0xbf428d67	-0.7599701
128	0x3ebfb8d9	0.37445715
129	0xbf616d93	-0.8805782
130	0x3f6a09d0	0.9142122
131	0xbeeec4c5	-0.46634498
132	0xbf85e342	-1.0459979
133	0xbfdbe291	-1.7178518
134	0xbf8808c2	-1.0627673
135	0xbf20df1c	-0.6284044
136	0xbfa64f21	-1.2992898
137	0xbf8f3d84	-1.1190648
138	0xbef9e44d	-0.48806992
139	0xbead3c6d	-0.33835164
140	0x3e50c047	0.20385848
141	0x3e9cdf9c	0.3063935
142	0x3f445dbc	0.7670553
143	0x3c8089a9	0.015690641
144	0x3e189324	0.1489988
145	0x3f56fc64	0.8397887
146	0x3f50a1ee	0.81497085
147	0x3edaf578	0.42765403
148	0x3e5c9e06	0.21544656
149	0xbf0d9e68	-0.55319834
150	0xbecd947a	-0.4015234
151	0x3fc31f59	1.5243942
152	0x3f1ab45b	0.6043145
153	0xbfddf7fb	-1.7341303
154	0x3f7da75a	0.99083483
155	0x3f1cf3f5	0.6130975
156	0x3e1e5986	0.15463838
157	0xbeec43e2	-0.4614554
158	0xbfd62969	-1.6731387
159	0xbf98d7a0	-1.1940804
160	0x3f49191f	0.78553957
161	0x3f9954a2	1.1978953
162	0x3f963939	1.1736213
163	0xbfcf0fec	-1.6176734
164	0x3ddd022d	0.107914306
165	0x3ea2edea	0.3182214
166	0xbf6aa254	-0.91653943
167	0x3e105e5a	0.14098492
168	0x3f6eef7e	0.93334186
169	0x3e9dc99b	0.30817875
170	0xbd4b378b	-0.049613517
171	0x3ef1ef59	0.4725292
172	0xbf6b6cb4	-0.9196274
173	0x3eb45551	0.3522134
174	0x3f986558	1.1905928
175	0x3fc87517	1.5660733
176	0x3fb20ab3	1.3909515
177	0x3fb117c2	1.3835375
178	0xbe3ccfd3	-0.18438654
179	0x3f933158	1.1499434
180	0xbecd1ba4	-0.4006015
181	0xbf83fa14	-1.0310693
182	0x3f0b86d0	0.5450258
183	0x3f1214e3	0.5706312
184	0xbf8d11d0	-1.1021061
185	0x3f22c3e6	0.6358017
186	0x3f253390	0.64531803
187	0xbf15d7a6	-0.5853218
188	0x3da77798	0.081771076
189	0x3c2d930b	0.01059414
190	0xbf62ce2d	-0.8859585
191	0xbdc9433f	-0.09827279
192	0x3f1b8d6e	0.6076268
193	0x3dfd6aa8	0.12373859
194	0xbc912b74	-0.017720915
195	0x3f1bd812	0.6087657
196	0x3fa503bd	1.2891766
197	0xbf3fd4cf	-0.74934095
198	0x3e1e22e7	0.15443002
199	0xbf02187d	-0.50818616
200	0xbf379107	-0.7170567
201	0x3f6167cf	0.88049024
202	0xbf68f4be	-0.90998447
203	0x3edc7b75	0.4306294
204	0x3ef1b84f	0.4721093
205	0xbfb0eb09	-1.3821727
206	0x3cfbe3e9	0.030748324
207	0xbf8c1e82	-1.094681
208	0xbf459bca	-0.7719084
209	0xbe798232	-0.24366072
210	0x3edef3c4	0.43545353
211	0xbf2595e4	-0.6468184
212	0x3f382624	0.719332
213	0x3f6d32ef	0.92655843
214	0xbf8009ac	-1.0002952
215	0xbee9eaf3	-0.45687065
216	0x3f94e1a8	1.1631365
217	0xbee73392	-0.45156533
218	0xbedaf36d	-0.42763844
219	0x3f33b8eb	0.7020404
220	0x3f3c0c9a	0.7345673
221	0x3f129cbc	0.5727041
222	0x3eb5fdd2	0.35545212
223	0x3eb63ced	0.35593358
224	0x3deb8bee	0.11501299
225	0x3f99fdf6	1.2030628
226	0xbee2468b	-0.44194445
227	0xbf833a23	-1.0252117
228	0xbf648c02	-0.89276135
229	0x3f870bed	1.0550514
230	0xbf83449e	-1.0255315
231	0xbefad169	-0.48987892
232	0x3f69e3a7	0.91362995
233	0xbf0f18e6	-0.55897367
234	0xbfaf8a88	-1.3714151
235	0xbf20e66c	-0.62851596
236	0xbf6f12ad	-0.9338787
237	0xbf80be8b	-1.0058149
238	0xbf3a5d6c	-0.727988
239	0x3f008f4f	0.5021867
240	0xbe9dc603	-0.30815133
241	0x3fd816f1	1.6882001
242	0x3f39bc55	0.72552997
243	0x3e8a081c	0.26959312
244	0x3f762443	0.9614908
245	0xbf0dc144	-0.55373025
246	0x3dd236a7	0.1026433
247	0xc006aecb	-2.1044185
248	0x3eb19b0f	0.34688613
249	0x3f6a9ee1	0.9164868
250	0x3d88e600	0.06684494
251	0xbfd5d7ca	-1.6706479
252	0x3ec5d760	0.3864088
253	0xbf107f1b	-0.5644395
254	0xbdd91c64	-0.10601118
255	0x3e5c4396	0.21510157

fc3.bias f4 [2]
0	0xbd5210ea	-0.05128566
1	0xbd0af35a	-0.033923484

bn1.weight f4 [256]
0	0x3f753ec2	0.95798886
1	0x3f42ccbf	0.7609367
2	0x3f7912b6	0.97294176
3	0x3f3783b0	0.71685314
4	0x3ef9da4d	0.48799363
5	0x3f42ed8b	0.7614371
6	0x3f35f1b6	0.71071947
7	0x3f6fe3ab	0.9370677
8	0x3f3909df	0.7228069
9	0x3fbb1d7d	1.4618374
10	0x3fac5210	1.3462543
11	0x3fd4960e	1.6608293
12	0x3f8f4dc3	1.1195606
13	0x3f292659	0.6607414
14	0x3f9366cf	1.151575
15	0x3f9f2ce1	1.2435571
16	0x3fbee60c	1.4913955
17	0x3f8a4e64	1.0805173
18	0x3e98c758	0.29839587
19	0x3f78f00f	0.972413
20	0x3fc73768	1.5563784
21	0x3f62ab81	0.88542944
22	0x3e8982d0	0.26857615
23	0x3fa3654b	1.2765287
24	0x3e7b85e8	0.245628
25	0x3f408997	0.75209945
26	0x3ed4fcc8	0.41599107
27	0x3ef17881	0.4716225
28	0x3f66545d	0.8997248
29	0x3f0d19b3	0.5511734
30	0x3f1535cd	0.5828522
31	0x3f31d7fa	0.6947018
32	0x3f4ba267	0.7954468
33	0x3f5d5bf3	0.8646843
34	0xbf3481c9	-0.70510536
35	0x3f2192fa	0.63114893
36	0x3d7b6ba9	0.06138197
37	0x3f87ac6b	1.0599493
38	0x3f05be1d	0.52243215
39	0x3f8183b1	1.0118314
40	0x3f59b203	0.8503725
41	0x3f2808b5	0.65638286
42	0x3f0dc9c9	0.55386025
43	0x3f3a63bc	0.7280843
44	0x3f88cf59	1.0688277
45	0x3f284ab3	0.6573898
46	0x3f2f26d3	0.68418616
47	0x3f808841	1.0041581
48	0x3fcbc045	1.5918051
49	0x3f137b1d	0.5760973
50	0x3f3d1676	0.738624
51	0x3f7816b7	0.9690966
52	0x3f53c274	0.82718587
53	0x3ea41db7	0.3205392
54	0x3eb09ccb	0.34494624
55	0x3f0c3021	0.5476094
56	0x3e84bde1	0.25926116
57	0x3faae36b	1.3350652
58	0x40117509	2.2727683
59	0x3fc8cb37	1.5687016
60	0x3f854df7	1.0414418
61	0x3f4f5512	0.8098918
62	0x3f5e792a	0.8690363
63	0x3f4af8bc	0.7928579
64	0x3f52b777	0.82311195
65	0x3f7972a7	0.9744057
66	0x3f878874	1.0588517
67	0x3fa726da	1.3058732
68	0x3ea50d2d	0.32236615
69	0x3fa5a8d7	1.2942151
70	0x3f2db7b5	0.6785844
71	0x3f48f957	0.7850546
72	0x3f406238	0.7514987
73	0x3ed15299	0.4088333
74	0x3f363313	0.71171683
75	0x3f7dd774	0.9915688
76	0x3eefddce	0.4684891
77	0x3eccc596	0.39994496
78	0x3f193a8e	0.5985497
79	0x3fe01cf2	1.7508833
80	0x3f52253a	0.82088053
81	0x3f10ad5e	0.5651454
82	0x3f273dbb	0.6532857
83	0x3ee741e9	0.45167473
84	0x3f32e08b	0.69873875
85	0x3f17ca5f	0.5929317
86	0x3fadb9ef	1.3572367
87	0x3f131dac	0.5746715
88	0x3fd78577	1.6837605
89	0x3f1fe75c	0.624624
90	0x3f375b8f	0.7162408
91	0x3f5f1f32	0.87156975
92	0x3f5d5062	0.8645078
93	0x3f2eb1c1	0.6823998
94	0x3f54bf3a	0.8310429
95	0x3f28aac7	0.65885586
96	0x3f65e543	0.8980295
97	0x3f339fd1	0.70165735
98	0x3f21fa43	0.63272494
99	0x3f505708	0.813828
100	0x3f18bcfb	0.5966336
101	0x3f37d29d	0.71805745
102	0x3f929126	1.1450546
103	0x3e9fda78	0.31221366
104	0x3f5faa19	0.87368923
105	0x3ea0f8b1	0.31439736
106	0x3f9d1b73	1.2274002
107	0x3f71028e	0.94144523
108	0x3f21deee	0.6323079
109	0x3fcb47d8	1.58813
110	0x3f128772	0.57237923
111	0x3f6e0bd5	0.92986804
112	0x3f7ec707	0.9952244
113	0x3f35d122	0.71022236
114	0x3f43e671	0.765235
115	0x3f1fd49c	0.6243379
116	0x3fbb73df	1.4644736
117	0x3f84fa90	1.0388966
118	0x3eeac905	0.4585649
119	0x3f1c4d31	0.61055285
120	0x3fab4765	1.3381163
121	0x3f8474cd	1.0348145
122	0x3faa506d	1.3305794
123	0x3f91dc17	1.1395291
124	0x3f75729a	0.95877993
125	0x3f52bd69	0.82320267
126	0x3ede4d13	0.43418178
127	0x3ef862ea	0.48512965
128	0x401970e0	2.3975143
129	0x3f26073b	0.6485478
130	0x3f7ed125	0.9953788
131	0x3fa103a7	1.257924
132	0x3f3c7244	0.73611856
133	0x3f873309	1.056245
134	0x3f41e7ca	0.7574431
135	0x3f3cc013	0.7373058
136	0x3eb3eead	0.35143033
137	0x3fc43f9b	1.5331911
138	0x3f64a1e2	0.89309514
139	0x3f9a30c1	1.2046129
140	0x3f90920e	1.1294572
141	0x3f0c2bc1	0.54754263
142	0x3f453e72	0.7704841
143	0x3f4faa72	0.81119454
144	0x3f22bb15	0.63566715
145	0x3f3c5fea	0.73583853
146	0x3ee2d7ff	0.44305417
147	0x3f9c8cfb	1.2230524
148	0x3f9c2445	1.2198569
149	0x3f2aef83	0.66771716
150	0x3f648be3	0.8927595
151	0x3f46e32d	0.7769039
152	0x3f8aed04	1.0853581
153	0x3fe77334	1.8082032
154	0x3f94190a	1.1570141
155	0x3f0e154a	0.55501235
156	0x3f435c6e	0.7631291
157	0x3f40b728	0.75279474
158	0x3f84b9aa	1.036916
159	0x3f4af206	0.7927555
160	0x3f8465e0	1.034359
161	0x3f261232	0.64871514
162	0x3f35a7d0	0.70959187
163	0x3f7a63cd	0.97808534
164	0x3f880e21	1.0629312
165	0x3f8dd748	1.1081324
166	0x3f59cf78	0.850822
167	0x3f47d353	0.7805683
168	0x3f441f3e	0.7661017
169	0x3f2d6864	0.6773741
170	0x3f1f2866	0.6217102
171	0x3f72892a	0.94740546
172	0x3f1f0f31	0.62132555
173	0x3f0e3323	0.5554678
174	0x3f40a8d4	0.7525761
175	0x3f91cd03	1.139069
176	0x3f1e27fc	0.6177976
177	0x3fc1fe56	1.5155742
178	0x3ee003fd	0.43753043
179	0x3f9068a8	1.1281939
180	0x3f2645f8	0.64950514
181	0x3f7d55c9	0.9895902
182	0x3f26504c	0.64966273
183	0x3f473d41	0.7782784
184	0x3e94dba8	0.29073834
185	0x3f2d8585	0.6778186
186	0x3f773027	0.9655785
187	0x3f4b8fa4	0.79516053
188	0x3f64143f	0.89093393
189	0x3f8eff39	1.1171638
190	0x3f5baf88	0.85814714
191	0x3ee1076e	0.4395098
192	0x3f0d87de	0.5528544
193	0x3eac3662	0.3363524
194	0x3f024109	0.50880486
195	0x3e6201e6	0.22071037
196	0x3fbce7cd	1.475824
197	0x3f4fd22b	0.81180066
198	0x3e63f4db	0.22261374
199	0x3fbe1b04	1.4851995
200	0x3f5f92af	0.87333196
201	0x3f9619cf	1.1726626
202	0x3df1b8f9	0.11802859
203	0x3f0de705	0.5543063
204	0x3f3b5599	0.73177487
205	0x3f56a547	0.83845943
206	0x3f7f9d66	0.99849546
207	0x3f3ee443	0.7456705
208	0x3f2bdc23	0.67132777
209	0x3fb44729	1.4084216
210	0x3f8468f7	1.0344533
211	0x3f834b0d	1.0257279
212	0x3f601a1a	0.8753983
213	0x3eca42bc	0.3950404
214	0x3eeba9eb	0.46028075
215	0x3f40377d	0.7508467
216	0x3e48320b	0.1955034
217	0x3f615e48	0.88034487
218	0x3f4249a5	0.7589362
219	0x3f55ad55	0.8346761
220	0x3f46922f	0.7756681
221	0x3eeb54d7	0.45963165
222	0x3fa29915	1.2702967
223	0x3f1e5ed9	0.61863476
224	0x3f13a532	0.57673943
225	0x3ef28793	0.4736906
226	0x3f5af015	0.85522586
227	0x3f7dd089	0.99146324
228	0x3f83794c	1.0271392
229	0x3efa0c14	0.4883734
230	0x3f4985f6	0.78720033
231	0x3fb0bec5	1.3808218
232	0x3f703e84	0.9384539
233	0x3f0c53f4	0.548156
234	0x3ef06aa6	0.46956366
235	0x3f4460e8	0.7671037
236	0x3f14d73f	0.5814094
237	0x3f43e0df	0.76515
238	0x3f5d23df	0.8638286
239	0x3eee641d	0.46560755
240	0x3f2c0902	0.67201245
241	0x3fd1969f	1.6374091
242	0x3f83795e	1.0271413
243	0x3f801cc1	1.0008775
244	0x3f950a6e	1.1643808
245	0x3f40c8d1	0.7530642
246	0x3f8bab41	1.0911638
247	0x3fa3814f	1.2773837
248	0x3e953b74	0.29146922
249	0x3fb35699	1.4010803
250	0x3f46825f	0.7754268
251	0x3e98d6db	0.29851422
252	0x3f48039f	0.78130525
253	0x3eccaf70	0.39977598
254	0x3f3886f0	0.720809
255	0x3f6c8f4e	0.92406166

bn1.bias f4 [256]
0	0x3e6b9947	0.2300769
1	0x3d1af89a	0.03783474
2	0x3eedbd2a	0.46433383
3	0x3dacb953	0.08433785
4	0x3e17ef59	0.14837398
5	0x3d86ea26	0.06587629
6	0x3e25572e	0.16146538
7	0x3e725efe	0.23669049
8	0x3c9bb6e4	0.019008107
9	0xbc834638	-0.016024694
10	0xbdb2cabe	-0.08730076
11	0xbd64dcc1	-0.05587459
12	0x3ec1adc0	0.37827873
13	0xbdf2b4a6	-0.11850862
14	0x3f297cf3	0.6620628
15	0x3d3b9dfd	0.045804966
16	0x3cc6507f	0.024208305
17	0x3f00362b	0.50082654
18	0x3cfd311f	0.030907212
19	0x3e890fd3	0.26769885
20	0x3eb12d2b	0.34604773
21	0x3d027e2e	0.031858616
22	0xbe51c0e1	-0.20483734
23	0x3e5b1910	0.2139628
24	0xbdc42a83	-0.09578421
25	0x3c5d9db7	0.013526372
26	0x3e4322fd	0.19056316
27	0x3c121a43	0.008917394
28	0x3eb953d1	0.3619676
29	0x3e21219b	0.15735476
30	0x3e77b36c	0.24189538
31	0xbe9a9408	-0.30191064
32	0x3bc7fcc1	0.0061031287
33	0x3e0b3a93	0.13596563
34	0xbc7fe23d	-0.015617904
35	0x3d4c9545	0.049947042
36	0xbb4150a3	-0.0029497526
37	0x3e2d9d8c	0.1695463
38	0x3e6bd702	0.23031238
39	0xbd26287c	-0.040565953
40	0x3e9498c7	0.2902281
41	0x3e8f2ac5	0.27962318
42	0xbdd04f27	-0.10171347
43	0x3dcc576f	0.09977614
44	0x3e95ee9f	0.29283616
45	0x3e513168	0.20429003
46	0x3e65614c	0.22400397
47	0x3d4f3687	0.05058911
48	0x3eae26f3	0.3401409
49	0x3d8cbbe4	0.06871775
50	0x3e9bed36	0.30454415
51	0x3e2de559	0.1698202
52	0x3e538ccb	0.20659177
53	0x3df743b9	0.12073464
54	0xbd78f927	-0.060784485
55	0xbd73af6f	-0.05949348
56	0xbe07d74c	-0.13265723
57	0x3f0165da	0.5054604
58	0x3ede1550	0.43375635
59	0x3dcd9e91	0.1004001
60	0x3d8988e6	0.067155644
61	0x3e2e510c	0.17023104
62	0xbc1113ec	-0.008854847
63	0x3eb71c97	0.35764
64	0x3dd30658	0.10303944
65	0x3ea425a5	0.3205997
66	0x3ead9d03	0.33908853
67	0x3e7df583	0.24800687
68	0xbaf7eb34	-0.00189147
69	0x3e67f4f6	0.22652039
70	0x3e0171b7	0.12641035
71	0x3e68079e	0.22659156
72	0x3dd74931	0.10512007
73	0xbd9ad5f5	-0.0756034
74	0x3deace61	0.11465145
75	0x3e70a91d	0.23502012
76	0xbc87f353	-0.016595518
77	0xbc46b0c3	-0.012127104
78	0xbeecceb8	-0.46251464
79	0x3d9f3cfa	0.07775302
80	0x3e907cd2	0.2822023
81	0x3e31d439	0.17366113
82	0x3eb22507	0.34793875
83	0xbe3c5d7c	-0.18395036
84	0x3ec70ff6	0.38879365
85	0x3df23337	0.11826175
86	0x3e6a85ea	0.22902647
87	0x3ed384f8	0.41312385
88	0xbc989026	-0.018623423
89	0x3e245d70	0.16051269
90	0x3e458dcf	0.19292377
91	0x3d688923	0.05677141
92	0x3da0ad9a	0.07845612
93	0xbbad97ae	-0.0052976226
94	0xbd7169a4	-0.058938637
95	0xbcfd8a03	-0.030949598
96	0x3edb99c7	0.4289076
97	0xbd6f02f2	-0.05835242
98	0x3e937f22	0.28807932
99	0xbc948718	-0.018130824
100	0x3e2fa694	0.17153388
101	0xbdc1fa95	-0.09471623
102	0x3f088446	0.53326833
103	0xbd762d52	-0.060101815
104	0x3e5e3025	0.21698053
105	0x3d51042a	0.05102936
106	0x3d990471	0.0747155
107	0xbce0f90e	-0.027462509
108	0xbe3e6c00	-0.18595886
109	0x3ebf780c	0.37396276
110	0xbe89c9c0	-0.26911736
111	0x3ecd8978	0.40143943
112	0x3e5e004d	0.21679802
113	0x3e1ee8f9	0.1551856
114	0x3ee88eef	0.4542155
115	0xbe17ab20	-0.14811373
116	0x3efc2c37	0.49252483
117	0x3e573e8a	0.2101995
118	0xbc3a3b6a	-0.0113667045
119	0x3c3fbc29	0.011702576
120	0x3ed60315	0.41799226
121	0x3e25f98e	0.16208479
122	0xbd5b3d91	-0.05352551
123	0x3eb7dc58	0.35910296
124	0x3f1100e8	0.5664201
125	0x3e4587c7	0.19290076
126	0x3c2b35d3	0.010449844
127	0xbc965a43	-0.018353587
128	0x3ee4216e	0.44556755
129	0x3f168a5a	0.5880486
130	0x3cdfd8dc	0.027325086
131	0x3f16a165	0.5884002
132	0x3cda3da3	0.026640719
133	0x3d8c1a14	0.068409115
134	0x3e7c676e	0.2464883
135	0x3dc4e1a0	0.09613347
136	0x3dee0e66	0.1162384
137	0x3d8bf4ae	0.06833778
138	0xbe23a6a1	-0.15981533
139	0x3d98f539	0.074686475
140	0x3c9234f4	0.017847516
141	0x3e8b8de8	0.27256703
142	0x3e36b92a	0.17844072
143	0x3e9c7309	0.30556515
144	0xbefec4d4	-0.49759543
145	0x3dab8e3f	0.08376741
146	0x3d995355	0.074865974
147	0x3f2a744f	0.6658372
148	0xbe45f1c2	-0.19330505
149	0xbd8aff57	-0.067869835
150	0x3e3da715	0.18520768
151	0x3e48549a	0.19563523
152	0x3ed37ab3	0.4130455
153	0x3f375825	0.7161887
154	0x3e124661	0.1428466
155	0x3e65607f	0.22400092
156	0x3e371542	0.17879203
157	0xbde98633	-0.114025496
158	0x3f27041b	0.6524064
159	0x3c4da52f	0.01255159
160	0x3d59e969	0.053201113
161	0xbdfb29ce	-0.12263833
162	0x3e7c2847	0.2462474
163	0x3e0d17db	0.13778631
164	0x3ed3448c	0.41263235
165	0x3d451865	0.048118968
166	0x3e32bec1	0.1745558
167	0x3e3c0388	0.18360722
168	0xbe324e20	-0.17412615
169	0x3da6cf6a	0.0814503
170	0x3e8f8410	0.28030443
171	0x3f3c36a4	0.73520875
172	0x3c0509f6	0.008120051
173	0xbd7439f2	-0.059625573
174	0x3e2f00b7	0.17090116
175	0x3d47c32f	0.048770126
176	0x3e5918f8	0.21200931
177	0xbab5d84a	-0.0013873663
178	0xbdbba0ec	-0.09161553
179	0x3e3ea0c6	0.18616018
180	0xbe30e48a	-0.1727468
181	0x3da76b2b	0.081747375
182	0x3e2f0f62	0.17095712
183	0x3cc7e753	0.024402296
184	0x3f196be0	0.5993023
185	0xbc2782b0	-0.010224029
186	0x3cb48ca7	0.022039725
187	0xbd85cf19	-0.06533641
188	0x3e5a75db	0.21334021
189	0x3e638d61	0.222219
190	0x3e87e789	0.26543835
191	0x3e5eab4b	0.2174503
192	0xbd93c549	-0.072153635
193	0x3e0d6e13	0.13811521
194	0x3ec27194	0.37977278
195	0xbd1108eb	-0.035408895
196	0x3db93e29	0.09045059
197	0x3e49bffc	0.19702142
198	0x3a98ba6d	0.0011652239
199	0x3f1f061f	0.62118715
200	0x3e4190ea	0.18902937
201	0x3e060f50	0.13091779
202	0x3eb3649c	0.35037696
203	0x3e2cb110	0.16864419
204	0x3c31b3f8	0.010846131
205	0x3e841c62	0.25802904
206	0x3ea16e3f	0.31529424
207	0x3e4753af	0.19465517
208	0x3e95ee49	0.2928336
209	0x3dfc046d	0.12305532
210	0x3dbc7676	0.09202282
211	0x3d3517a4	0.044212
212	0x3e3f90cf	0.18707584
213	0x3df393ea	0.11893447
214	0x3e1210f6	0.14264283
215	0x3e7027df	0.2345271
216	0xbc8bd7b1	-0.017070623
217	0x3e00d489	0.12581076
218	0xbe348571	-0.17629029
219	0x3e9cccdf	0.30625054
220	0x3e8ea0b3	0.2785698
221	0x3ea5ba06	0.32368487
222	0x3ee8ae92	0.45445687
223	0x3e294dd2	0.16533592
224	0xbc5529a2	-0.013010414
225	0x3e6e15b2	0.23250464
226	0x3e0a8a11	0.1352923
227	0x3d933915	0.07188622
228	0xbdb0740d	-0.08615885
229	0x3e755839	0.23959436
230	0x3e00f66c	0.12594002
231	0x3ec4b8c2	0.3842221
232	0x3e7588ef	0.23978017
233	0x3d325e87	0.04354718
234	0xbde62073	-0.11236658
235	0x3e562fae	0.20916626
236	0x3e351749	0.17684664
237	0x3f2cc39d	0.6748598
238	0x3e8e498e	0.27790493
239	0x3be3cddd	0.006952031
240	0x3ee1f78f	0.44134185
241	0x3ea67c65	0.3251678
242	0xbc2ed370	-0.010670528
243	0x3eac6236	0.3366868
244	0x3e63c123	0.22241645
245	0xbf1712bc	-0.5901296
246	0x3e3764dd	0.1790957
247	0x3f08d141	0.53444296
248	0xbb92e0cc	-0.0044823643
249	0x3e893a46	0.26802272
250	0x3e3f0222	0.18653157
251	0x3db5d13c	0.08877799
252	0xbd8d871f	-0.06910538
253	0xbe3acb7b	-0.18241684
254	0x3de5db8f	0.11223518
255	0x3eaf5529	0.3424466

bn1.running_mean f4 [256]
0	0x4064b3fc	3.5734854
1	0x00000004	6e-45
2	0x3af05cf7	0.0018338253
3	0x410297fd	8.1621065
4	0x3fc5b688	1.5446329
5	0x3fb8ffc2	1.4453051
6	0x3f875770	1.0573559
7	0x3f3cc94c	0.73744655
8	0x3fb38c67	1.4027222
9	0x3e4cb53a	0.19991007
10	0x409f82e3	4.9847274
11	0x4064c1df	3.574333
12	0x3f757cca	0.9589354
13	0x3bef7cf1	0.0073085953
14	0x4081665e	4.043746
15	0x3e90b970	0.28266478
16	0x3de600b5	0.112306036
17	0x3f3a5407	0.72784466
18	0x4098ccb9	4.7749906
19	0x40dc1553	6.877603
20	0x40384b4e	2.8795962
21	0x3f61c26b	0.88187283
22	0x3bde84e6	0.006790745
23	0x3e4e01e5	0.2011791
24	0x3f7b6603	0.9820253
25	0x3a3ce28c	0.0007205389
26	0x00000004	6e-45
27	0x29398f06	4.1202305e-14
28	0x40436112	3.0527997
29	0x40c3f25b	6.1233344
30	0x400ec3dc	2.2307043
31	0x41a13589	20.15114
32	0x40d1b290	6.553047
33	0x3e85b628	0.26115537
34	0x3ab2bd32	0.0013636707
35	0x40151289	2.3292563
36	0x41765a17	15.396995
37	0x401d27f1	2.4555628
38	0x408030fe	4.0059805
39	0x37825601	1.5537256e-05
40	0x3f8376b1	1.0270597
41	0x40229c66	2.5407958
42	0x3f82feb8	1.0233984
43	0x3ea07115	0.31336275
44	0x401f702c	2.4912214
45	0x3f870a9d	1.0550114
46	0x3f4843be	0.78228366
47	0x41c65f76	24.796612
48	0x3ca17ef2	0.019713853
49	0x3fd8a260	1.6924553
50	0x3f4ae39d	0.7925356
51	0x412d1812	10.818377
52	0x40887c44	4.265169
53	0x40c6efb9	6.216763
54	0x41a3a202	20.454105
55	0x4041d42e	3.0285754
56	0x40f4a16b	7.6447043
57	0x3f65ac79	0.897163
58	0x40423466	3.0344481
59	0x3e09c69a	0.13454667
60	0x39bfbf54	0.0003657291
61	0x3f52a3e1	0.8228131
62	0x3f6d90b4	0.92798924
63	0x3eed6fe3	0.46374425
64	0x3d953237	0.07284968
65	0x3fb54c64	1.4163938
66	0x400624d8	2.0959988
67	0x408a8ffe	4.330077
68	0x00000004	6e-45
69	0x402e9165	2.7276242
70	0x4014b92c	2.323802
71	0x40399d05	2.9002087
72	0x408879c2	4.264863
73	0x40450636	3.078504
74	0x3fb40820	1.406498
75	0x3f06dfd7	0.526853
76	0x40b3d1bc	5.6193523
77	0x29a6d9d7	7.40967e-14
78	0x40df5451	6.9790425
79	0x3fc5a064	1.5439572
80	0x3ddb7915	0.10716454
81	0x40673d4e	3.6131167
82	0x408cb7ba	4.3974276
83	0x3708fb10	8.164687e-06
84	0x3fcef053	1.6167091
85	0x4070126b	3.7511241
86	0x3df6debc	0.12054202
87	0x4022dce0	2.5447311
88	0x3fab5334	1.3384767
89	0x4034f449	2.82741
90	0x4081c701	4.0555425
91	0x40326db5	2.787946
92	0x3e4d3244	0.20038706
93	0x28dfe3e0	2.4856798e-14
94	0x3f3c2831	0.7349883
95	0x3e21dfb7	0.15807997
96	0x401a8009	2.4140646
97	0x3d0cbb89	0.034358535
98	0x3f54a277	0.830604
99	0x00000004	6e-45
100	0x406912f3	3.6417816
101	0x3d5ea5e1	0.054357413
102	0x4028ae9f	2.635658
103	0x3f7d9592	0.9905635
104	0x40ba4f7a	5.8222017
105	0x40129011	2.290043
106	0x3ab2033b	0.0013581285
107	0x3fc0fbfe	1.5076902
108	0x3f065286	0.5246967
109	0x407a7e74	3.913968
110	0x3a938058	0.0011253459
111	0x3fd01742	1.6257098
112	0x3ed99204	0.42494214
113	0x4093f2ea	4.6234026
114	0x3fe44eca	1.7836545
115	0x3efad04c	0.48987043
116	0x403752bf	2.8644254
117	0x3ea0fdcb	0.3144363
118	0x3eb9e4b1	0.3630729
119	0x40186d30	2.3816643
120	0x3fc3ad9a	1.5287354
121	0x3e694d5d	0.22783418
122	0x3e657bf5	0.22410567
123	0x3c1a78cd	0.009428215
124	0x410c2854	8.759846
125	0x4050d1ed	3.2628129
126	0x00000004	6e-45
127	0x3f0291d2	0.51003754
128	0x404ef372	3.2336087
129	0x00000004	6e-45
130	0x3fb190c7	1.3872308
131	0x3fbee598	1.4913816
132	0x3c0e3c98	0.008681439
133	0x3f25d3fd	0.64776593
134	0x3da46716	0.080274746
135	0x3c9158c4	0.017742522
136	0x3b83ade5	0.0040185326
137	0x3f090fd7	0.53539795
138	0x3b5f2538	0.0034049284
139	0x40398ee1	2.8993456
140	0x3f9616fd	1.1725765
141	0x4018ea9c	2.3893194
142	0x408c2d0e	4.3805
143	0x3f5a27f0	0.8521719
144	0x416a52b9	14.645196
145	0x3fe45788	1.7839212
146	0x3f3eb9bb	0.7450215
147	0x3d9c8982	0.07643415
148	0x41b75432	22.916111
149	0x3f4f54d4	0.8098881
150	0x3f914a91	1.1350881
151	0x3c5167eb	0.012781124
152	0x406797a1	3.6186297
153	0x3fd606ba	1.6720803
154	0x3f31a87e	0.69397724
155	0x40859306	4.174197
156	0x00000004	6e-45
157	0x41269bb5	10.413014
158	0x3fef1fd7	1.8681592
159	0x40248fa5	2.5712674
160	0x4014b9af	2.3238332
161	0x3fab6f74	1.3393388
162	0x40574f90	3.364231
163	0x3fd6e019	1.6787139
164	0x40c6024e	6.1877813
165	0x40a656ab	5.1980796
166	0x3bb7c128	0.005607743
167	0x3f116103	0.56788653
168	0x3f1447b5	0.57921916
169	0x3f3e39d1	0.7430697
170	0x3ccd0d69	0.025030809
171	0x409d138e	4.908637
172	0x40599d3b	3.4002216
173	0x41635a00	14.209473
174	0x3eb3b569	0.35099342
175	0x3e9f6f64	0.31139672
176	0x3f731af8	0.94963026
177	0x4096daa1	4.714188
178	0x3e86d96a	0.2633775
179	0x390ba2b1	0.0001331668
180	0x4054a2d8	3.3224392
181	0x3ef20dcb	0.47276148
182	0x402c2c8d	2.6902192
183	0x3e3afe84	0.18261153
184	0x00000004	6e-45
185	0x00000004	6e-45
186	0x3e66417b	0.22485916
187	0x3eab7275	0.3348576
188	0x3f7ff4d8	0.99982977
189	0x3ff46b96	1.9095333
190	0x405a92af	3.4152029
191	0x408e18f1	4.4405446
192	0x40d1fe3e	6.5622854
193	0x402bf6f7	2.6869485
194	0x3fca688e	1.5813158
195	0x3f486f08	0.7829442
196	0x40007590	2.0071754
197	0x3f9af8bb	1.2107157
198	0x00000004	6e-45
199	0x3fc7baad	1.5603844
200	0x3f65456b	0.8955905
201	0x3ed4dac2	0.4157315
202	0x40d7eff7	6.7480426
203	0x3fb62d98	1.4232664
204	0x3927c9bb	0.00016001512
205	0x3fb9fb2a	1.4529774
206	0x3ffef278	1.9917746
207	0x3ecfd307	0.4059069
208	0x40717cac	3.7732344
209	0x41b26f57	22.304365
210	0x3c528dec	0.01285122
211	0x3f4c5ca3	0.7982885
212	0x3f3d3988	0.7391591
213	0x39ae7dcc	0.00033281592
214	0x406ae2f2	3.6701016
215	0x3f521963	0.8206999
216	0x3e9a1c19	0.30099562
217	0x3f9a6933	1.2063354
218	0x4177d0e5	15.4885
219	0x3fa8a74e	1.3176057
220	0x3fb2f845	1.3982016
221	0x406c0196	3.6875968
222	0x3f8f06c4	1.117394
223	0x3fac0aa6	1.344075
224	0x3be20a16	0.006898175
225	0x40599d7b	3.4002368
226	0x3fc69dff	1.5516967
227	0x3fbe27e6	1.4855926
228	0x3b0dcd2c	0.0021637185
229	0x4161683a	14.087946
230	0x3f448dc5	0.76778823
231	0x3ccabc13	0.024747884
232	0x3fcecb32	1.615576
233	0x3d8eed4f	0.06978857
234	0x417156d6	15.0837
235	0x3f32230e	0.6958474
236	0x406ec718	3.7309017
237	0x3f7fa984	0.99868035
238	0x40ce8c1c	6.454603
239	0x00000004	6e-45
240	0x409cd9de	4.901595
241	0x3fc77e3c	1.5585399
242	0x3ffd7be8	1.9803438
243	0x3f379ea2	0.7172643
244	0x40cfef8c	6.4979916
245	0x4127d91f	10.490508
246	0x3ca90243	0.020630961
247	0x4036af79	2.85446
248	0x3fea5e11	1.8309957
249	0x40b409fa	5.626218
250	0x3f1a6aad	0.60319024
251	0x00000004	6e-45
252	0x3f6fcd9e	0.9367312
253	0x406ab2df	3.6671674
254	0x3f869099	1.0512878
255	0x3f42818f	0.7597894
