checkpoint_critic_2021-06-21_01-46-51.pth (torch_old, 190102 bytes, 9 tensors)

fcs1.weight f4 [256, 48]
0	0x3ebb1381	0.36538318
1	0x3f239f59	0.6391502
2	0x3d3f3c0c	0.046688125
3	0xbeaef8ad	-0.341741
4	0x3e3811a9	0.17975487
5	0xbf0bf811	-0.54675394
6	0x3af1a977	0.0018437345
7	0xbed5280b	-0.41632113
8	0x3e17e04e	0.14831659
9	0xbe4ca06f	-0.19983076
10	0x3d2b67f2	0.041847177
11	0xbf1e6ed3	-0.61887854
12	0x3e90ddb7	0.28294155
13	0x3efbc17c	0.49171054
14	0x3da3a100	0.07989693
15	0xbf11180e	-0.5667733
16	0xbd851b6d	-0.06499372
17	0xbf35c6a9	-0.71006256
18	0xbe4a5f85	-0.19763
19	0x3d8c9bf8	0.06865686
20	0x3e7db8c9	0.24777521
21	0x3fc60ec6	1.5473258
22	0xbe7c8dd9	-0.24663486
23	0x3e100dfc	0.14067835
24	0x3f03dc44	0.51507974
25	0xbf7ea46c	-0.9946964
26	0xbd5e13ba	-0.05421803
27	0xbdb56974	-0.08858004
28	0xbe7a4098	-0.24438703
29	0xbeff2ae8	-0.49837422
30	0xbd579237	-0.052629676
31	0xbd1bee86	-0.03806927
32	0x3ee04295	0.43800798
33	0xbf9776cd	-1.183313
34	0xbbd8ccf4	-0.006616229
35	0x3e80087a	0.25006467
36	0xbec86eed	-0.3914713
37	0x3ed3534f	0.41274497
38	0xbda7bf93	-0.08190837
39	0x3e051bbd	0.12998863
40	0x3eae7dcd	0.34080353
41	0xbfaff21d	-1.3745762
42	0xbe230494	-0.15919715
43	0xbe34b8be	-0.17648599
44	0xbe7f496a	-0.24930349
45	0x3fce7bd6	1.6131542
46	0xbe4e8023	-0.20166068
47	0xbe25677b	-0.16152756
48	0x3e8307be	0.25591844
49	0x3e612fa1	0.21990825
50	0x3b7ee83f	0.0038895754
51	0x3ef78ca7	0.48349497
52	0xbea83993	-0.32856426
53	0x3de32e84	0.110928565
54	0x3ce116b3	0.027476644
55	0x3ee11e1b	0.4396828
56	0x3e679e80	0.22619057
57	0x3e35538b	0.1770765
58	0x3dede339	0.11615605
59	0x3daef985	0.08543686
60	0xbddae1a6	-0.1068757
61	0xbdcbd6b8	-0.09953064
62	0x3d50e62b	0.051000755
63	0x3e484504	0.19557577
64	0x3e1aee5c	0.1512999
65	0x3f1dcf11	0.61644083
66	0xbe3ec085	-0.18628128
67	0x3fca8a84	1.5823522
68	0xbe53128b	-0.20612542
69	0xbef8c555	-0.48588052
70	0xbe2ec79a	-0.1706833
71	0x3fbd0ac4	1.476891
72	0x3dc8a777	0.097975664
73	0x3f880d45	1.062905
74	0xbccdb3f4	-0.025110222
75	0x3e2ed430	0.1707313
76	0x3e961248	0.29310822
77	0x3d86c01b	0.0657961
78	0xbd2df07e	-0.04246568
79	0x3de170ff	0.110078804
80	0x3ee686cb	0.45024714
81	0x3f66e4e4	0.9019301
82	0xbe875c79	-0.2643774
83	0xbf10452c	-0.5635555
84	0x3ddd077b	0.107924424
85	0xbd702cf8	-0.058636636
86	0xbe9b0b66	-0.30282134
87	0xbf14489a	-0.5792328
88	0x3f8eaf10	1.1147175
89	0x3e877a39	0.26460436
90	0x3eed4e38	0.4634874
91	0xbe8deb41	-0.27718547
92	0x3e3a46bc	0.18191046
93	0xbeec4e55	-0.46153513
94	0x3ef7402c	0.48291147
95	0xbe4833e2	-0.19551042
96	0x3e667742	0.22506431
97	0x3ea209ee	0.316482
98	0xbd2db454	-0.042408302
99	0xbd284e9b	-0.04109059
100	0xbd643281	-0.055712227
101	0xbf0b7280	-0.5447159
102	0xbd1a1902	-0.037621506
103	0x3b5e543b	0.0033924717
104	0x3ea7dee1	0.3278723
105	0x3ea70e97	0.3262832
106	0x3a1ce6fb	0.00059853465
107	0xbc950af2	-0.018193696
108	0x3bc452a1	0.0059912954
109	0xbf1340f3	-0.5752098
110	0xbd9538d9	-0.072862335
111	0x3d97e507	0.074167304
112	0x3e95e81f	0.29278657
113	0x3e4573a8	0.192824
114	0xbc0cb9d5	-0.008589228
115	0xbe43e111	-0.19128825
116	0x3e200a93	0.15629034
117	0xbf35ccc6	-0.71015584
118	0xbcb8f429	-0.022577362
119	0xbe23eb43	-0.16007714
120	0x3f50a498	0.8150115
121	0x3d2758e9	0.040856276
122	0xbd300ea8	-0.042982727
123	0x3e46597e	0.19370076
124	0xbcac1705	-0.02100707
125	0xbf07bf54	-0.5302632
126	0xbdc03414	-0.09384933
127	0x3e81eab4	0.25374377
128	0x3f4757fb	0.7786862
129	0x3d0d89d9	0.03455529
130	0xbd42c466	-0.04755058
131	0xbe1f4a28	-0.15555632
132	0x3c00a6e2	0.007852288
133	0xbf161e1f	-0.5863971
134	0x3cb42bbe	0.021993514
135	0xbe0427cb	-0.12905805
136	0x3f351ce6	0.7074722
137	0xbd7492f3	-0.059710454
138	0xbb01c73b	-0.0019802589
139	0x3e11dbd4	0.14244014
140	0xbdaff078	-0.08590788
141	0xbf3168de	-0.6930064
142	0xbccdaf42	-0.025107983
143	0x3e1d6dad	0.15373869
144	0x3f27b118	0.655046
145	0x3cb060d5	0.021530548
146	0xbd422e1e	-0.047407262
147	0x3e4dee65	0.20110472
148	0xbe344da1	-0.17607738
149	0xbf22ea92	-0.63639176
150	0xbd260eb0	-0.04054135
151	0x3e70a6fc	0.235012
152	0x3ed1fd64	0.41013634
153	0x3f057b96	0.521417
154	0x3d940443	0.07227375
155	0x3fb3c98c	1.4045882
156	0xbdd02a38	-0.101643026
157	0xbf2a0faa	-0.6643015
158	0x3dc923e2	0.09821297
159	0x3fb22251	1.3916723
160	0x3eadda56	0.3395564
161	0x3f74f16d	0.95680887
162	0x3d952b03	0.072835945
163	0x3e20ccfa	0.15703192
164	0xbdb939d3	-0.09044232
165	0xbf1c6afd	-0.6110075
166	0x3e3a64c4	0.18202502
167	0x3df794f2	0.12088956
168	0xbe8285f8	-0.25492835
169	0x3f75bb3b	0.95988816
170	0xbdc8fe0d	-0.09814081
171	0x3ba6cf43	0.0050906255
172	0x3e71a809	0.23599257
173	0xbf1a5989	-0.6029287
174	0xbd4bf86e	-0.049797468
175	0x3c9dfdba	0.019286025
176	0xbe56a689	-0.20961966
177	0x3fcad656	1.584666
178	0xbd936968	-0.07197839
179	0x3f88f11e	1.0698583
180	0x3e07aefa	0.13250342
181	0xbf314acf	-0.69254774
182	0xbe007858	-0.12545907
183	0x3f949e43	1.1610798
184	0xbe17e6b2	-0.14834097
185	0x4003f498	2.0618038
186	0xbda1fc9c	-0.079095095
187	0x3d212274	0.039339498
188	0x3d1652f4	0.036700204
189	0xbf292be6	-0.6608261
190	0xbe09bdfa	-0.13451377
191	0xbcee2198	-0.029068753
192	0xbce50977	-0.027958615
193	0xbe9adb6e	-0.30245537
194	0x3d092122	0.033478864
195	0x3d09161f	0.033468362
196	0x3b6f1221	0.0036479312
197	0xbfe32bf9	-1.7747794
198	0xbca50283	-0.0201428
199	0x3c8a08d4	0.016849913
200	0xbe0b33c5	-0.13593967
201	0xbe8d905c	-0.276492
202	0xbc65fae7	-0.014036871
203	0x3b3af139	0.0028525128
204	0xbd05c536	-0.032658778
205	0xbf3ac729	-0.72960144
206	0x3d1b1816	0.037864767
207	0x3cdd9363	0.027047819
208	0xbd2b58d6	-0.041832767
209	0x3e23eb1b	0.16007654
210	0x3d0b787d	0.034050453
211	0xbda938d9	-0.08262796
212	0x3ced342c	0.028955542
213	0x3fed96dc	1.8561664
214	0x3a0f4bb3	0.0005466297
215	0xbe185f50	-0.14880109
216	0xbcfe3e2d	-0.031035507
217	0xbe8c1fa5	-0.27367893
218	0x3b17fa5e	0.0023190002
219	0xbda0ffdf	-0.078613035
220	0x3d532e41	0.051557783
221	0xbfdac83b	-1.7092355
222	0xbc7d401d	-0.01545718
223	0xbbdca7d2	-0.006733873
224	0xbe4ca82b	-0.19986026
225	0xbdd71764	-0.10502508
226	0x3ba25a18	0.0049545877
227	0xbdd72621	-0.105053194
228	0xbda01c6b	-0.0781792
229	0xbf4366b4	-0.7632859
230	0x3cbc757b	0.023005238
231	0xbcd7f255	-0.02636067
232	0x3bb6601f	0.0055656577
233	0x3eca2751	0.3948312
234	0xbc84f489	-0.016229885
235	0x3befd0bc	0.0073185842
236	0xbde7ba35	-0.11314813
237	0x3ff45e46	1.909127
238	0x3c9a8db9	0.018866407
239	0x3b46c2c9	0.0030328503
240	0x3c011d6a	0.007880548
241	0xbd83d75b	-0.0643756
242	0x3d376a32	0.04477901
243	0x3e094155	0.13403828
244	0x3e8bde09	0.27317837
245	0xbf857eea	-1.0429356
246	0x3b2098df	0.002450518
247	0x3dfc1d21	0.123102434
248	0x3db65bb7	0.08904212
249	0x3d799074	0.060928777
250	0x3cf7a56d	0.030230248
251	0x3d8b0d57	0.06789654
252	0x3eb5a3e0	0.3547659
253	0x3dc47137	0.095919065
254	0x3c945585	0.018107185
255	0x3e0ef7d3	0.13961725

fcs1.bias f4 [256]
0	0xbea33d55	-0.3188273
1	0xbf2509e5	-0.6446822
2	0xbef9530f	-0.4869618
3	0xbf60c43e	-0.8779944
4	0x3df4c2a9	0.11951191
5	0xbfcf41c0	-1.619194
6	0xbf128feb	-0.5725085
7	0xbf48224b	-0.78177327
8	0xbe821c43	-0.25412187
9	0xbd26ffd2	-0.040771313
10	0xbfd6d865	-1.6784788
11	0xbebcdaa2	-0.36885554
12	0xbead4213	-0.33839473
13	0xbd2fb7e5	-0.042899985
14	0xbf17a183	-0.5923082
15	0xbf35d3d9	-0.7102638
16	0xbfa48750	-1.2853794
17	0xbe448319	-0.19190635
18	0xbf27bc1c	-0.6552141
19	0x3e1bbbee	0.15208408
20	0xbedd740c	-0.432526
21	0xbdb86e98	-0.09005469
22	0xbf90d5be	-1.1315229
23	0xbf39017c	-0.7226789
24	0xbf6d0774	-0.925895
25	0xbf4065c6	-0.75155294
26	0xbece0584	-0.40238583
27	0xbf5aa34c	-0.8540542
28	0xbf16417f	-0.5869369
29	0xbef1faea	-0.47261745
30	0x3eea00d5	0.4570376
31	0xbfa3959b	-1.2780031
32	0xbefea9df	-0.49738976
33	0xbfebc117	-1.8418301
34	0xbf3c0d6a	-0.7345797
35	0xbf56d908	-0.83924913
36	0xbfda0b65	-1.7034727
37	0xbf8b1f73	-1.0868973
38	0xbf5df9c2	-0.86709225
39	0xbea20355	-0.31643167
40	0xbf609e3b	-0.8774144
41	0xbea745f6	-0.32670563
42	0xc02a871f	-2.6644971
43	0xbf0a0925	-0.53920203
44	0xbf14aa72	-0.5807258
45	0xbe6bb36e	-0.23017666
46	0xbf105c8a	-0.56391203
47	0xbf6d92fb	-0.928024
48	0xbdb43cd1	-0.08800662
49	0xbcc18353	-0.02362219
50	0xbecbf1c7	-0.398329
51	0xbe93d50b	-0.28873476
52	0xbf8154c4	-1.0103993
53	0xbded5b57	-0.11589687
54	0xbf80b315	-1.0054651
55	0x3e08bbfb	0.13352959
56	0x3dcb1bc9	0.09917409
57	0xbea6d8d4	-0.32587302
58	0x3c82bd83	0.015959507
59	0xbf183fde	-0.59472454
60	0xbd9c403a	-0.07629438
61	0xbf93064d	-1.1486298
62	0x3e8ea0ac	0.27856958
63	0xbea6ce2c	-0.32579172
64	0xbf0a1acd	-0.53947145
65	0xbf246064	-0.6420958
66	0xbfd0cae2	-1.6311915
67	0xbfb0229f	-1.3760566
68	0xbf3f9089	-0.7482992
69	0xbe44cce6	-0.19218788
70	0xc00ed9d2	-2.2320447
71	0xbf03c6b1	-0.51475054
72	0xbf233b7d	-0.63762647
73	0xbd2e5d69	-0.04256955
74	0xbf4f854a	-0.8106276
75	0xbf7b2aa5	-0.98111945
76	0xbf7bd784	-0.98375726
77	0xbebd8e70	-0.37022734
78	0xbf76c402	-0.96392834
79	0x3d93a829	0.072098084
80	0xbfa91573	-1.3209671
81	0xbf5b3cb7	-0.8563952
82	0xbe8dffee	-0.2773432
83	0xbc6558c4	-0.013998214
84	0xc01f49ec	-2.4888868
85	0xbf916124	-1.135777
86	0xbf914e39	-1.1351997
87	0xbf10c862	-0.5655576
88	0xc0457bcc	-3.085681
89	0xbf07e820	-0.5308857
90	0xbeee2bfe	-0.46517938
91	0xbe815742	-0.25261885
92	0xbf38295e	-0.7193812
93	0xbe388555	-0.18019612
94	0xbf5c4aea	-0.8605181
95	0xbf30a957	-0.6900839
96	0xbf53e104	-0.8276522
97	0xbeb7816c	-0.3584093
98	0xbebbf51d	-0.36710444
99	0xbf116896	-0.5680021
100	0xbec6b1c9	-0.38807514
101	0xbfa7bbf9	-1.310424
102	0xbfb67c54	-1.4256692
103	0xbf379393	-0.71709555
104	0xbfb9eeb8	-1.4525976
105	0x3d54896c	0.05188887
106	0xbf458be7	-0.771666
107	0xbf17eece	-0.5934876
108	0xbf860547	-1.047036
109	0xbf080887	-0.5313801
110	0xbe9ea353	-0.30983981
111	0xbf8f5553	-1.1197914
112	0xbe8b402d	-0.271974
113	0xbe70616f	-0.23474668
114	0xbf0fcd4e	-0.56172645
115	0xbe3246b3	-0.17409782
116	0xbf918b75	-1.1370684
117	0xbf16182a	-0.5863062
118	0xbf83405c	-1.0254016
119	0xbf0d9ee3	-0.55320567
120	0x3d406ada	0.0469769
121	0xbf29d6ba	-0.6634327
122	0xbec31d57	-0.38108322
123	0xbf21bfd2	-0.6318332
124	0xbf9bd317	-1.2173795
125	0x3e344567	0.176046
126	0xbf8bff6c	-1.0937324
127	0xbea9d80f	-0.33172652
128	0xbe9be2f8	-0.304466
129	0xbe906329	-0.28200653
130	0xbf0b7262	-0.5447141
131	0xbcc09b23	-0.023511475
132	0xbf493b8a	-0.78606474
133	0xbf01b913	-0.50673026
134	0x3d4336b0	0.047659576
135	0xbf316e39	-0.6930881
136	0xbf48e4ed	-0.78474313
137	0x3e02580e	0.12728903
138	0xbe31a794	-0.17349082
139	0xbec26194	-0.3796507
140	0xbfb6d4fe	-1.428375
141	0xbeae7568	-0.3407395
142	0xbf2973d5	-0.6619237
143	0xbfe8eb3d	-1.8196789
144	0x3b2b47e9	0.002613539
145	0xbf8c2791	-1.0949575
146	0xbf5be5ba	-0.8589741
147	0xbe2e564c	-0.17025107
148	0xbfdb1076	-1.7114398
149	0xbf8f90e2	-1.121609
150	0xbf8cc7e6	-1.0998504
151	0x3eb218d1	0.34784558
152	0xbf623132	-0.88356316
153	0xbf3532ca	-0.7078062
154	0xbf2e0f3a	-0.67991984
155	0xbe9f8be5	-0.3116142
156	0xbf0a92f8	-0.54130507
157	0xbf20d664	-0.62827134
158	0xbfa44941	-1.2834855
159	0xbf38085d	-0.7188776
160	0xbf072005	-0.5278323
161	0xbf4afb65	-0.7928985
162	0xbf18644e	-0.5952805
163	0xbee7b454	-0.45254767
164	0xbe00ddf7	-0.12584673
165	0xbf10fa15	-0.56631595
166	0xbef09ace	-0.46993107
167	0x3f8e54a7	1.1119584
168	0xbf86e0fa	-1.0537407
169	0xbfc02700	-1.5011902
170	0xbf2a2e4a	-0.6647688
171	0xbf7a8886	-0.9786457
172	0xbbba728d	-0.005689925
173	0xbf0f1ae6	-0.5590042
174	0xbf06b1e1	-0.5261517
175	0xbe0657eb	-0.13119476
176	0xbec5c3f3	-0.3862606
177	0xbe6b56a3	-0.22982268
178	0xbe9af41e	-0.30264372
179	0x3f28af43	0.6589243
180	0xbe520840	-0.2051096
181	0xbf81ea71	-1.0149671
182	0xc0050a5d	-2.0787575
183	0xbf9d0a02	-1.2268679
184	0xbf039642	-0.5140115
185	0xbf28b3e3	-0.65899485
186	0xbf7a558b	-0.9778678
187	0xbfc66a7d	-1.5501248
188	0xbf5c6c8f	-0.8610315
189	0xbf0f0a39	-0.55874974
190	0xbf42d0e2	-0.7609998
191	0xbf35a823	-0.7095968
192	0x3eb1e12e	0.3474211
193	0xbf6bec3e	-0.9215735
194	0xbf1eccbc	-0.6203115
195	0xbf748aa3	-0.9552404
196	0xbf573227	-0.840609
197	0xbf6bbf7c	-0.92089057
198	0xbf0630fa	-0.5241848
199	0xbfa50e50	-1.2894993
200	0xbe4b18bb	-0.19833653
201	0xbee3ea95	-0.4451491
202	0xbf0743a7	-0.52837604
203	0xbf2b4278	-0.668983
204	0xbf32c54b	-0.69832295
205	0xbec10101	-0.37696078
206	0xbe8e4331	-0.27785638
207	0xbf46895d	-0.7755335
208	0xbfb06824	-1.3781781
209	0xbf57bed3	-0.8427555
210	0x3ea47168	0.32117772
211	0xbf147e4a	-0.580052
212	0xbf3a1701	-0.7269135
213	0x3c9b745d	0.018976385
214	0xbf060995	-0.5235837
215	0xbf70effc	-0.9411619
216	0xbf92f9a5	-1.1482435
217	0xbe41a858	-0.18911874
218	0xbfcf1e3a	-1.61811
219	0xbf11adfc	-0.56906104
220	0xbed00833	-0.40631256
221	0xbeb54458	-0.35403705
222	0xbf5ebfe8	-0.87011576
223	0xbe8270a3	-0.2547656
224	0xbea19d3d	-0.31565276
225	0xbe5b9975	-0.21445258
226	0xbee572e9	-0.44814232
227	0xbe7ad2c0	-0.24494457
228	0xbf23be92	-0.6396266
229	0xbf870e74	-1.0551286
230	0xbf34f9e6	-0.70693815
231	0xbc295cf0	-0.010337099
232	0xbecbd6e5	-0.3981239
233	0xbf1e286d	-0.61780435
234	0xbf334bf4	-0.7003777
235	0xbdf4a252	-0.11945023
236	0xbf1bea30	-0.60904217
237	0xbf4b2a11	-0.79361063
238	0xbd11fc1e	-0.03564083
239	0xbee6436c	-0.44973314
240	0xbfeb8b7f	-1.8401946
241	0xbf12d521	-0.5735646
242	0xbf060aec	-0.52360415
243	0x3d79acb3	0.060955714
244	0xbeeca993	-0.46223125
245	0xbf092d34	-0.535846
246	0xbe7f5555	-0.24934895
247	0xbfad63ca	-1.3546078
248	0xbf9e1771	-1.2350904
249	0xbf2c643f	-0.67340463
250	0xbf97fdb4	-1.1874299
251	0xbf14b668	-0.5809083
252	0xbf13bcd8	-0.5771003
253	0xbe0362d1	-0.12830664
254	0xbe56e2cb	-0.20984952
255	0xbe8cfc9c	-0.27536476

fc2.weight f4 [128, 260]
0	0xbe4892fa	-0.19587317
1	0x3e3b4818	0.1828922
2	0x3e922ef1	0.28551438
3	0x3e36e04c	0.17859
4	0xbe02113c	-0.12701887
5	0x3c952661	0.018206777
6	0x3d458413	0.04822166
7	0xbde8700b	-0.113494955
8	0x3db7e8cf	0.089799516
9	0xbe84ff53	-0.25976047
10	0x3e363536	0.17793736
11	0xbd8d2915	-0.068926014
12	0x3e1654c8	0.14680779
13	0xbe4e6a2d	-0.2015769
14	0xbeca181e	-0.39471525
15	0xbea32ade	-0.31868643
16	0x3cc6d008	0.024269119
17	0x3d1f9dc5	0.03896882
18	0x3be11c69	0.006869842
19	0x3d395fbb	0.04525731
20	0x3e96f474	0.29483378
21	0x3ec4eef3	0.38463554
22	0xbe5f8017	-0.21826206
23	0xbe71e934	-0.23624116
24	0x3f3d52de	0.7395457
25	0x3ca2c184	0.019867666
26	0xbea33664	-0.31877434
27	0x3e2135e1	0.1574321
28	0xbe1e3beb	-0.15452544
29	0xbcadce55	-0.02121655
30	0xbf0b5845	-0.54431564
31	0x3d4c8e6e	0.04994052
32	0xbe33d0f9	-0.17560185
33	0xbd69f80d	-0.057121325
34	0xba288d54	-0.0006429751
35	0xbdad39d3	-0.08458295
36	0xbe9907e5	-0.29888836
37	0xbd7757bf	-0.060386416
38	0xbd9eb9f5	-0.07750312
39	0xbe59a548	-0.21254456
40	0x3e4010dd	0.18756433
41	0xbed1d359	-0.40981558
42	0xbd6f93cd	-0.058490563
43	0xbd2381e7	-0.039918806
44	0x3e161278	0.14655483
45	0x3d08e28b	0.033419173
46	0xbf654a16	-0.8956617
47	0xbcf19e3a	-0.029494394
48	0xbe87e6b3	-0.26543197
49	0x3dca6e3c	0.09884307
50	0xbdc9e4ec	-0.098581165
51	0xbe50b8ce	-0.20382997
52	0xbed1563c	-0.40886104
53	0xbdde79fb	-0.1086311
54	0xbe95986f	-0.2921786
55	0xbe8c1523	-0.27359876
56	0xbf15a963	-0.5846159
57	0xbe8ef929	-0.2792447
58	0x3b57e847	0.0032944845
59	0x3e919bcd	0.2843918
60	0xbdef3132	-0.11679305
61	0x3e827b18	0.25484538
62	0xbf068f4c	-0.52562404
63	0xbd00a300	-0.03140545
64	0x3d47c125	0.04876818
65	0x3ec88ed2	0.39171463
66	0x3d15dc78	0.03658721
67	0x3c6dac93	0.014506477
68	0xbe58d886	-0.21176347
69	0x3b992fc7	0.004674885
70	0x3ee97474	0.4559666
71	0x3cd69798	0.026195332
72	0x3cba703d	0.022758598
73	0xbeb9527c	-0.36195743
74	0xbf08f7c0	-0.53503036
75	0xbe7352c3	-0.2376204
76	0x3c08dd19	0.008353495
77	0xbc15215b	-0.009102191
78	0x3db4b8d7	0.08824318
79	0x3d935d83	0.0719557
80	0xbd7a6376	-0.06113001
81	0xbe3fce11	-0.18730952
82	0x3db2c39f	0.08728718
83	0x3e0527fa	0.13003531
84	0x3c98ee6d	0.018668378
85	0xbc818f40	-0.015815377
86	0xbd9ff817	-0.07810991
87	0xbec0765d	-0.37590304
88	0xbc388987	-0.011263258
89	0xbebb43eb	-0.36575255
90	0x3e8d0cac	0.2754873
91	0xbd9e5d77	-0.07732671
92	0x3eea125b	0.4571713
93	0xbec101f9	-0.37696818
94	0x3d5c7461	0.053821925
95	0xbedc3ea7	-0.4301655
96	0x3ccfa5a6	0.025347542
97	0xbbff4490	-0.0077901557
98	0xbd16c73d	-0.036811102
99	0xbe1803aa	-0.14845148
100	0x3cd15ab3	0.025555944
101	0x3dc87d93	0.097895764
102	0x3d23bdee	0.039976053
103	0xbe8890d1	-0.26672986
104	0xbc3d100b	-0.0115394695
105	0xbf16f207	-0.58963054
106	0x3d5a9340	0.053363085
107	0xbee940d2	-0.45557266
108	0x3f145d3f	0.5795478
109	0x3da21dba	0.07915826
110	0xbdedd4b8	-0.116128385
111	0xbdad7dc1	-0.08471251
112	0xbee53b96	-0.44772023
113	0x3b4f91c3	0.0031672574
114	0xbc96ac3a	-0.01839267
115	0xbdddb8de	-0.10826276
116	0x3e311e02	0.17296603
117	0xbe789a27	-0.24277554
118	0xbe298a8b	-0.16556756
119	0xbd2b5c20	-0.041835904
120	0xbdd0b780	-0.1019125
121	0x3e10171b	0.14071314
122	0xbe86270e	-0.2620167
123	0x3efaefbe	0.49011034
124	0x3e84dcb0	0.2594962
125	0xbe7ee82b	-0.24893253
126	0x3e9728ff	0.29523465
127	0xbf4438bd	-0.76649076
128	0xbe67ccbc	-0.22636694
129	0xbcd65775	-0.02616475
130	0x3dbf89b6	0.09352438
131	0xbe0a3486	-0.13496599
132	0xbe87bbd4	-0.2651049
133	0xbe49df09	-0.19713987
134	0x3dbdcc73	0.09267511
135	0x3e914020	0.28369236
136	0xbec6e388	-0.38845468
137	0x3e4dc981	0.20096399
138	0xbf496310	-0.7866678
139	0xbeddd80e	-0.433289
140	0x3bd19796	0.0063962443
141	0xbaefdbf2	-0.0018299802
142	0xbe4b1834	-0.19833452
143	0x3e94da24	0.29072678
144	0xbf5fa020	-0.87353706
145	0xbe9c5f0b	-0.30541262
146	0xbd3eec96	-0.046612345
147	0xbec0b0a9	-0.3763478
148	0xbde602b9	-0.11230988
149	0x3dd79d8c	0.105280966
150	0xbe4cb5a3	-0.19991164
151	0xbe19c883	-0.15017895
152	0xbc04b2bd	-0.008099255
153	0x3e95f317	0.29287025
154	0x3e8d827d	0.27638617
155	0xbd8b2671	-0.067944415
156	0xbde4d86a	-0.1117409
157	0x3dd51326	0.10404043
158	0xbd24e8ef	-0.040261205
159	0xbe33bebc	-0.17553228
160	0xbe8c0b86	-0.27352542
161	0x3e8bb8ae	0.27289337
162	0x3e83f7e7	0.25775072
163	0xbee8250d	-0.45340768
164	0x3e3686df	0.17824887
165	0xbe1226d0	-0.14272618
166	0xbdc250ac	-0.09488043
167	0x3d8fe12f	0.07025372
168	0x3b681b76	0.0035416759
169	0xbe1b5c98	-0.1517204
170	0xbf36d978	-0.7142558
171	0x3d2c7ebe	0.04211306
172	0xbe247b3a	-0.16062632
173	0xbf1eb18d	-0.6198967
174	0x3e29b0c6	0.1657134
175	0xbeb3eeac	-0.3514303
176	0xbeca9012	-0.39563042
177	0xbe7cdb19	-0.24692954
178	0x3dc733d6	0.09726684
179	0xbedee288	-0.43532205
180	0x3dcd636c	0.10028729
181	0xbd7ace53	-0.061231922
182	0x3e2ed29c	0.17072529
183	0x3dca1b63	0.09868505
184	0x3e828f74	0.2550007
185	0xbf043121	-0.51637465
186	0x3db6ef15	0.0893232
187	0xbeaee486	-0.34158725
188	0xbd84e5d0	-0.06489146
189	0x3d869f54	0.06573358
190	0xbf12acfc	-0.57295203
191	0xbea2c245	-0.3178884
192	0xbe4315fd	-0.19051357
193	0x3e079f13	0.13244276
194	0x3e9b348d	0.3031353
195	0xbb8ba0f6	-0.0042611314
196	0xbd90e1d8	-0.07074326
197	0x3d5aca04	0.053415313
198	0x3dc8907a	0.09793182
199	0xbf03b39f	-0.51445955
200	0xbef9a3ec	-0.48757875
201	0x3e781e4b	0.24230306
202	0xbefb9b7f	-0.49142072
203	0x3cda4094	0.026642121
204	0xbec2da4d	-0.38057175
205	0xbe0d728d	-0.13813229
206	0xbd2f52f0	-0.042803705
207	0x3d37daad	0.04488628
208	0x3cbaa817	0.02278523
209	0xbe3931e2	-0.18085435
210	0x3d68f064	0.05686988
211	0xbeb5d71f	-0.35515687
212	0x3e6c294d	0.2306263
213	0x3dd26221	0.10272623
214	0xbeaf7d26	-0.34275168
215	0xbdbeb039	-0.093109556
216	0xbe41f5b8	-0.1894139
217	0xbd1a4acd	-0.03766899
218	0xbdc2b7b1	-0.095076926
219	0x3dc4f009	0.096160956
220	0xbed3572b	-0.4127744
221	0xbee5adc1	-0.44859126
222	0xbe76a47e	-0.24086186
223	0x3d3e713c	0.046494707
224	0xbea9880f	-0.33111617
225	0xbe73ea96	-0.23819956
226	0xbdb19450	-0.086708665
227	0xbec6f902	-0.38861853
228	0x3dc6b050	0.09701598
229	0x3d266f02	0.04063321
230	0x3ee05932	0.4381805
231	0xbe5f261d	-0.21791883
232	0xbe28260a	-0.16420761
233	0x3e976333	0.2956787
234	0x3e34fddf	0.17674969
235	0xbe90f8c2	-0.28314787
236	0x3e0b0c43	0.13578896
237	0xbded9d27	-0.1160224
238	0x3f0f35c6	0.55941427
239	0xbe15e282	-0.14637187
240	0xbe7b06a6	-0.24514255
241	0xbdd835a0	-0.10557103
242	0x3deb2525	0.11481694
243	0x3e4657f2	0.19369486
244	0x3e836ce4	0.25669014
245	0x3e345917	0.1761211
246	0x3e36e094	0.17859107
247	0x3e4c8ced	0.19975634
248	0x3e01bfa4	0.12670761
249	0xbe6397c0	-0.22225857
250	0xbe366cb8	-0.1781491
251	0x3e1dd5f4	0.15413648
252	0xbe4cd7b3	-0.20004158
253	0x3d8eaa91	0.06966127
254	0xbec28c8a	-0.37997848
255	0xbe612c4b	-0.21989553

fc2.bias f4 [128]
0	0xbeb33839	-0.35003832
1	0xbd904993	-0.07045283
2	0xbe19ce8d	-0.15020199
3	0xbed797ea	-0.4210809
4	0xbdda6cf3	-0.10665312
5	0xbe561997	-0.20908199
6	0xbea28a96	-0.31746358
7	0xbedd52b9	-0.43227175
8	0xbe96ad5e	-0.29429144
9	0xbecc5234	-0.39906466
10	0xbebb287b	-0.36554322
11	0xbeba6a4e	-0.3640923
12	0xbf0a248e	-0.5396203
13	0xbed35724	-0.4127742
14	0xbe597a1d	-0.21237989
15	0xbe43e956	-0.1913198
16	0xbe45ede5	-0.19329031
17	0xbe813311	-0.25234273
18	0xbe904eee	-0.2818522
19	0xbe62e097	-0.22155987
20	0xbec7f1d1	-0.3905168
21	0xbece1122	-0.40247446
22	0xbe12398e	-0.14279768
23	0xbec2020f	-0.37892196
24	0xbea093bf	-0.3136272
25	0xbe82d6e7	-0.25554582
26	0xbe724049	-0.23657335
27	0xbada40b7	-0.0016651367
28	0xbe7ec1a9	-0.24878563
29	0xbe8ab705	-0.27092758
30	0x3d3933b6	0.04521533
31	0xbecf2783	-0.40459833
32	0xbe95e9cf	-0.29279944
33	0xbe8f4291	-0.27980474
34	0x3d144a22	0.03620351
35	0xbdf72441	-0.12067462
36	0xbe4c607f	-0.19958685
37	0x3dfd36b0	0.123639464
38	0xbe957b96	-0.2919585
39	0x3cd5743b	0.0260564
40	0xbf10f7e5	-0.5662826
41	0xbe8d808a	-0.2763713
42	0xbe50d535	-0.20393832
43	0xbe362ac6	-0.17789754
44	0xbe842853	-0.25812015
45	0xbee36e81	-0.44420245
46	0x3d300d34	0.04298134
47	0xbd67b816	-0.056572042
48	0xbea4e2d6	-0.32204312
49	0xbec91494	-0.39273512
50	0xbdeaa789	-0.11457736
51	0xbeb1bf53	-0.3471628
52	0x3d681de1	0.05666912
53	0xbf098e1d	-0.5373247
54	0xbed4c1f3	-0.41554222
55	0xbed38f8e	-0.4132046
56	0xbd1440dd	-0.03619467
57	0xbecc73e6	-0.39932173
58	0xbefd35bf	-0.49455068
59	0xbe43936f	-0.1909921
60	0xbecd9d48	-0.4015906
61	0xbe7b01b5	-0.2451237
62	0xbe944f79	-0.28966883
63	0xbda2fce6	-0.07958393
64	0xbe14dcf7	-0.14537416
65	0xbe8dafa3	-0.27673063
66	0xbec07cc4	-0.3759519
67	0xbf2211c8	-0.6330838
68	0xbe34fc1b	-0.17674296
69	0x3dbdf55d	0.09275315
70	0xbe8d66ed	-0.2761759
71	0xbed422fc	-0.4143294
72	0x3df611d0	0.12015116
73	0xbe9b2423	-0.30301008
74	0xbd585c6c	-0.052822515
75	0xbed33225	-0.41249195
76	0xbea365f3	-0.3191372
77	0xbd74ec71	-0.0597958
78	0xbe0f4342	-0.139905
79	0x3d8e2411	0.06940473
80	0xbe30146a	-0.17195287
81	0xbe104cbe	-0.14091775
82	0xbe9acbde	-0.30233663
83	0xbe4d51e1	-0.20050766
84	0xbec1d8f3	-0.37860832
85	0xbe3432ac	-0.17597455
86	0xbeb2c821	-0.3491831
87	0xbea49824	-0.32147324
88	0xbea9d196	-0.33167714
89	0xbedd42db	-0.4321507
90	0x3dc74d53	0.09731545
91	0xbe8b06ee	-0.27153724
92	0xbe3f86b9	-0.18703736
93	0xbe33f666	-0.17574462
94	0xbe8fbe1e	-0.28074735
95	0xbe98f02e	-0.29870743
96	0xbece2628	-0.40263486
97	0xbec2f844	-0.38080037
98	0xbedc47b6	-0.4302346
99	0xbe7d1fab	-0.24719112
100	0xbe81ebfb	-0.2537535
101	0xbef55cc8	-0.4792235
102	0x3ae736c9	0.0017640229
103	0xbeb086f9	-0.34477976
104	0xbe7d762d	-0.24752112
105	0x3e609b2f	0.21934198
106	0x3da7ab97	0.08187025
107	0x3e0caeef	0.13738607
108	0xbe34c460	-0.17653036
109	0xbe3c81eb	-0.18408935
110	0xbe224d48	-0.15849793
111	0xbe021a0f	-0.12705253
112	0xbea7c5ea	-0.32768184
113	0xbe20f2cd	-0.15717621
114	0xbea22eff	-0.3167648
115	0xbe5f9f7c	-0.21838182
116	0xbee1c230	-0.44093466
117	0xbef8ff99	-0.48632506
118	0xbe5fae31	-0.21843792
119	0xbe69c5af	-0.22829317
120	0xbf1a872b	-0.603625
121	0xbe6ee861	-0.23330833
122	0xbde093a8	-0.10965663
123	0xbed2d4dd	-0.41178027
124	0x3d665eb1	0.05624265
125	0xbed035d9	-0.40666083
126	0xbdcb9c83	-0.099419616
127	0xbe3bce55	-0.18340428

fc3.weight f4 [1, 128]
0	0x3c10825b	0.008820142
1	0x3c558112	0.013031261
2	0x3c9a8ad4	0.018865027
3	0xbd4cbbb1	-0.049983684
4	0xbdaedcd4	-0.08538213
5	0xbdbe3a98	-0.092885196
6	0x3b7ef423	0.003890284
7	0x3d3868fd	0.045022
8	0x3dfa90b7	0.122346334
9	0xbb8098ed	-0.00392448
10	0xbd81f84e	-0.063461885
11	0xbdd74084	-0.10510352
12	0xbe1d58c4	-0.15365893
13	0xbe04a917	-0.12955128
14	0xbe03a7f7	-0.12857042
15	0x3d37db25	0.044886727
16	0xbd4e8099	-0.05041561
17	0x3c517473	0.012784111
18	0xbbfcaecf	-0.0077112685
19	0xbd53bcef	-0.051693853
20	0xbd988782	-0.07447721
21	0xbd6c0620	-0.05762303
22	0xbba4b6c1	-0.005026669
23	0x3c5d5cd1	0.013510899
24	0x3bf2f857	0.0074148583
25	0x3d0bed7b	0.034162026
26	0x3c8e28a1	0.017353358
27	0x3c31d387	0.010853655
28	0x3c729f38	0.0148084685
29	0x3c32fd11	0.010924594
30	0x3c3095c1	0.010777892
31	0xbc774ca5	-0.015093957
32	0xbe6d5286	-0.23176011
33	0xbb901d9e	-0.004398062
34	0x3c8c98b2	0.017162655
35	0xbd5516bd	-0.052023638
36	0xbdc79e8a	-0.09747036
37	0x3c95d097	0.01828794
38	0xbd9c6fc6	-0.076385066
39	0x3cc8fe75	0.024535397
40	0x3cbde4e4	0.023180433
41	0xbd8f2700	-0.069898605
42	0x3c5272a3	0.012844714
43	0xbd075d99	-0.033048246
44	0xbdb3834b	-0.087652765
45	0x3d2ce0f7	0.04220673
46	0x3c81f2d5	0.015862862
47	0x3bd57cf1	0.0065151383
48	0xbc19f9bc	-0.00939792
49	0x3c5bc5d1	0.013413862
50	0x3c2c36ab	0.010511081
51	0xbc65a5ce	-0.014016582
52	0xbcfd9cc6	-0.030958544
53	0x3c3bcc10	0.0114622265
54	0xbb164f1b	-0.0022935334
55	0xbdeb5dab	-0.11492475
56	0xbc36300b	-0.011119853
57	0xbd88cddb	-0.06679889
58	0x3d54fa34	0.051996425
59	0xbd2d5f87	-0.04232743
60	0xbbd45ab6	-0.00648054
61	0xbe3eec52	-0.18644837
62	0x3c222746	0.009897059
63	0x39ce0ac1	0.00039299394
64	0x3e117475	0.14204581
65	0x3cbc8748	0.023013726
66	0xbdd155dc	-0.102214545
67	0xbe00caf5	-0.12577422
68	0x3b8c0a6a	0.0042737024
69	0x3c639806	0.013891226
70	0xbd8a6a68	-0.06758577
71	0xbd7b83d4	-0.061405018
72	0x3c3af920	0.011411935
73	0xbcfff630	-0.031245321
74	0x3d7f08f2	0.06226439
75	0x3c4238b9	0.011854344
76	0x3d3365a4	0.043798104
77	0x3c21df5f	0.009879916
78	0x3d019731	0.031638328
79	0x3c6dbcef	0.014510377
80	0x3c81c091	0.015838893
81	0x3d46a228	0.048494488
82	0x3d78b0b8	0.060715407
83	0x3c8a2bfd	0.016866678
84	0xbd4d1b25	-0.050074715
85	0x3d1c83b1	0.03821153
86	0xbd9cf4e8	-0.076639
87	0x3c444ae0	0.011980742
88	0xbd524081	-0.051331047
89	0x3c368bac	0.011141699
90	0xbc7eab03	-0.015543702
91	0xbe21e869	-0.15811314
92	0x3c3b6eb2	0.011439966
93	0x3c99c76c	0.01877185
94	0x3d01fa6a	0.031732954
95	0x3b03d75e	0.0020117383
96	0xbb77e07d	-0.0037823014
97	0x3ce56045	0.028000006
98	0x3da3dcaf	0.080010764
99	0x3ad42f93	0.0016188495
100	0x3d19f3e3	0.037586104
101	0xbd8226c4	-0.0635505
102	0xbd267c7f	-0.040646072
103	0xbdb555e5	-0.08854274
104	0x3a224b5b	0.00061910384
105	0xbd55f970	-0.052239835
106	0x3d532601	0.051549915
107	0x3c128493	0.008942741
108	0x3d2741a6	0.04083409
109	0xbda026b7	-0.07819884
110	0x3dbef6da	0.09324427
111	0x3d402001	0.04690552
112	0x3d9bc4dc	0.07605907
113	0x3d85adff	0.06527328
114	0xbb577c0d	-0.0032880337
115	0x3e0520cc	0.13000792
116	0xbd8b8ca3	-0.06813934
117	0x3cdc58de	0.026897844
118	0xbdfe6057	-0.12420719
119	0xbd2ad11f	-0.04170334
120	0xbc72bb2b	-0.014815132
121	0x3cc8eb62	0.024526302
122	0xbe420579	-0.189474
123	0xbbb6168e	-0.005556888
124	0x3c630648	0.013856478
125	0xbb7c3068	-0.0038481
126	0x3d29780f	0.041374262
127	0xbd875456	-0.06607883

bn1.weight f4 [256]
0	0x3dff6d7a	0.12472053
1	0xbd9241c6	-0.071414515
2	0x3e35d21c	0.17755932
3	0x3d9997b3	0.074996375
4	0x3eef8a2c	0.46785104
5	0x3e759197	0.2398132
6	0x3e009378	0.12556255
7	0xbdbc4a07	-0.09193807
8	0x3d9ab92a	0.075548485
9	0x3de24d27	0.11049872
10	0x3d8c4003	0.06848147
11	0x3eb7c91a	0.35895616
12	0x3f0a19e9	0.53945786
13	0x3e759b40	0.23985004
14	0x3e7ca5f2	0.24672678
15	0x3d355d95	0.0442787
16	0x3e5b4178	0.21411693
17	0x3f846ab7	1.0345067
18	0x3d11c1bd	0.035585154
19	0x3db41a2f	0.087940566
20	0x3da797b4	0.08183232
21	0x3df47b2a	0.11937554
22	0x3dc32c1e	0.09529899
23	0x3e05ecc8	0.13078606
24	0x3d77bc4c	0.06048231
25	0x3d915a45	0.07097296
26	0x3e57e010	0.21081567
27	0x3d65c13e	0.056092493
28	0xbd9727bf	-0.07380628
29	0x3db50789	0.08839328
30	0x3e68695c	0.22696441
31	0x3dbff0f8	0.09372133
32	0x3df4a045	0.119446315
33	0x3e297ca0	0.16551447
34	0x3df55e20	0.119808435
35	0x3d782f00	0.060591698
36	0x3f27af8e	0.6550225
37	0x3f00eca9	0.50361115
38	0x3dfc5cc0	0.12322378
39	0x3dee864d	0.116467096
40	0x3daab44d	0.08335171
41	0x3de2075a	0.110365584
42	0x3e60d431	0.21955945
43	0x3d42d8b7	0.047569957
44	0x3d75b258	0.059984535
45	0x3e32ba37	0.17453848
46	0x3dee77dd	0.11643956
47	0x3e11b9e6	0.14231071
48	0x3e20189c	0.15634388
49	0x3e06f134	0.13177949
50	0x3e1afab3	0.15134697
51	0x3df6ee4a	0.12057169
52	0x3f1efcbf	0.6210441
53	0x3e77c642	0.24196723
54	0x3dd28cc1	0.10280753
55	0x3de6bea9	0.11266834
56	0x3e06b2ee	0.13154194
57	0x3d868491	0.06568254
58	0x3e0b03ff	0.13575743
59	0x3dc8a163	0.09796407
60	0x3ec144a1	0.37747672
61	0x3e1b275f	0.15151738
62	0x3e5457a1	0.20736553
63	0x3f779c55	0.9672292
64	0x3d2adeed	0.041716505
65	0x3e1f3a12	0.15549496
66	0x3e1a9d7e	0.15099141
67	0x3e08fdae	0.13378021
68	0x3dad64bc	0.08466479
69	0x3db59e41	0.08868075
70	0x3df4178e	0.11918555
71	0x3d8e8dfd	0.06960676
72	0x3e4c8e83	0.19976239
73	0x3f2bcba8	0.6710763
74	0x3d831f38	0.06402439
75	0x3eaba394	0.33523238
76	0x3dcdb87b	0.100449525
77	0x3e32445b	0.17408888
78	0x3d700963	0.058602702
79	0x3df734eb	0.1207064
80	0xbbe640a8	-0.0070267506
81	0x3ccc067e	0.02490544
82	0x3dd23c87	0.10265451
83	0x3e5f31f2	0.21796396
84	0x3e8c79d7	0.27436706
85	0x3dbf5c1d	0.09343741
86	0x3de9ea50	0.11421645
87	0x3d1e9419	0.038715456
88	0x3ee08949	0.4385474
89	0x3e789218	0.2427448
90	0x3e020451	0.12696959
91	0x3ea4da9e	0.32198042
92	0x3e19753b	0.14986126
93	0x3e31f390	0.17378068
94	0x3db30460	0.08741069
95	0xbb07a4cf	-0.0020697599
96	0x3de16e20	0.11007333
97	0x3de54c6d	0.11196218
98	0x3de4d2f7	0.11173051
99	0x3dd0040f	0.10157024
100	0x3e45bc2c	0.19310063
101	0x3e2b086c	0.16702431
102	0x3e83e531	0.25760797
103	0x3e28fd37	0.16502844
104	0x3f17d0ae	0.59302795
105	0x3dc80ea1	0.09768415
106	0x3d8330ad	0.064057685
107	0x3e91af0e	0.2845387
108	0x3dadca98	0.08485907
109	0x3e048698	0.12941968
110	0x3e734e11	0.23760249
111	0x3e31af86	0.17352113
112	0x3e1638f7	0.14670168
113	0xbdf8aec5	-0.1214271
114	0x3d7fefc9	0.062484536
115	0x3dc5b9bb	0.09654566
116	0x3e0025b7	0.12514387
117	0x3e21331f	0.15742157
118	0xbe75f783	-0.240202
119	0x3e23ff5d	0.16015382
120	0x3d9232aa	0.0713857
121	0x3e058f47	0.13042937
122	0x3e4899fa	0.19589987
123	0x3d6f3575	0.05840059
124	0x3e38ca35	0.18045886
125	0x3e0be589	0.1366178
126	0x3e464b94	0.19364768
127	0x3e26e3db	0.16297857
128	0x3de975ea	0.113994434
129	0x3e5624d8	0.20912492
130	0x3e1a29c6	0.15054998
131	0x3d6e78a1	0.05822051
132	0x3cdef1a0	0.027214825
133	0x3e18fa1b	0.14939158
134	0x3eef3ee9	0.46727684
135	0x3cf34cd7	0.029699726
136	0x3e1f5124	0.15558296
137	0x3d3c1606	0.04591944
138	0x3de702b2	0.11279811
139	0x3da812db	0.082067214
140	0x3f0ce356	0.5503439
141	0x3d6b9258	0.05751261
142	0x3e064dfb	0.13115685
143	0x3e3f4dfb	0.18682091
144	0x3d65bf1c	0.05609046
145	0x3de2ff12	0.11083807
146	0x3e83d810	0.2575078
147	0x3ddc3da8	0.107539475
148	0x3e869e5c	0.26292694
149	0x3dd8e3ab	0.10590299
150	0x3e2cd07e	0.16876408
151	0x3e3d792f	0.18503259
152	0x3e363391	0.17793109
153	0x3da6f93b	0.08153006
154	0x3d7ff2f8	0.062487572
155	0x3e1fd32e	0.15607902
156	0x3d5cd296	0.053911768
157	0x3e0f8004	0.14013678
158	0x3d7c87e4	0.061653033
159	0x3d936ad4	0.0719811
160	0x3da2911c	0.07937834
161	0x3d86b896	0.06578176
162	0x3d9959aa	0.07487805
163	0x3e17f6f1	0.14840294
164	0x3e92a68f	0.286427
165	0x3e719a36	0.23593983
166	0x3dc2b5c3	0.095073245
167	0x3f12cd39	0.57344395
168	0x3e2796b3	0.16366081
169	0x3d73fa6a	0.059564985
170	0x3d063a02	0.032770164
171	0x3d01cc4e	0.03168898
172	0x3c821b86	0.015882265
173	0x3dd1ce75	0.10244457
174	0x3dafaa1a	0.08577366
175	0x3e0f995f	0.1402335
176	0x3de0f114	0.10983482
177	0x3dae9f49	0.08526475
178	0x3da9457e	0.08265208
179	0x3e5cd85a	0.21566907
180	0x3d954096	0.072877094
181	0x3d82c6b4	0.06385556
182	0x3d9f12f8	0.0776729
183	0x3d3c49a5	0.04596867
184	0x3dbc2960	0.09187579
185	0x3d823ae5	0.063588895
186	0x3d3b3404	0.045703903
187	0x3e89fa9e	0.26949018
188	0x3d949800	0.07255554
189	0x3e0d7bb6	0.13816723
190	0x3e6eb6ae	0.23311874
191	0x3db66a32	0.08906974
192	0x3ddfb3df	0.109229796
193	0x3d36b463	0.044605624
194	0x3e126d13	0.14299421
195	0x3c87d280	0.016579866
196	0x3d908765	0.070570745
197	0x3cd574ce	0.026056673
198	0x3c9be155	0.019028345
199	0x3e24709c	0.16058582
200	0x3e2f8b3d	0.17142959
201	0x3d9a4f4f	0.07534658
202	0x3d9f1537	0.07767718
203	0x3f3b3c88	0.7313924
204	0x3ddbcbfe	0.10732268
205	0x3da3b77d	0.07993982
206	0x3daf81b2	0.08569659
207	0x3e596e95	0.2123359
208	0x3ebca680	0.3684578
209	0x3e40aae3	0.18815188
210	0x3dd708c9	0.104997225
211	0x3e265cce	0.1624634
212	0xbe81a4fb	-0.25321183
213	0x3f757b6e	0.95891464
214	0x3e1f7599	0.15572204
215	0x3e0c170e	0.1368067
216	0x3dae2ec2	0.08505012
217	0x3e32a279	0.17444791
218	0x3e7a797c	0.24460405
219	0x3d41609d	0.04721128
220	0x3d524673	0.051336717
221	0x3e2ca22e	0.16858742
222	0x3db15be0	0.08660102
223	0x3d3ad1c3	0.0456102
224	0x3df9ac5e	0.121910796
225	0x3e00e6ad	0.12587996
226	0x3d4048a3	0.04694427
227	0x3dcaba72	0.09898843
228	0x3dcb2075	0.099183
229	0x3e3cec73	0.18449573
230	0x3e2fbdb0	0.17162204
231	0x3db00ee7	0.085965924
232	0x3ea27477	0.3172948
233	0x3e0850c4	0.1331206
234	0xbdae70dd	-0.08517621
235	0x3e0bcc4e	0.13652155
236	0x3dfb9caa	0.12285741
237	0x3dd1dd0e	0.10247241
238	0x3e0e966b	0.13924567
239	0x3e248a7e	0.16068456
240	0x3d9d723e	0.076878056
241	0x3d23b979	0.039971802
242	0x3dce02a3	0.10059097
243	0x3e570e29	0.21001495
244	0x3dc3f579	0.095683046
245	0x3dcd6ba5	0.10030297
246	0x3df10a65	0.11769561
247	0x3e9aef6d	0.30260792
248	0x3dbbf78a	0.09178074
249	0xbdac0034	-0.08398476
250	0x3df4c080	0.11950779
251	0x3e0ac38a	0.13551155
252	0x3df4b52a	0.11948617
253	0x3f97e922	1.1868021
254	0x3e09bd5a	0.13451138
255	0x3ea63ca3	0.32468137

bn1.bias f4 [256]
0	0x3d764cde	0.0601319
1	0xbd23e9c3	-0.040017854
2	0xbb0e01a2	-0.0021668454
3	0x3c320a06	0.010866648
4	0x3ecef8c4	0.40424168
5	0x3e81c042	0.25341994
6	0x3d28c8da	0.041207172
7	0x3d937a30	0.0720104
8	0xbd31876c	-0.04334204
9	0x3d26ef44	0.040755525
10	0x3c784971	0.015154229
11	0x3e775677	0.24154077
12	0xbceb5993	-0.028729236
13	0x3cefd810	0.029277831
14	0x3da1d4d0	0.07901919
15	0x3ba7a84e	0.005116499
16	0x3d806cd8	0.0627076
17	0x3e6a9b3e	0.22910783
18	0x3a342767	0.00068723265
19	0x3c55de0d	0.013053429
20	0xbd7e8552	-0.062138863
21	0x3d5251ac	0.05134742
22	0x3ba43832	0.005011582
23	0x3d1443b6	0.036197387
24	0xbcf72d77	-0.030173047
25	0x3c2a93aa	0.010411182
26	0x3dcf9b8c	0.1013709
27	0x3d0cb9a5	0.034356732
28	0xbca45d78	-0.0200641
29	0x3d24f91d	0.040276635
30	0x3d3ca3d5	0.04605468
31	0xbcccfbce	-0.025022414
32	0x3e05fcf8	0.13084781
33	0x3daa0cf6	0.08303253
34	0x3db8bee2	0.09020783
35	0x3c61194a	0.01373894
36	0x3e97a30f	0.2961659
37	0x3ec2f79a	0.3807953
38	0x3d8e88d8	0.069596946
39	0x3d86195e	0.06547807
40	0x3c7e0a2c	0.015505355
41	0x3d3072c1	0.043078188
42	0x3d572a1c	0.052530393
43	0x3c211ba6	0.009833252
44	0x3c8c6b18	0.01714091
45	0x3e2944fd	0.16530223
46	0x3ca21b44	0.019788392
47	0x3c5164ef	0.012780412
48	0x3d1c766e	0.03819888
49	0x3ceadc2b	0.028669437
50	0x3d87eed3	0.06637349
51	0x3da36265	0.07977752
52	0x3ecb2d13	0.39682826
53	0x3e271050	0.16314816
54	0x3cd67327	0.026177956
55	0x3da08ad7	0.078389816
56	0x3e91e38b	0.28493914
57	0x3ca8340f	0.020532636
58	0x3c740839	0.014894539
59	0x3caf2fde	0.02138513
60	0x3e684f3d	0.22686477
61	0x3d9c6bfe	0.076377854
62	0x3dfb5aee	0.12273203
63	0xbd44d373	-0.048053216
64	0x3c72880c	0.014802944
65	0x3d578443	0.05261637
66	0x3d7dc435	0.061954696
67	0x3da153b5	0.07877294
68	0x3ce52c11	0.027975114
69	0x3ce95040	0.028480649
70	0xbc181819	-0.009283089
71	0x3c13daec	0.009024363
72	0x3d52a086	0.05142262
73	0x3e4acbbb	0.1980428
74	0x3d3f9628	0.04677406
75	0x3f0ac33a	0.5420414
76	0xbd02a930	-0.03189963
77	0x3d503823	0.050834786
78	0x3bffaad1	0.0078023453
79	0x3d73ab16	0.059489332
80	0xb9c45fc8	-0.00037455396
81	0x39da3803	0.00041621932
82	0x3cc2680b	0.023731252
83	0x3dba93a1	0.09110189
84	0x3e051690	0.12996888
85	0x3c49613f	0.012291252
86	0x3c722e91	0.01478161
87	0x3b9d9fe8	0.004810322
88	0x3eb60cd9	0.35556677
89	0xbaece257	-0.0018072826
90	0xbd26f066	-0.040756606
91	0x3e41a45e	0.18910357
92	0x3d80b474	0.06284419
93	0x3cf0b419	0.029382752
94	0xbb9a82aa	-0.0047152834
95	0x38875f4c	6.455052e-05
96	0x3c2dd35d	0.010609475
97	0x3d6998e2	0.057030566
98	0x3ca05776	0.019572955
99	0x3d9a3d15	0.07531182
100	0x3d2a9574	0.041646436
101	0x3cf0204b	0.029312273
102	0x3dd2275d	0.10261414
103	0x3df015a2	0.11722876
104	0xbe1904b4	-0.149432
105	0x3d8cbe36	0.06872217
106	0x3b89915d	0.004198237
107	0x3e0d95e5	0.13826711
108	0x3c8d256e	0.017229762
109	0x3d47fbd4	0.048824146
110	0x3e3e72fd	0.18598552
111	0x3df4eac0	0.119588375
112	0x3e8f730f	0.2801747
113	0xb9b1dc8d	-0.00033924394
114	0x3df9831f	0.121832125
115	0x3d844c36	0.064598486
116	0x3d340e53	0.043958973
117	0x3d451444	0.04811503
118	0x3b00b253	0.001963754
119	0x3d55d793	0.05220754
120	0x3a5465ed	0.00081023463
121	0x3c778ab0	0.015108749
122	0x3e2ce94c	0.1688587
123	0x3cc2f0e9	0.023796516
124	0x3d3fad6b	0.046796244
125	0x3d203bcd	0.03911953
126	0xbbcc8b47	-0.006242189
127	0x3cac8340	0.021058679
128	0x3d0d9508	0.034565955
129	0x3d03d335	0.032183845
130	0x3dbb8825	0.09156827
131	0x3da3b292	0.07993044
132	0x3cd3e7ae	0.02586731
133	0x3d5280d4	0.05139239
134	0xbd19c479	-0.037540887
135	0x3b946855	0.004529039
136	0x3ebafd1b	0.3652123
137	0x3c439a64	0.011938665
138	0x3c9ef3cd	0.019403363
139	0x3c099d17	0.00839927
140	0xbc79f6b4	-0.0152565725
141	0x3b75143e	0.0037396098
142	0x3d76e4b9	0.06027672
143	0x3d602a9d	0.05472814
144	0x3c939a00	0.018017769
145	0x3c5c6eb2	0.013454126
146	0x3d937a77	0.07201093
147	0x3caf179b	0.02137356
148	0x3d72563b	0.059164267
149	0x3d0b365b	0.033987384
150	0x3c8151ec	0.015786134
151	0x3d054d7b	0.032544594
152	0x3c92b198	0.017906949
153	0x3cbf31db	0.023339203
154	0x3b9238f5	0.004462356
155	0x3d5d3b29	0.054011498
156	0x3b824315	0.003975282
157	0xba87bf20	-0.0010356642
158	0x3c333335	0.010937502
159	0x3dbe5801	0.09294129
160	0x3daed178	0.08536047
161	0x3d02db52	0.03194744
162	0x3bdd8774	0.006760532
163	0x3a7cafff	0.00096392626
164	0x3d83a6fa	0.064283326
165	0x3da463cb	0.080268465
166	0x3cf1b1dc	0.029503755
167	0x3db39b24	0.08769825
168	0x3d788a1f	0.060678598
169	0x3bf07a3e	0.007338791
170	0x3bd2377c	0.0064153057
171	0xbc7114b2	-0.014714407
172	0x3dd395a5	0.10331277
173	0x3ca9500e	0.020668056
174	0x3af10561	0.0018388444
175	0x3d4ed145	0.050492544
176	0x3c9e879e	0.019351777
177	0xba9df70f	-0.0012051779
178	0x3d43a1fd	0.047761906
179	0x3ddc9482	0.10770513
180	0x3c7f32db	0.01557609
181	0x3c8daec1	0.017295243
182	0x3c85877d	0.016299957
183	0x3be4db98	0.0069841854
184	0x3c455392	0.0120438505
185	0x3c28fda7	0.010314382
186	0xbccf7fd0	-0.0253295
187	0x3e874256	0.26417798
188	0xbaa5455f	-0.0012609175
189	0x3d2a9d51	0.041653935
190	0x3de59558	0.11210126
191	0x3d6c0ba7	0.0576283
192	0x3d2c104a	0.042007722
193	0x3ccdd068	0.02512379
194	0x3df4fcd8	0.119622886
195	0x3b0b4f29	0.00212569
196	0x3ce5d469	0.028055387
197	0xbab34fc9	-0.0013680394
198	0x39b8a0da	0.0003521506
199	0x3e4eceaa	0.20196024
200	0x3d03b7b0	0.0321576
201	0x3c091af4	0.0083682425
202	0x3c676bca	0.01412482
203	0x3e095e4b	0.13414876
204	0x3ec97cb9	0.39352968
205	0x3bfca587	0.007710162
206	0x3c9be97c	0.019032232
207	0x3d00c38d	0.03143649
208	0x3e06c96a	0.13162771
209	0x3cb9a0a8	0.022659615
210	0x3c6f6ba5	0.014613067
211	0x3d23ed03	0.040020954
212	0xbe235bab	-0.15952937
213	0x3e52c13b	0.20581524
214	0x3e0e0b42	0.13871482
215	0x3ce2f0b0	0.02770266
216	0x3c9a2eb5	0.0188211
217	0x3d2a9db0	0.04165429
218	0x3db357e4	0.08756998
219	0xbae4f33a	-0.0017467507
220	0x3c1e75a1	0.0096716
221	0x3e186186	0.14880952
222	0x3d773e73	0.06036229
223	0xbb03f6bd	-0.002013608
224	0x3ddefb09	0.10887725
225	0x3d183f04	0.03716947
226	0x3bb98462	0.005661533
227	0x3c51b93f	0.012800514
228	0x3c798de2	0.015231581
229	0xbafa83df	-0.0019112787
230	0x3d44cc43	0.04804636
231	0xbbcc2e91	-0.006231137
232	0x3e14cb19	0.145306
233	0x3d56eeab	0.052473705
234	0x3acb7f87	0.0015525677
235	0x3b8212cc	0.003969526
236	0x3d19e867	0.03757515
237	0x3c99c8e4	0.01877255
238	0x3d2eccff	0.04267597
239	0x3d51c013	0.051208567
240	0xbebe2a22	-0.3714152
241	0x3cc661e4	0.0242166
242	0x3d1fb679	0.03899238
243	0x3de2f762	0.11082341
244	0x3d16edda	0.036847927
245	0x3c61461f	0.013749628
246	0x3d09f014	0.033676222
247	0x3e855bd0	0.2604661
248	0x3bde0b1c	0.0067762267
249	0xbc28b1c3	-0.010296288
250	0x3ce05e8e	0.027388837
251	0x3d3b4ebd	0.045729388
252	0x3b898728	0.00419702
253	0x3e11fed3	0.14257364
254	0x3d3d35a5	0.046193738
255	0x3e89e022	0.26928812

bn1.running_mean f4 [256]
0	0x40902c08	4.505375
1	0x40583ba3	3.37864
2	0x00000004	6e-45
3	0x3ec6069b	0.38676915
4	0x3fce533c	1.6119151
5	0x40176df9	2.3660872
6	0x40fdae88	7.927555
7	0x406f1e08	3.736208
8	0x40924718	4.5711784
9	0x40a8218a	5.254094
10	0x401d03c4	2.4533548
11	0x402820bc	2.626998
12	0x41900b10	18.005402
13	0x3e87f37b	0.26552948
14	0x40b1782e	5.5459204
15	0x3f64d3cd	0.8938568
16	0x40159cb1	2.3376887
17	0x41651881	14.318482
18	0x3fd241e7	1.6426362
19	0x3ef46be7	0.47738573
20	0x3ee0d059	0.43908957
21	0x40a521ee	5.160392
22	0x3f1f84e9	0.6231218
23	0x4010e39d	2.2638924
24	0x3fbc284e	1.46998
25	0x3f3837c2	0.7196008
26	0x403e22fe	2.9708858
27	0x40318c84	2.7742014
28	0x40555be5	3.3337338
29	0x41095723	8.583774
30	0x3f4fc22a	0.81155646
31	0x40d95c0e	6.792487
32	0x4105cdb8	8.362724
33	0x40d1c6b0	6.555504
34	0x40c0005d	6.0000443
35	0x3fc40426	1.5313766
36	0x3f6d0416	0.9258436
37	0x3fc60263	1.5469478
38	0x40f1f522	7.5611734
39	0x40e5d960	7.182785
40	0x408b00f8	4.3438683
41	0x3fc9cdba	1.5765908
42	0x4010520a	2.2550073
43	0x3ffe24da	1.9854996
44	0x3efb62e8	0.49098897
45	0x3fd7e1ec	1.6865821
46	0x3f66765a	0.9002434
47	0x3e168a59	0.14701213
48	0x3f438a0b	0.7638251
49	0x3f91abf8	1.1380606
50	0x3fcbf562	1.593426
51	0x410303d9	8.188439
52	0x3ff8f328	1.9449205
53	0x3fad059d	1.3517338
54	0x3f5c524a	0.86063063
55	0x40cb8087	6.3594394
56	0x40ca0ee6	6.3143187
57	0x3f58e476	0.84723604
58	0x3f9a9aad	1.2078453
59	0x3fecf401	1.8511964
60	0x3f3ac870	0.72962093
61	0x408ad867	4.3389163
62	0x404a5e19	3.1619933
63	0x417b72cb	15.715526
64	0x3f103d2f	0.5634336
65	0x3fdf902b	1.7465872
66	0x3faf1fcb	1.3681577
67	0x40a081bd	5.015837
68	0x3fcb1842	1.5866778
69	0x40ee8815	7.4541116
70	0x423a57be	46.585686
71	0x411e4205	9.891118
72	0x3f92ec1a	1.1478302
73	0x3f51a382	0.8189012
74	0x4094d8a4	4.6514454
75	0x4182cbec	16.349571
76	0x3ffa5128	1.9556017
77	0x4086d0cd	4.2129884
78	0x3eb52754	0.35381567
79	0x409ed19b	4.9630866
80	0x40063ee4	2.0975885
81	0x3a981030	0.0011601504
82	0x3f392d29	0.72334534
83	0x401bf52e	2.4368396
84	0x4192eda4	18.366035
85	0x3fc3de63	1.5302242
86	0x3ea8cde3	0.3296958
87	0x3f14176b	0.57848233
88	0x41f3c3d4	30.47062
89	0x00000004	6e-45
90	0x40c8db07	6.2767367
91	0x40a26b3f	5.0755916
92	0x40367758	2.8510342
93	0x3f360ed9	0.71116406
94	0x3b40cceb	0.0029419016
95	0x405dd8b3	3.4663513
96	0x41004924	8.017857
97	0x4095dfe7	4.683582
98	0x408c71af	4.3888774
99	0x40b90bcd	5.7826905
100	0x4048621c	3.1309881
101	0x3fd90529	1.69547
102	0x3fa813ea	1.3131077
103	0x4067b560	3.6204453
104	0x401aeb7a	2.4206223
105	0x3f446e1b	0.7673051
106	0x3eee4617	0.4653785
107	0x3f8768e2	1.0578883
108	0x3f2f755d	0.6853846
109	0x4004b72e	2.0736804
110	0x40af4f50	5.4784317
111	0x40bb5f5b	5.85539
112	0x40af2ffb	5.474607
113	0x00000004	6e-45
114	0x40a3f191	5.123238
115	0x410975be	8.591246
116	0x3fb571fb	1.4175409
117	0x3f2d8388	0.67778826
118	0x00000004	6e-45
119	0x3f66bbca	0.90130293
120	0x3fb5163e	1.4147413
121	0x40012f9c	2.0185308
122	0x4064b831	3.5737422
123	0x40b825e3	5.754625
124	0x3f541a41	0.8285256
125	0x4034d7f9	2.825682
126	0x3f84c3da	1.0372269
127	0x3f20652f	0.62654394
128	0x40a388f8	5.11047
129	0x3eec2c7c	0.4612769
130	0x408517eb	4.1591697
131	0x40318363	2.7736442
132	0x4117c84f	9.486403
133	0x3eb47add	0.35249987
134	0x4190c81c	18.09771
135	0x4082393c	4.0694866
136	0x415181ca	13.094187
137	0x3fef8d12	1.8714926
138	0x3f5b0de9	0.855681
139	0x3d3a06d5	0.04541667
140	0x400456d2	2.067799
141	0x403545c4	2.8323832
142	0x40d90595	6.7819314
143	0x41535ac8	13.209663
144	0x4081f8c3	4.0616164
145	0x3f140364	0.57817674
146	0x400ea9b3	2.2291076
147	0x3f98cc60	1.193737
148	0x3f5cb277	0.86209816
149	0x3fdb87b5	1.715079
150	0x3c3be53a	0.011468226
151	0x3f67ce65	0.9054931
152	0x3e4f0153	0.20215349
153	0x411ea72d	9.915814
154	0x3e999b4c	0.30001295
155	0x3f647952	0.8924762
156	0x3dd9da95	0.10637394
157	0x00000004	6e-45
158	0x3e90ecae	0.28305572
159	0x408c3297	4.3811755
160	0x3fe559d3	1.7918037
161	0x411afd67	9.686866
162	0x3ecc22cf	0.39870307
163	0x27ce02c1	5.717947e-15
164	0x3f49b3cd	0.7878998
165	0x405bde9c	3.435462
166	0x4029e0c7	2.6543443
167	0x403184ad	2.773723
168	0x412f6455	10.961995
169	0x42264a40	41.57251
170	0x3eaf3f3d	0.34227934
171	0x41b0fd64	22.123726
172	0x3bb33e9f	0.0054701115
173	0x404d4b11	3.2077067
174	0x39b87084	0.00035179046
175	0x3fbaac23	1.4583782
176	0x3e2e1aff	0.17002486
177	0x3c1b60ce	0.009483529
178	0x414262af	12.149093
179	0x3cebdcd1	0.028791817
180	0x400256d5	2.0365498
181	0x3fbb4ea6	1.4633377
182	0x418fa032	17.95322
183	0x3e09ff9a	0.1347641
184	0x3e4c3562	0.19942239
185	0x3eebc70b	0.46050295
186	0x408f779b	4.4833503
187	0x3fc4f004	1.5385747
188	0x377825fa	1.4790794e-05
189	0x40003cb2	2.0037045
190	0x405091eb	3.2589061
191	0x40b37ef9	5.6092496
192	0x4090db79	4.526791
193	0x40939e27	4.6130557
194	0x40d0293d	6.505034
195	0x3edc3a30	0.43013144
196	0x4074a5af	3.8226125
197	0x3fc6b094	1.5522637
198	0x3e2110dc	0.15729088
199	0x400042e3	2.0040824
200	0x3ed20a8c	0.41023672
201	0x3f9c9d4d	1.2235504
202	0x3f75c6ff	0.9600677
203	0x41a17aaa	20.184895
204	0x2cc388c5	5.557418e-12
205	0x4034ddc9	2.8260367
206	0x3faf375b	1.3688768
207	0x3fa580a4	1.2929883
208	0x3f16df06	0.58934057
209	0x3ea8e221	0.32985023
210	0x3fda926e	1.7075937
211	0x4016817e	2.3516536
212	0x3f533ba0	0.82512856
213	0x41742fe4	15.261692
214	0x413bef88	11.745979
215	0x40ae150d	5.4400697
216	0x3f3b6670	0.7320318
217	0x3fe3cacb	1.7796263
218	0x40b1f372	5.5609674
219	0x412fcd6b	10.987651
220	0x3fc3ba9f	1.5291327
221	0x3ebc0049	0.36718968
222	0x40732759	3.7992766
223	0x3fb27d32	1.3944457
224	0x40c83ecf	6.257667
225	0x3f8f2683	1.1183628
226	0x3ef95504	0.48697674
227	0x3f1a65ca	0.6031157
228	0x3e45f5b0	0.19332004
229	0x00000004	6e-45
230	0x40518a76	3.274076
231	0x3fe1055f	1.7579764
232	0x40a7e75f	5.2469935
233	0x408f2339	4.4730496
234	0x39fca376	0.00048186973
235	0x3d9aaf09	0.075529166
236	0x3ff2f591	1.8981191
237	0x3fbd4a3e	1.4788282
238	0x3f374232	0.7158538
239	0x40d6a279	6.707333
240	0x40815028	4.0410347
241	0x40b69de8	5.7067757
242	0x40b1fe67	5.562305
243	0x41101508	9.005135
244	0x3fe54e59	1.7914535
245	0x3e4961ea	0.19666258
246	0x405f0e3e	3.4852443
247	0x40dbd24c	6.869421
248	0x3e573660	0.21016836
249	0x3e4e3237	0.20136343
250	0x3fcf7953	1.62089
251	0x40b5029f	5.65657
252	0x3e310ee5	0.17290838
253	0x4141dcbc	12.11639
254	0x40aebd91	5.4606404
255	0x3f21a060	0.6313534
