checkpoint_actor_0_2021-06-21_01-42-19.pth (torch_old, 163992 bytes, 10 tensors)

fc1.weight f4 [256, 24]
0	0x3db1d199	0.08682556
1	0x3eada621	0.3391581
2	0x3e4d9845	0.20077617
3	0xbd9e36cf	-0.07725298
4	0xbbefc7ae	-0.007317505
5	0xbe99a40c	-0.3000797
6	0x3e4180d5	0.18896802
7	0xbd2277de	-0.039665096
8	0xbd2be059	-0.041962
9	0x3ec94359	0.39309195
10	0xbe125f2f	-0.14294122
11	0xbd2bba08	-0.04192546
12	0x3e4b0400	0.19825745
13	0xbf0e08a2	-0.5548192
14	0xbdedd230	-0.11612356
15	0xbc429bb8	-0.011877947
16	0x3db8ef30	0.090299964
17	0x3ebbfdd2	0.36717087
18	0xbe0ec892	-0.13943699
19	0xbebc75e9	-0.36808708
20	0x3de46747	0.11152511
21	0xbf477dba	-0.7792622
22	0xbd99feaf	-0.0751928
23	0xbebbf2b6	-0.3670861
24	0xbe348c89	-0.17631735
25	0x3ea73d3e	0.32663912
26	0x3e348534	0.17628938
27	0x3dd71b73	0.105032824
28	0x3e1d663e	0.15371034
29	0xbed4bdec	-0.4155115
30	0x3e75b2a5	0.23993929
31	0x3d89e05b	0.067322455
32	0xbd9e42c2	-0.07727577
33	0x3f23e58b	0.6402213
34	0x3d4e1b00	0.050318718
35	0x3d85b950	0.06529486
36	0xbd271ea3	-0.0408007
37	0xbf615520	-0.88020515
38	0x3c60fee5	0.013732647
39	0x3dc84370	0.09778488
40	0xbdc5323e	-0.096287236
41	0x3f108ab9	0.56461674
42	0xbd8bb660	-0.06821895
43	0xbe1444bb	-0.14479344
44	0xbdb38ef1	-0.08767498
45	0xbfaec02d	-1.3652397
46	0x3cbf996c	0.023388587
47	0xbe65f6d5	-0.2245744
48	0x3e3ab98b	0.18234842
49	0xbe4a3f48	-0.19750702
50	0x3d3de12e	0.046357326
51	0x3e9cac46	0.30600184
52	0x3d7b5185	0.06135704
53	0x3e12a2da	0.14319935
54	0x3de9331e	0.11386703
55	0x3eb856c7	0.36003706
56	0x3e479279	0.19489469
57	0xbc4ead81	-0.012614609
58	0xbd35d626	-0.04439368
59	0x3edd8e02	0.43272406
60	0xbd715e8d	-0.05892806
61	0x3f109059	0.5647026
62	0x3b1a0f72	0.0023507741
63	0x3ec135ba	0.37736303
64	0x3e6db69c	0.23214191
65	0x3e73d57c	0.23811907
66	0xbd6a8bb2	-0.05726213
67	0x3ec3e377	0.3825948
68	0xbe2cc610	-0.1687243
69	0x3f3bce08	0.73361254
70	0xbda6a1d4	-0.08136335
71	0x3ec93c0b	0.39303622
72	0x3da0ccff	0.078516
73	0x3eafc3ac	0.34328973
74	0xbdf6ccf1	-0.12050808
75	0x3e26948e	0.16267607
76	0x3d92a5a4	0.071605
77	0xbe8925ad	-0.26786557
78	0xbdff89a6	-0.12477426
79	0x3df6a9f4	0.12044135
80	0x3e3deb15	0.18546708
81	0x3e70071b	0.2344021
82	0xbc4fd72e	-0.01268558
83	0x3e6d876c	0.2319619
84	0x3f0d3532	0.55159295
85	0x3d720b29	0.059092674
86	0xbc0f7b8b	-0.008757482
87	0x3e64d1b0	0.22345614
88	0x3e5d786f	0.21627973
89	0x3e1c2af1	0.15250756
90	0xbc0cdcda	-0.008597577
91	0x3e04e3bb	0.12977497
92	0x3f8410dd	1.0317646
93	0x3e3bbd47	0.18333922
94	0x3d11d9ed	0.03560822
95	0x3e200a57	0.15628944
96	0x3e4e6bc6	0.201583
97	0x3d88aa57	0.06673115
98	0xbc9de0b3	-0.019272184
99	0x3e28d1ad	0.16486235
100	0x3f5fc965	0.8741668
101	0x3eb054be	0.34439653
102	0x3c53e7be	0.01293367
103	0x3dad8b01	0.084737785
104	0x3e0bbd1d	0.1364636
105	0x3c99a784	0.018756635
106	0xbcd37537	-0.025812728
107	0xb9ef7d9b	-0.00045679216
108	0xbe3b4fd3	-0.1829217
109	0x3df11b68	0.117728055
110	0x3c30604d	0.010765147
111	0xbc486b29	-0.01223258
112	0x3de2a1a4	0.11065987
113	0xbe52f63e	-0.20601746
114	0x3c7ce505	0.015435462
115	0xbd02e813	-0.031959604
116	0xbfc1eac5	-1.5149771
117	0x3e5dd7c6	0.21664342
118	0xbbf87fa9	-0.0075835777
119	0xbd0bc38b	-0.03412203
120	0xbd8762be	-0.066106305
121	0x3e77368d	0.24141903
122	0xbd2a4459	-0.041569088
123	0xbe0ee37a	-0.13953963
124	0xbeedae2d	-0.46421948
125	0xbefda4b2	-0.49539715
126	0xbdc22825	-0.09480313
127	0xbe5bed41	-0.21477224
128	0x3d441c18	0.047878355
129	0x3e42027b	0.18946259
130	0xbce8b4b0	-0.028406471
131	0xbe3a4450	-0.18190122
132	0xbe4441d2	-0.19165733
133	0xbf4793ee	-0.779601
134	0xbde51087	-0.11184793
135	0xbe590fd4	-0.21197444
136	0x3d1be5c2	0.03806091
137	0x3e31e1b2	0.17371252
138	0xbd2187b7	-0.03943607
139	0x3b5be300	0.003355205
140	0xbe3d19f2	-0.18466929
141	0xbf954d80	-1.1664276
142	0xbbc0b957	-0.005881469
143	0xbc7bad80	-0.01536119
144	0xbe51a776	-0.20474038
145	0x3ccf7b38	0.02532731
146	0x3e30bcc8	0.17259514
147	0x3ee9300a	0.45544463
148	0x3e5a7ea4	0.21337372
149	0xbef9dccd	-0.4880127
150	0x3dbbcb04	0.091695815
151	0x3ef033dd	0.4691457
152	0xbdfeb60d	-0.12437067
153	0x3e3574d1	0.17720343
154	0x3d526223	0.05136312
155	0x3ecc29ac	0.39875543
156	0x3d632bfe	0.055461876
157	0xbf1ec2e3	-0.62016124
158	0x3d8d4297	0.06897467
159	0x3ecc1ffa	0.39868146
160	0xbe59ec16	-0.21281466
161	0x3ed9818b	0.42481646
162	0xbd1f091a	-0.03882704
163	0x3e989a42	0.2980519
164	0xbdce9187	-0.10086351
165	0xbf44d8e8	-0.7689347
166	0x3d141ff7	0.036163297
167	0x3e97ce83	0.29649743
168	0x3e572fcb	0.21014325
169	0x3e83c94a	0.2573951
170	0xbce7eaf2	-0.028310273
171	0xbd16d16b	-0.03682081
172	0x3d55aa73	0.052164506
173	0xbea8a8c9	-0.32941273
174	0xbd1c515f	-0.03816354
175	0x3d3e5e85	0.04647686
176	0x3ea52a66	0.3225891
177	0x3e90bb7b	0.28268036
178	0xbd07c914	-0.033150747
179	0x3d927583	0.0715132
180	0xbd777803	-0.060417186
181	0xbe516c4b	-0.20451467
182	0x3b8ccc59	0.004296821
183	0x3c204381	0.009781719
184	0x3ec76efb	0.3895186
185	0x3e869854	0.26288092
186	0x3bb5e96f	0.005551509
187	0xbdc69adf	-0.09697508
188	0xbdbce8ff	-0.09224128
189	0xbd9fca0f	-0.078022115
190	0x3abc37af	0.0014359857
191	0xbdfa9bc5	-0.12236742
192	0x3e67e916	0.22647509
193	0xbe71206e	-0.23547527
194	0xbda2b6d5	-0.07945029
195	0x3eed085a	0.46295434
196	0x3d17690d	0.03696542
197	0x3da018fd	0.07817266
198	0xbdb66da0	-0.08907628
199	0x3edfcd3d	0.43711272
200	0x3e65facf	0.22458957
201	0xbe5e8d74	-0.21733648
202	0xbc8392a5	-0.016061136
203	0x3ef14cf9	0.47129038
204	0x3e0839cb	0.13303296
205	0xbd6de823	-0.05808271
206	0x3c461f4d	0.012092424
207	0x3edf9d42	0.43674666
208	0x3eb279cd	0.34858552
209	0xbd4ad6f3	-0.049521398
210	0x3d2b0aa3	0.04175819
211	0x3f1d45e2	0.6143476
212	0x3d8d1aa5	0.06889848
213	0x3e34feac	0.17675275
214	0xbd702dc9	-0.058637414
215	0x3f16f6ac	0.5897014
216	0xbc2e0233	-0.0106206415
217	0xbdb24f09	-0.08706481
218	0x3b059987	0.00203857
219	0xbe9f194a	-0.31073982
220	0xbdb0c03d	-0.086304165
221	0x3e98bd01	0.298317
222	0xbd222652	-0.039587326
223	0xbe8e6ab8	-0.27815795
224	0x3a96b03b	0.0011496613
225	0xbe7d0838	-0.24710166
226	0x3df3c33e	0.11902474
227	0xbe1f8285	-0.15577133
228	0xbec01adc	-0.37520492
229	0xbdc8409e	-0.0977795
230	0x3e37354e	0.17891428
231	0xbe6d2475	-0.23158439
232	0x3d80edc5	0.06295351
233	0xbeca67f9	-0.3953245
234	0x3d7fe6b6	0.062475882
235	0xbde718be	-0.11284016
236	0xbf3f7746	-0.7479137
237	0xbed78e16	-0.4210059
238	0x3daa039f	0.08301472
239	0xbdb97f98	-0.0905754
240	0xbd8819c0	-0.066455364
241	0x3f467297	0.775186
242	0xbe858983	-0.26081476
243	0x3eb8caae	0.36092132
244	0x3eb766b3	0.3582054
245	0xbf0f5909	-0.5599523
246	0xbe4deaa5	-0.20109041
247	0x3ea2733b	0.3172854
248	0xbd85dcb0	-0.065362334
249	0x3f228540	0.63484573
250	0xbcc063b6	-0.023485046
251	0xbe123155	-0.14276631
252	0x3e82aa95	0.2552077
253	0x3ce08e28	0.027411535
254	0xbceef92e	-0.029171553
255	0xbe435ef1	-0.19079186

fc1.bias f4 [256]
0	0xbec50bbc	-0.38485515
1	0x3e09eeef	0.13470052
2	0xbeaa4d3c	-0.3326205
3	0xbfb32bf2	-1.3997786
4	0xbf210360	-0.62895775
5	0xbe31fc03	-0.17381291
6	0xbe16a78b	-0.1471235
7	0xbddb9653	-0.107220314
8	0xbfa09444	-1.2545247
9	0x3a9c5f74	0.0011930303
10	0xbf19f2f8	-0.60136366
11	0xbe39440b	-0.18092363
12	0xbd1d08e7	-0.038338568
13	0x3ce67ebb	0.028136602
14	0xbee43b07	-0.44576284
15	0xbc23d3b6	-0.009999206
16	0xbf149624	-0.58041596
17	0xbee990bc	-0.45618236
18	0xbf15b15d	-0.5847376
19	0xbf066f4e	-0.5251359
20	0xbe5f13ca	-0.21784893
21	0xbf344a27	-0.7042565
22	0xbf1d33bf	-0.61407083
23	0xbe2e1227	-0.16999112
24	0xbf6450f9	-0.89186054
25	0xbf1a1ecc	-0.6020324
26	0xbf2bf938	-0.6717715
27	0xbee0570d	-0.43816414
28	0xbe29cd91	-0.16582324
29	0xbdd32e44	-0.10311559
30	0xbee7b7e5	-0.45257488
31	0xbf088cff	-0.5334014
32	0xbf280d21	-0.65645033
33	0x3c01cfef	0.00792311
34	0xbf270afd	-0.6525114
35	0xbe807127	-0.25086328
36	0xbec49d07	-0.38401052
37	0xbeb4aebd	-0.35289565
38	0xbf6558cf	-0.89588636
39	0xbecdab5a	-0.40169793
40	0x3d88acc7	0.0667358
41	0xbf1a6097	-0.60303634
42	0xbf1d1877	-0.61365455
43	0xbf32004c	-0.69531703
44	0xbcbc62d0	-0.022996336
45	0xbf20d6d1	-0.62827784
46	0xbe694a16	-0.22782168
47	0xbe8fdb61	-0.2809706
48	0xbe00faa0	-0.12595606
49	0xbf46ce6b	-0.7765872
50	0xbe1198f8	-0.14218509
51	0xbf4cff1b	-0.8007676
52	0xbe9d7499	-0.3075302
53	0xbe07b031	-0.13250805
54	0xbef5a5cf	-0.47978064
55	0xbca41658	-0.020030186
56	0xbdf06ffc	-0.11740109
57	0xbf5be494	-0.8589566
58	0xbf0a1d70	-0.5395117
59	0xbed8dd76	-0.4235646
60	0xbee185db	-0.44047436
61	0xbe94f970	-0.29096556
62	0xbf0c62fe	-0.5483855
63	0xbef06024	-0.4694835
64	0xbf0413f8	-0.5159297
65	0xbef668ff	-0.4812698
66	0xbf431086	-0.7619709
67	0xbeddce3b	-0.43321404
68	0xbf138d58	-0.5763755
69	0xbec7cc4b	-0.3902305
70	0xbdaaa086	-0.08331399
71	0xbe6822e6	-0.22669563
72	0xbe6242da	-0.22095814
73	0xbe7e1dc9	-0.2481605
74	0xbf7a33aa	-0.97735083
75	0xbe1836c0	-0.14864635
76	0xbef33d01	-0.4750748
77	0xbe8964b2	-0.26834637
78	0xbf17307b	-0.5905835
79	0xbe113330	-0.14179683
80	0x3d68b356	0.056811653
81	0xbe694183	-0.22778897
82	0xbeb1f6db	-0.34758648
83	0xbf33545c	-0.700506
84	0xbf2282ef	-0.6348104
85	0xbf0ed551	-0.55794245
86	0xbf1d3d95	-0.6142209
87	0xbeeb9a1a	-0.46016008
88	0xbddaae99	-0.10677833
89	0xbd8f7cb6	-0.070062086
90	0xbeb05b15	-0.3444449
91	0xbefb67c6	-0.4910261
92	0xbf108b73	-0.5646278
93	0xbe796fc9	-0.24359049
94	0xbeb39e56	-0.35081738
95	0xbee2060b	-0.44145235
96	0xbefea6df	-0.49736688
97	0xbf3bb41b	-0.73321694
98	0xbf5badf2	-0.85812294
99	0xbe9d11ec	-0.30677736
100	0x3ddd1935	0.107958235
101	0xbeff1e8b	-0.4982799
102	0xbe12a7b7	-0.1432179
103	0xbe9a00d9	-0.30078772
104	0xbf948e44	-1.1605916
105	0xbe959af3	-0.2921978
106	0xbebc5fa5	-0.3679172
107	0xbf426b7f	-0.75945276
108	0xbf26e81f	-0.6519794
109	0xbe9de056	-0.30835217
110	0x3d3d9868	0.046287924
111	0xbee5cafb	-0.44881424
112	0xbf0f24a6	-0.55915296
113	0xbf578e5b	-0.8420159
114	0xbe1bee10	-0.15227532
115	0xbe0d099b	-0.13773195
116	0xbdc97df0	-0.09838474
117	0xbf85335b	-1.0406297
118	0xbf290a39	-0.66031224
119	0xbd68178e	-0.05666309
120	0x3d7e5bd9	0.06209931
121	0xbf606383	-0.8765184
122	0xbed93664	-0.4242431
123	0x3f11a945	0.5689891
124	0xbf994787	-1.1974953
125	0xbe6b0b37	-0.22953497
126	0x3dec98e7	0.11552601
127	0xbf07465e	-0.52841747
128	0xbf173684	-0.5906756
129	0xbeaf85be	-0.34281725
130	0xbf022a05	-0.50845367
131	0xbd13c9ea	-0.036081232
132	0xbeb6462c	-0.35600412
133	0xbf700eca	-0.93772566
134	0xbf3383a2	-0.7012273
135	0xbecba5b1	-0.3977485
136	0xbec75117	-0.38929054
137	0xbf25cc94	-0.64765286
138	0x3bf5a499	0.007496428
139	0xbe78d071	-0.24298264
140	0xbf02ab5c	-0.51042724
141	0xbed9ddcb	-0.42552027
142	0xbf2e8a6c	-0.68179965
143	0xbf02d40a	-0.51104796
144	0xbe18cee5	-0.14922674
145	0xbf0b1e9c	-0.5434358
146	0xbe1382d2	-0.14405373
147	0xbefa53db	-0.48892102
148	0xbebd0317	-0.3691642
149	0x3e0a3a76	0.13498864
150	0xbefc2efd	-0.492546
151	0xbf20cd7d	-0.6281355
152	0xbebb30b9	-0.3656061
153	0xbf0af471	-0.5427924
154	0xbe07db49	-0.13267244
155	0xbe682260	-0.22669363
156	0xbe820754	-0.25396216
157	0xbf045b6b	-0.5170199
158	0xbe3b6b34	-0.18302613
159	0xbe9da5fc	-0.307907
160	0xbf2192c0	-0.6311455
161	0x3d989ad8	0.07451409
162	0xbf05d895	-0.522836
163	0xbfa039d4	-1.2517648
164	0xbf29c768	-0.66319895
165	0xbe940e8a	-0.28917342
166	0xbf395b02	-0.7240449
167	0xbe1b230c	-0.15150088
168	0xbe97ba18	-0.29634166
169	0xbe7f7cce	-0.24949953
170	0xbf108425	-0.56451637
171	0xbeeed55b	-0.46647152
172	0xbe3f93f2	-0.1870878
173	0x3e89689e	0.2683763
174	0xbf297926	-0.6620048
175	0x3ea10be3	0.3145438
176	0xbd831ce8	-0.06401998
177	0xbf3a0203	-0.7265932
178	0xbf8d959f	-1.1061286
179	0xbf0e8108	-0.55665636
180	0xbf0183b7	-0.50591606
181	0xbeb5b075	-0.3548619
182	0xbd8db1d6	-0.06918685
183	0xbf65ea96	-0.89811075
184	0xbecdd108	-0.4019854
185	0xbf33006d	-0.69922525
186	0xbf0bc35a	-0.5459496
187	0xbd667212	-0.05626113
188	0x3a3621f7	0.000694781
189	0xbe009556	-0.12556967
190	0xbea60fe1	-0.3243399
191	0xbec88678	-0.39165092
192	0xbf52fff0	-0.8242178
193	0xbe3c306f	-0.18377851
194	0xbea1a645	-0.31572166
195	0xbdd355c3	-0.10319092
196	0xbe1bfe7b	-0.15233795
197	0xbf5c0750	-0.8594866
198	0xbf12c86a	-0.5733706
199	0xbcd15320	-0.025552332
200	0xbe400c03	-0.18754582
201	0xbe886b5a	-0.26644403
202	0xbe8c580b	-0.2741092
203	0xbecb77f7	-0.39739963
204	0xbf0e8ae5	-0.55680686
205	0xbf10f33f	-0.56621164
206	0xbefc9cee	-0.49338478
207	0x3d8060d2	0.06268467
208	0xbf0956cd	-0.5364807
209	0xbeb3c882	-0.35113913
210	0xbf7b9654	-0.9827626
211	0xbe061358	-0.13093317
212	0x3e6f6453	0.23378114
213	0xbebbd153	-0.3668314
214	0xbee0d759	-0.43914297
215	0xbf37dcc6	-0.7182125
216	0xbf764697	-0.9620146
217	0xbe42f39e	-0.19038245
218	0xbe384d63	-0.1799827
219	0xbedf60c7	-0.43628523
220	0xbedb2e98	-0.42808986
221	0x3da5b362	0.08090855
222	0xbee8a340	-0.4543705
223	0xbfc6a11c	-1.5517917
224	0x3e1f8864	0.15579373
225	0xbe026cf2	-0.12736872
226	0xbdd34a54	-0.10316911
227	0xbed1f294	-0.41005385
228	0xbe06f5a6	-0.13179645
229	0xbe5f5967	-0.21811448
230	0xbe82d37c	-0.25551975
231	0xbf7e7232	-0.99393
232	0xbe2bb390	-0.16767716
233	0xbe070afc	-0.13187784
234	0xbf266f35	-0.6501344
235	0xbf341027	-0.70337147
236	0xbfa1a001	-1.2626954
237	0xbe937ac1	-0.2880459
238	0xbef9e105	-0.4880449
239	0xbf1ea95d	-0.6197718
240	0xbedcad05	-0.43100753
241	0xbe08e0be	-0.13366982
242	0xbea4f246	-0.3221609
243	0xbecc80c4	-0.3994199
244	0xbe6131be	-0.21991631
245	0xbea32e80	-0.31871414
246	0xbef54d3b	-0.47910485
247	0xbf3cc7a5	-0.73742133
248	0x3ec511dd	0.3849019
249	0xbe88dbb3	-0.26730117
250	0xbb09ee45	-0.002104656
251	0xbec1027b	-0.37697205
252	0xbf90b75e	-1.1305959
253	0xbeecde70	-0.46263456
254	0xbf757aca	-0.95890486
255	0xbed76e7a	-0.42076474

fc2.weight f4 [128, 256]
0	0x3eaf2e9e	0.34215254
1	0x3e23f417	0.16011082
2	0x3e0674cb	0.1313049
3	0xbcd926c2	-0.026507739
4	0xb9ccada2	-0.0003903928
5	0x3ea11da0	0.31467915
6	0xbddfa1fa	-0.109195665
7	0x3d0e6e8a	0.034773387
8	0xbdbbd266	-0.0917099
9	0xbe8acb8b	-0.27108416
10	0xbe0ed358	-0.13947809
11	0xbe3bfe98	-0.18358839
12	0x3d259a58	0.040430397
13	0xbec41540	-0.38297462
14	0xbe69754f	-0.22798656
15	0x3ec224d5	0.37918726
16	0xbddb042b	-0.10694154
17	0xbe719796	-0.23592982
18	0x3e0ad9f6	0.13559708
19	0xbe1ad873	-0.15121631
20	0x3efc18df	0.49237725
21	0xbbdfb616	-0.0068271263
22	0x3d0d6e73	0.03452916
23	0x3ed96455	0.4245936
24	0x3de56347	0.11200576
25	0x3e5389e1	0.20658065
26	0xbe64b0c7	-0.2233306
27	0x3ebf8b12	0.3741079
28	0xbec85a64	-0.39131463
29	0xbcfa728c	-0.030572198
30	0xbd2149eb	-0.039377134
31	0x3cb50173	0.022095418
32	0x3f0241b4	0.50881505
33	0xbc94edde	-0.01817983
34	0x3dd72416	0.1050493
35	0xbe5787a8	-0.21047843
36	0x3c85b231	0.01632032
37	0x3ec1c59a	0.3784607
38	0x3dc7e223	0.09759929
39	0x3d92c4ec	0.07166466
40	0xbf12fdad	-0.5741833
41	0xbe2a63bd	-0.1663961
42	0x3ca7ad83	0.020468479
43	0x3de907dc	0.11378452
44	0xbe25168d	-0.16121884
45	0x3bb0f6ba	0.005400506
46	0xbec20f71	-0.37902406
47	0xbded2976	-0.11580174
48	0x3e729733	0.2369049
49	0x3e6bffb0	0.23046756
50	0xbe28e5f4	-0.1649397
51	0xbcf4c7c6	-0.029880416
52	0x3ecb7436	0.397371
53	0x3e24e20f	0.1610186
54	0x3e7ca6a3	0.24672942
55	0x3e734c6f	0.23759626
56	0x3db07252	0.08615555
57	0xbef6b9cb	-0.48188624
58	0xbe391ade	-0.18076655
59	0x3eb46666	0.35234374
60	0xbd1187fd	-0.03553008
61	0xbe9e1cf2	-0.3088146
62	0x3e889afd	0.26680747
63	0x3e42cd21	0.19023563
64	0x3f15f411	0.5857554
65	0x3d5fbc9c	0.05462323
66	0xbd9a5838	-0.07536358
67	0x3ec8612a	0.3913663
68	0x3ec1d696	0.3785903
69	0x3e483ab7	0.19553648
70	0x3ea8902d	0.32922497
71	0x3b0da201	0.0021611454
72	0xbd04685e	-0.032326095
73	0xbe6f35cc	-0.23360366
74	0xbe2b569e	-0.1673226
75	0xbe8fe404	-0.2810365
76	0x3dbff412	0.093727246
77	0xbd4ccacb	-0.049998086
78	0xbe7ceed5	-0.24700482
79	0x3eea3849	0.45746067
80	0xbd9ef80f	-0.07762157
81	0x3f1fe315	0.62455875
82	0x3ec99895	0.39374223
83	0x3d03e4f6	0.032200776
84	0xbe51adfb	-0.20476525
85	0xbd8ae1b1	-0.067813285
86	0xbec16987	-0.37775823
87	0x3e0c4ee9	0.13701977
88	0xbe948ccf	-0.29013678
89	0x3f18a4a4	0.5962622
90	0xbd6727b0	-0.056434333
91	0x3e056270	0.13025832
92	0xbedc5792	-0.4303556
93	0x3f01accf	0.5065431
94	0x3e88557e	0.26627725
95	0x3e7e0fff	0.2481079
96	0xbe491a42	-0.19638923
97	0xbe63cd9e	-0.22246405
98	0xbf1d96d4	-0.6155827
99	0xbd7ab822	-0.06121076
100	0x3d0aa8e3	0.03385247
101	0x3efe242e	0.49636978
102	0x3e1e30a4	0.15448242
103	0xbd7b99d0	-0.061425984
104	0xbd82c1dd	-0.06384633
105	0x3e0ffe25	0.14061792
106	0x3e95e031	0.29272607
107	0xbb339f31	-0.0027408118
108	0xbccbd3c9	-0.02488126
109	0xbf285509	-0.65754753
110	0x3ddca3e3	0.107734464
111	0x3d8b0f1e	0.06789993
112	0xbdff8583	-0.12476637
113	0xbdb148c7	-0.08656459
114	0xbdf94cdd	-0.12172864
115	0xbdb651f1	-0.08902348
116	0xbd9e0dbf	-0.077174656
117	0xbda3c3f9	-0.07996363
118	0xbeb95ff0	-0.36206007
119	0x3e3d2d3f	0.18474291
120	0x3ca0aba9	0.019613104
121	0x3d5b1a33	0.053491782
122	0x3e4aada6	0.19792804
123	0xbeb24f1f	-0.3482599
124	0x3d3067cf	0.04306775
125	0x3de14fab	0.110015236
126	0x3ed095f9	0.4073942
127	0xbc94f59e	-0.018183526
128	0xbe257b71	-0.1616037
129	0x3f05b71a	0.52232516
130	0x3e93d3a4	0.28872406
131	0xbc23f136	-0.01000624
132	0xbd08b31a	-0.03337393
133	0x3c84af75	0.016196946
134	0xbebac417	-0.3647773
135	0xbd9c1ca4	-0.0762265
136	0xbe131f34	-0.14367372
137	0x3e01ce8f	0.12676452
138	0xbe82d49c	-0.25552833
139	0x3e86a3c6	0.26296824
140	0x3e16e01f	0.14733933
141	0xbe53f080	-0.20697212
142	0xbe76c884	-0.24099928
143	0x3ece95fd	0.40348807
144	0x3e0cf799	0.13766326
145	0x3e2eaf57	0.17059074
146	0x3e3f9b50	0.18711591
147	0xbe90f67a	-0.28313047
148	0x3df621d6	0.120181724
149	0x3f08b1ab	0.533961
150	0x3e6fb192	0.23407581
151	0xbe78abd5	-0.24284299
152	0x3e46f138	0.19427955
153	0xbd913e2a	-0.07091935
154	0x3eaac904	0.33356488
155	0x3ef90ab4	0.48640978
156	0x3e40cc58	0.18827951
157	0x3dd9478b	0.10609349
158	0xbeec7b78	-0.4618795
159	0x3f050953	0.5196735
160	0xbedd5d0a	-0.43235046
161	0x3f265233	0.64969176
162	0x3d8e97ce	0.06962548
163	0x3efed3ec	0.4977106
164	0xbeda2185	-0.42603698
165	0x3db2c0d1	0.08728183
166	0xbdce3230	-0.10068166
167	0x3ea7c9ce	0.32771152
168	0x3ee7b10e	0.4525227
169	0x3f021a43	0.5082132
170	0xbde5103c	-0.11184737
171	0xbd42f0fd	-0.047593106
172	0x3d86b26d	0.06577001
173	0x3df93d7d	0.12169931
174	0x3e1f89f1	0.15579964
175	0xbebded4e	-0.37095112
176	0x3d25df1d	0.04049598
177	0xbec22d95	-0.379254
178	0x3e892a8e	0.2679028
179	0xbead0362	-0.33791643
180	0x3e5dd73c	0.21664137
181	0x3e609657	0.2193235
182	0x3bc75b71	0.0060838987
183	0x3e80816f	0.2509875
184	0xbea25988	-0.31708932
185	0x3e1aff52	0.1513646
186	0xbd92a293	-0.07159915
187	0x3e838c5a	0.25693017
188	0x3e5be038	0.21472251
189	0xbbb5befb	-0.0055464483
190	0xbedfa87f	-0.4368324
191	0xbe14dbb1	-0.1453693
192	0x3e2776c5	0.163539
193	0xbdf0a722	-0.11750628
194	0xbe193859	-0.14962901
195	0xbd029dba	-0.0318887
196	0x3e44eb46	0.19230375
197	0x3d75ce9c	0.06001149
198	0x3e209786	0.15682802
199	0x3e100605	0.14064796
200	0x3ec96e6e	0.39342064
201	0xbbf5b35d	-0.0074981884
202	0x3e007bfe	0.125473
203	0x3c04dfb8	0.008109979
204	0x3e8b28ba	0.2717951
205	0xbd1c1141	-0.038102392
206	0x3e38b2cb	0.18036954
207	0xbdd1e852	-0.1024939
208	0xbd93fe8e	-0.07226287
209	0x3da71850	0.08158934
210	0x3ebc309e	0.36755842
211	0xbde37c41	-0.11107684
212	0x3c99a584	0.018755682
213	0x3e91591b	0.28388295
214	0xbdd33005	-0.103118934
215	0xbd8310c4	-0.06399682
216	0xbda785db	-0.08179828
217	0xbd8255b5	-0.063640036
218	0x3e290921	0.16507389
219	0x3d97d9ce	0.0741459
220	0xbcb666cd	-0.022265816
221	0xbd9e4e39	-0.077297635
222	0xbe263f7b	-0.16235153
223	0xbe689bff	-0.22715758
224	0x3eab4b9d	0.33456126
225	0x3f29a3cc	0.6626556
226	0x3e87546a	0.2643159
227	0x3ef67f59	0.48144034
228	0x3e1b5599	0.15169372
229	0xbe85dbf6	-0.2614438
230	0xbd8873ca	-0.0666271
231	0x3dc63571	0.09678162
232	0xbe49f76b	-0.19723289
233	0x3ea17075	0.3153111
234	0x3e21513f	0.15753649
235	0xbdf9402c	-0.12170443
236	0xbda81fd7	-0.08209198
237	0xbea4ba01	-0.3217316
238	0x3e8b9d70	0.27268553
239	0xbe82e092	-0.2556196
240	0x3d992957	0.07478588
241	0x3d7106ea	0.058844484
242	0xbdce165e	-0.1006286
243	0xbe78d18f	-0.2429869
244	0xbd9213af	-0.071326606
245	0x3e95388d	0.29144707
246	0x3e75dcad	0.24009962
247	0xbdb05a19	-0.08610935
248	0x3dd2f14d	0.10299931
249	0xbe173592	-0.14766529
250	0xbe0d7ad5	-0.13816388
251	0xbe29bdef	-0.1657636
252	0xbe3e1940	-0.1856432
253	0x3e0f963f	0.14022158
254	0xbd78310a	-0.060593642
255	0x3ce2631f	0.027635155

fc2.bias f4 [128]
0	0xbdd73909	-0.105089255
1	0xbdfdc653	-0.12391343
2	0xbe897e0e	-0.26853985
3	0xbe3f353b	-0.1867265
4	0x3e182d62	0.14861062
5	0xbe8d547e	-0.27603525
6	0xbe95add2	-0.29234177
7	0xbd6a68c6	-0.057228826
8	0xbe2714f0	-0.16316581
9	0xbe84566a	-0.2584718
10	0xbbdfe875	-0.006833131
11	0xbe491da1	-0.19640209
12	0xbe1b850a	-0.15187469
13	0xbdd4a278	-0.10382551
14	0x3c840738	0.016116723
15	0x3e4d679c	0.20059055
16	0x3e11f5b6	0.14253888
17	0xbdc4edaf	-0.09615647
18	0xbde8194d	-0.11332951
19	0x3b3be099	0.0028667806
20	0xbe56a077	-0.2095965
21	0xbebe1651	-0.371264
22	0xbda1a9bf	-0.078937046
23	0x3e0a0684	0.13479048
24	0xbe5bae15	-0.21453126
25	0xbdd7e90f	-0.10542499
26	0xbd24c29e	-0.040224664
27	0xbe40c2b3	-0.18824272
28	0xbec153e6	-0.37759322
29	0xbdf0e7d8	-0.11762971
30	0xbd727571	-0.059194032
31	0xbd270e23	-0.040784966
32	0xbea00059	-0.31250265
33	0x3e08960a	0.13338485
34	0x3c81ac84	0.015829332
35	0xbea6514a	-0.32483894
36	0xbcbdd4ff	-0.023172854
37	0xbe7d0501	-0.2470894
38	0xbe0e5398	-0.13899076
39	0xbe166827	-0.14688168
40	0x3c921058	0.017830059
41	0x3d4e2968	0.050332457
42	0x3d609080	0.054825306
43	0xbdb4fd2f	-0.088373534
44	0xbeb24b04	-0.34822857
45	0xbe7e8b58	-0.24857843
46	0xbc837364	-0.016046233
47	0xbe1d7655	-0.15377171
48	0xbdc35807	-0.09538274
49	0xbe4ecadc	-0.20194572
50	0xbd8d390e	-0.06895648
51	0x3d7160c3	0.05893017
52	0xbe773af7	-0.24143587
53	0xbd4f016a	-0.050538458
54	0xbd08c316	-0.033389173
55	0xbed1566e	-0.40886253
56	0xbebc812a	-0.36817294
57	0xbe1473ce	-0.14497301
58	0xbec57c5c	-0.3857144
59	0xbb86bcf5	-0.004111881
60	0x3cac313e	0.021019574
61	0xbd9c6645	-0.07636694
62	0x3d252d07	0.040326145
63	0xbdcea3cc	-0.100898355
64	0xbe3bdcf7	-0.1834601
65	0xbe9734f8	-0.295326
66	0xbe872ac9	-0.2639983
67	0xbe3b1b8c	-0.18272227
68	0xbe7a8d44	-0.24467951
69	0xbdda46d9	-0.10658044
70	0xbe2b71cd	-0.1674263
71	0xbeba98fe	-0.3644485
72	0x3c0d8908	0.008638628
73	0xbe96891f	-0.2940149
74	0xbe19122c	-0.14948338
75	0xbe4da20a	-0.20081344
76	0xbe2feb1f	-0.17179535
77	0xbccc4ef1	-0.024939986
78	0xbef9c31e	-0.48781675
79	0xbe85ee81	-0.26158527
80	0xbdd36e61	-0.103237875
81	0xbe14c8c5	-0.14529712
82	0xbe87e38b	-0.2654079
83	0xbe3dde93	-0.18541937
84	0x3d1cfdf0	0.03832811
85	0xbdce94d0	-0.100869775
86	0x3c2049f9	0.009783261
87	0xbe46258e	-0.19350263
88	0xbd1860d6	-0.037201725
89	0x3e623432	0.22090223
90	0xbe5a6ccd	-0.21330567
91	0xbd03ebcd	-0.0322073
92	0xbd0e3efc	-0.034728035
93	0xbe93a3af	-0.28835818
94	0x3d89abf2	0.06722249
95	0x3d70b2aa	0.058764137
96	0xbcfe6cc9	-0.031057732
97	0xbe9b361d	-0.30314723
98	0xbd99ffbd	-0.07519481
99	0xbc962796	-0.018329423
100	0x3e8e024d	0.2773613
101	0xbda84e68	-0.0821808
102	0xbeaef193	-0.34168682
103	0xbe1ea2b1	-0.1549175
104	0xbec881fc	-0.3916167
105	0xbd53d106	-0.051713012
106	0x3d3e5644	0.046468988
107	0x3d11b22a	0.0355703
108	0xbea49b46	-0.32149714
109	0xbe866879	-0.2625158
110	0xbd8c4888	-0.06849772
111	0xbe0c2521	-0.13686039
112	0xbf0b603c	-0.54443717
113	0xbead3234	-0.33827364
114	0xbdb6c393	-0.089240216
115	0xbe8e2228	-0.27760434
116	0xbe98adcf	-0.29820105
117	0x3bd779b8	0.0065757893
118	0xbe5a2a96	-0.21305308
119	0xbddffb3d	-0.10936592
120	0x3d8b238e	0.06793891
121	0xbc855031	-0.01627359
122	0xbdf786a3	-0.12086227
123	0xbe8b7e24	-0.27244675
124	0x3dcb7dd1	0.09936107
125	0xbe53a31c	-0.2066769
126	0xbeb6de34	-0.35716403
127	0xbe179e6a	-0.14806524

fc3.weight f4 [2, 128]
0	0x3e0e9bff	0.13926695
1	0xbf470efc	-0.7775724
2	0x3f1acdca	0.6047026
3	0xbf185767	-0.59508365
4	0xbf225761	-0.6341458
5	0xbd8cf5c6	-0.06882815
6	0x3f21474f	0.62999433
7	0xbc521012	-0.012821214
8	0x3f29e565	0.66365653
9	0xbeb948a5	-0.36188236
10	0x3ccaadbf	0.024741052
11	0x3db6f174	0.08932772
12	0x3eaf369a	0.34221345
13	0xbefe458e	-0.4966244
14	0x3f10bbcc	0.56536555
15	0xbf378605	-0.7168887
16	0xbd737f1a	-0.059447385
17	0xbea99da5	-0.33128086
18	0xbf104bf5	-0.563659
19	0xbf92fa5d	-1.1482655
20	0xc0221f23	-2.5331504
21	0x3f6f9589	0.9358755
22	0xbd15934e	-0.036517434
23	0xbf0341bc	-0.5127218
24	0x3ede1c83	0.43381128
25	0xbeba3799	-0.36370543
26	0xbf03a2fa	-0.5142056
27	0x3f0c9d77	0.5492777
28	0x3d3e32ee	0.04643529
29	0x3f1c42f2	0.6103965
30	0xbc6321b4	-0.013863016
31	0xbd26d769	-0.040732775
32	0xbf84afed	-1.0366188
33	0xbf180481	-0.5938187
34	0x3e402ab0	0.18766284
35	0x3ff9721a	1.9487946
36	0x3e5253f1	0.20539834
37	0xbf9335be	-1.1500776
38	0x3f92c6be	1.1466901
39	0x3e0c6402	0.13710025
40	0xbf7c020f	-0.9844064
41	0xbf5dae69	-0.86594254
42	0x3ed8d1dd	0.42347613
43	0xbebe1b3a	-0.37130147
44	0xbec94338	-0.39309096
45	0x3ed73314	0.42031157
46	0x3f3dfc66	0.74213254
47	0xbee52d83	-0.44761285
48	0xbeed5497	-0.463536
49	0xbd6e1fe6	-0.05813589
50	0xbd32a304	-0.043612495
51	0x3f94cf82	1.1625826
52	0xbee4e881	-0.44708636
53	0x3e6ab6bb	0.22921269
54	0xbbefec4b	-0.0073218695
55	0xbeda0144	-0.4257909
56	0xbef3f52c	-0.4764799
57	0x3fada643	1.3566364
58	0xbf3a560d	-0.72787553
59	0x3f2778b8	0.6541858
60	0x3db60860	0.08888316
61	0x3f55734e	0.83379066
62	0xbe6e0ee7	-0.23247872
63	0x3e43979f	0.19100808
64	0xbf8e2fc8	-1.1108332
65	0x3f7c3d8e	0.98531425
66	0x3edd1eec	0.43187654
67	0x3e634e9d	0.22197957
68	0x3fb042ba	1.3770363
69	0x3f1bb7da	0.6082741
70	0xbe027de7	-0.1274334
71	0xbf3a72aa	-0.72831213
72	0x3e86b8e4	0.26312935
73	0xbe384025	-0.17993219
74	0x3f53965b	0.826513
75	0xbfbc025e	-1.4688222
76	0xbf78c452	-0.9717456
77	0xbf51e7d6	-0.8199438
78	0x3dd962dd	0.1061456
79	0x3e21228c	0.15735835
80	0xbfdfc308	-1.7481394
81	0x3f16ec25	0.5895408
82	0xbf138149	-0.5761915
83	0xbee9de41	-0.4567738
84	0xbeb9b0b6	-0.36267632
85	0xbeaa3e9f	-0.332509
86	0xbf119b86	-0.56877935
87	0xbfa98983	-1.324509
88	0x3fa45bb6	1.2840488
89	0x3c29c0cf	0.010360911
90	0x3fc88e42	1.5668414
91	0x3f0c67c0	0.5484581
92	0x3e929b85	0.28634277
93	0xbf1bdd16	-0.60884225
94	0xbe5b2f48	-0.21404755
95	0xbf704b7d	-0.93865186
96	0x3b41d7da	0.002957812
97	0xbe17e3eb	-0.14833038
98	0xbecd1d59	-0.40061453
99	0x3e41a744	0.18911463
100	0xbd3c6311	-0.045992915
101	0xbf71c0dd	-0.9443491
102	0xbdc665a5	-0.09687356
103	0xbf3398bd	-0.70154935
104	0x3f498b84	0.7872851
105	0xbf00c02b	-0.50293225
106	0x3e6b7c76	0.22996697
107	0x3e4ea1ee	0.20178959
108	0xbf3b56c6	-0.7317928
109	0xbfcffd8d	-1.6249253
110	0xbf2ba10e	-0.67042625
111	0xbf1361e2	-0.5757123
112	0x3f6e4a96	0.9308256
113	0xbf3aec2c	-0.7301662
114	0xbe8046f3	-0.2505413
115	0xbec71ae9	-0.38887718
116	0x3c0b1ea5	0.008491193
117	0x3db092e2	0.08621766
118	0xbee43d89	-0.44578198
119	0x3f90bff1	1.1308576
120	0xbe9cd99b	-0.3063477
121	0x3f385da1	0.72017866
122	0x3f1b3cb3	0.60639495
123	0xbf1e8eec	-0.6193683
124	0x3f112948	0.56703615
125	0x3ea86377	0.32888386
126	0x3f076938	0.52894926
127	0xbfe762d4	-1.8077035
128	0x3f0576dd	0.52134496
129	0xbe0c5dbf	-0.13707636
130	0xbf57376d	-0.8406895
131	0x3e88430b	0.2661365
132	0x3f2cfda1	0.67574507
133	0x3f00ac17	0.5026259
134	0xbed6d0f4	-0.41956294
135	0x3f9445fb	1.1583856
136	0xbf513906	-0.81727636
137	0x3fc08660	1.5041008
138	0xbf9425f1	-1.1574079
139	0xbfd7e8cf	-1.6867923
140	0x3ea22922	0.31672007
141	0x3e21ad72	0.1578882
142	0x3e9b5a9c	0.30342567
143	0xbea75a49	-0.3268607
144	0x3f91be4e	1.1386201
145	0xbf6103ca	-0.87896407
146	0xbf553ac7	-0.8329281
147	0x3f0fbd9a	0.56148684
148	0x3e26ff38	0.16308296
149	0x3e081cff	0.13292311
150	0x3ece646b	0.40310988
151	0xbee842fc	-0.45363605
152	0xbfee7505	-1.8629462
153	0xbf6a8ab7	-0.9161791
154	0xbf5c8ffb	-0.86157197
155	0xbf2c885e	-0.6739558
156	0xbf80b99c	-1.0056643
157	0xbfeaf500	-1.8356018
158	0x3f13f75b	0.5779931
159	0x3f861994	1.0476556
160	0xbefced5b	-0.49399838
161	0x3e9f380d	0.3109745
162	0xbfeb8aed	-1.8401772
163	0xc0397232	-2.897595
164	0xc00005c9	-2.000353
165	0x3eaf1896	0.34198445
166	0x3f08e746	0.53477895
167	0xbfbb1e95	-1.4618708
168	0x3e4cbd20	0.1999402
169	0x3e1e70ec	0.15472764
170	0xbefc764e	-0.4930901
171	0x3faaab2e	1.333349
172	0xbd354783	-0.044257652
173	0x3f9a5942	1.2058489
174	0xbf7e4b4a	-0.9933363
175	0xbf0b5bd2	-0.5443698
176	0x3f88be4a	1.0683072
177	0x3f1fda6b	0.62442654
178	0xbf79a42a	-0.9751612
179	0x3fcc9164	1.598187
180	0xbe3df264	-0.18549496
181	0x3ed0c66a	0.40776378
182	0x3f0dd301	0.5540009
183	0xbf37f26b	-0.71854275
184	0x3f6b14fe	0.91828907
185	0x3d95b99d	0.073107935
186	0xbdab96e2	-0.08378388
187	0x3f943e69	1.1581546
188	0xbf1c018a	-0.6093985
189	0x3e89b81e	0.26898283
190	0x3f50c769	0.81554276
191	0xbea77e3c	-0.32713497
192	0x3f693e00	0.9111023
193	0xbef9efe1	-0.48815826
194	0x3f928a31	1.1448423
195	0x3e63b289	0.22236075
196	0xbf225517	-0.63411087
197	0x3fb5095a	1.4143479
198	0xbfbc4997	-1.4709958
199	0x3f1a4591	0.602624
200	0xbfc2a2bd	-1.5205914
201	0x3f22b19e	0.6355227
202	0x3e4bd64a	0.19905964
203	0x3f3bad4f	0.7331132
204	0x3f1b190f	0.6058511
205	0xbe96e8b5	-0.29474416
206	0xbfaaf7c9	-1.3356868
207	0x3ff993e3	1.9498256
208	0x3e6eaedc	0.23308891
209	0x3dfbc248	0.122929156
210	0xbe872040	-0.26391792
211	0x400a453f	2.1604764
212	0x3f005f45	0.5014537
213	0xbf69d1f0	-0.91335964
214	0x3f029bd5	0.5101903
215	0x3e8797af	0.26482913
216	0x3f254eac	0.6457317
217	0xbe80b9ed	-0.2514185
218	0xbd821ff8	-0.06353754
219	0xbe74caa4	-0.23905426
220	0x3ec03cf5	0.37546507
221	0xbf9e6a62	-1.2376215
222	0x3f985fe0	1.1904259
223	0x3f42b2ff	0.76054376
224	0x3eee6f20	0.46569157
225	0xbf5bf684	-0.8592303
226	0xbf54c799	-0.8311706
227	0xbf846935	-1.0344607
228	0xbd8b53a6	-0.06803064
229	0xbf39b5d7	-0.7254309
230	0xbfae7e48	-1.3632288
231	0x3f306cd2	0.68916047
232	0xbf8c3c72	-1.0955946
233	0x3f50a09a	0.8149506
234	0xbec0cae9	-0.37654808
235	0xbfa3db07	-1.2801217
236	0x3e8d7e93	0.2763563
237	0x3f03cc89	0.5148397
238	0x3e2d68d0	0.16934514
239	0xbf2e58bc	-0.6810415
240	0xbe9cb47e	-0.30606455
241	0xbecee543	-0.40409288
242	0x3f26fa48	0.6522565
243	0x3f9107fe	1.1330564
244	0xbf9cad9a	-1.2240479
245	0x3e9e7951	0.30951932
246	0x3fd72c4f	1.6810397
247	0xbe96998e	-0.29414028
248	0x3ed66e9d	0.41881266
249	0xbf7baf8e	-0.9831475
250	0x3efd81fc	0.49513233
251	0x3f1ef80b	0.62097234
252	0xbf187cb7	-0.595653
253	0xbf0db9fb	-0.5536191
254	0x3e77e73a	0.242093
255	0x3f0b17e1	0.5433331

fc3.bias f4 [2]
0	0x3cb73f5b	0.022369077
1	0x3de846b9	0.11341614

bn1.weight f4 [256]
0	0x3f7266bc	0.9468801
1	0x3f7103bc	0.94146323
2	0x3f3be9a2	0.7340337
3	0x3f9e63ef	1.2374247
4	0x3fb9acc3	1.4505848
5	0x3f877cf9	1.0585014
6	0x3f8ae801	1.0852052
7	0x3f503696	0.8133329
8	0x3f83ca43	1.02961
9	0x3f31aebf	0.69407266
10	0x3f9117e9	1.1335422
11	0x3f5fa36e	0.8735875
12	0x3f226c47	0.6344647
13	0x3f797939	0.97450596
14	0x3f8cf829	1.1013232
15	0x3f974668	1.1818361
16	0x3f406140	0.7514839
17	0x3e91a69f	0.28447434
18	0x3f52d038	0.82348967
19	0x3f5db6a3	0.86606807
20	0x3e1af14e	0.15131113
21	0x3fc9082d	1.570562
22	0x3f45d32d	0.77275354
23	0x3f56cc37	0.8390536
24	0x3e844f52	0.25841767
25	0x3f36d4fa	0.71418726
26	0x3f2355b9	0.6380268
27	0x3eca3f90	0.3950162
28	0x3f1f9ea5	0.6235145
29	0x3fb0d0ad	1.3813683
30	0x3f42b020	0.76049995
31	0x3f9753ec	1.1822486
32	0x3f22aaaa	0.6354166
33	0x3f60bfde	0.87792766
34	0x3ec26a79	0.37971857
35	0x3f4e8ce7	0.8068375
36	0x3f0a50d6	0.54029596
37	0x3f80aebd	1.0053326
38	0x3fabc440	1.3419266
39	0x3f7521c4	0.9575465
40	0x400074aa	2.0071206
41	0x3f1734cc	0.59064937
42	0x3f80a9c1	1.0051805
43	0x3f8ba9b4	1.0911164
44	0x3f5a72e3	0.85331553
45	0x3f03b008	0.5144048
46	0x3ea39e57	0.3195674
47	0x3f369614	0.7132275
48	0x3fa8bf9e	1.3183477
49	0x3fb06169	1.3779727
50	0x3f56b52d	0.838702
51	0x3f0be6a3	0.546488
52	0x3f782abf	0.96940225
53	0x3f4b9928	0.7953057
54	0x3f658be5	0.8966659
55	0x3ec88818	0.3916633
56	0x3f6cae03	0.9245302
57	0x3f90cbab	1.1312155
58	0x3f1fd424	0.62433076
59	0x3f9a0776	1.2033527
60	0x3f31c518	0.69441366
61	0x3f8c1581	1.0944062
62	0x3f5201a5	0.8203376
63	0x3f889114	1.0669274
64	0x3f5ddf29	0.8666864
65	0x3f88fb81	1.0701753
66	0x3fade380	1.3585052
67	0x3f9dcb20	1.2327614
68	0x3ef8f6a2	0.48625666
69	0x3f7d5928	0.98964167
70	0x3eed37f2	0.46331745
71	0x3f43e6f2	0.7652427
72	0x3f256164	0.6460173
73	0x3f41449e	0.75495327
74	0x3f938d9a	1.1527588
75	0x3f89fbd0	1.0779972
76	0x3f627f46	0.88475454
77	0x3f2dd0b5	0.67896587
78	0x3f21c968	0.63197947
79	0x3f217aad	0.63077813
80	0x3fa9dfda	1.3271439
81	0x3f2c61b3	0.6733658
82	0x3f8ed9f6	1.1160266
83	0x3ef37890	0.4755292
84	0x3f1c9fc9	0.6118131
85	0x3f798455	0.9746755
86	0x3f6f9ee2	0.9360181
87	0x3ee7651c	0.45194328
88	0x3f766178	0.96242476
89	0x3f9b4d14	1.2132897
90	0x3f866934	1.0500855
91	0x3fb39722	1.4030497
92	0x3f8ec87c	1.1154933
93	0x3f21c0c8	0.63184786
94	0x3f490359	0.78520733
95	0x3ecb1ee7	0.39672014
96	0x3f86d9c8	1.0535212
97	0x3efb9daf	0.4914374
98	0x3f2ded17	0.67939895
99	0x3f8a30be	1.0796125
100	0x3f4c6368	0.7983918
101	0x3fae8971	1.3635694
102	0x3f6c8516	0.92390573
103	0x3f163c05	0.5868533
104	0x400e72b0	2.22575
105	0x3ebd7b7d	0.37008277
106	0x3ef7b817	0.48382637
107	0x3eab63ed	0.33474675
108	0x3f26e6fb	0.651962
109	0x3f60c173	0.8779518
110	0x3f1516d7	0.58237976
111	0x3f3bd533	0.7337219
112	0x3f3d4806	0.73938024
113	0x3fa9ea18	1.3274565
114	0x3f242d6a	0.64131796
115	0x3f5e825f	0.8691768
116	0x3fc3ce45	1.5297323
117	0x3f80fb2d	1.0076653
118	0x3f39659d	0.72420675
119	0x3f2d7c13	0.6776745
120	0x3f596ad9	0.8492866
121	0x3f3ee891	0.7457362
122	0x3f3119e2	0.6918012
123	0x3fde5c55	1.7371927
124	0x3edcd61c	0.43132102
125	0x3f30fd44	0.6913645
126	0x3ef8a933	0.4856659
127	0x3ef6a217	0.4817054
128	0x3f2e5995	0.6810544
129	0x3f1f9b24	0.623461
130	0x3f6164b5	0.8804429
131	0x3f70808c	0.93946147
132	0x3f6e4ffa	0.93090785
133	0x3f9ffd6d	1.2499214
134	0x3fcc2f5f	1.5951957
135	0x3f13ea6f	0.5777959
136	0x3f218ee1	0.6310864
137	0x3f3a9019	0.72876126
138	0x3eaa2115	0.33228365
139	0x3f549b70	0.8304968
140	0x3f6ede42	0.9330789
141	0x3f83af62	1.0287898
142	0x3f8a8d5d	1.0824391
143	0x3f7eafe4	0.9948714
144	0x3eeeed86	0.4666559
145	0x3f86d8a9	1.053487
146	0x3f7672df	0.9626903
147	0x3ed745a7	0.42045328
148	0x3f74a58a	0.9556509
149	0x3e3fa62d	0.18715735
150	0x3eedf330	0.464746
151	0x3f289325	0.65849525
152	0x3fa732da	1.3062394
153	0x3f6d1058	0.92603064
154	0x3f1d1c22	0.6137105
155	0x3f3430ad	0.70386773
156	0x3e921dcf	0.28538367
157	0x3f1eb57d	0.6199568
158	0x3fcff9fa	1.6248162
159	0x3f7d5672	0.9896003
160	0x3fb0ff54	1.382792
161	0x3f6d8960	0.9278774
162	0x3f87fd12	1.0624106
163	0x3fc7f988	1.5623026
164	0x3f81c55f	1.0138358
165	0x3e8eb7e6	0.27874678
166	0x3f197c3d	0.599552
167	0x3ceabd68	0.028654769
168	0x3fac2b86	1.3450782
169	0x3fa19cda	1.2625992
170	0xbeb66a30	-0.3562789
171	0x3eabe939	0.33576372
172	0x3f60bbe6	0.8778671
173	0x3f95e6d6	1.171107
174	0x3f3bfd49	0.7343336
175	0x40103624	2.2533045
176	0x3f2d973e	0.678089
177	0x3f587d02	0.84565747
178	0x3f872bb4	1.0560212
179	0x3f8056d6	1.00265
180	0x3f2a00a3	0.6640722
181	0x3f2f50fc	0.6848295
182	0x3f5156cd	0.8177307
183	0x3f431f8b	0.76220006
184	0x3f32e70d	0.69883806
185	0x3e18ebfd	0.14933772
186	0x3efd7d2a	0.49509555
187	0x3ecc31e6	0.3988182
188	0x3ec607b6	0.38677758
189	0x3f67b6e2	0.9051343
190	0x3f3bf216	0.7341627
191	0x3f602ed8	0.8757148
192	0x3e86ae3f	0.26304814
193	0x3ebf593e	0.37372774
194	0x3f29e18a	0.6635977
195	0x3f5778d3	0.8416874
196	0x3fa73b9b	1.3065065
197	0x3f53fbb3	0.8280594
198	0x3f34d044	0.7063029
199	0x3f998ff5	1.1997057
200	0x3f4ff0b2	0.81226647
201	0x3f9b8cab	1.2152303
202	0x3fb1374d	1.3845001
203	0x3f027072	0.5095283
204	0x3f0244bb	0.50886124
205	0x3f36123b	0.7112157
206	0x3f9675cb	1.1754698
207	0x3f018356	0.5059103
208	0x3f291189	0.6604238
209	0x3ef540c9	0.4790099
210	0x3f2069f1	0.62661654
211	0x3f99ec6e	1.2025278
212	0x3f2d064a	0.6758772
213	0x3f35117b	0.707298
214	0x3f0234d4	0.5086186
215	0x3f8691db	1.0513262
216	0x3f170975	0.58998805
217	0x3f79ea46	0.976231
218	0x3f0c4e9f	0.54807466
219	0xbe15d961	-0.14633705
220	0x3f38f1fd	0.72244245
221	0x3f2a7065	0.6657775
222	0x3faaada9	1.3334247
223	0x3f8139b2	1.0095732
224	0x3f356cb4	0.7086899
225	0x3f1b75c5	0.6072658
226	0x3eb3008a	0.3496135
227	0x3f29ba5f	0.66300005
228	0x3f41bef1	0.7568198
229	0x3ec8ca49	0.3921683
230	0x3f7c23c0	0.9849205
231	0x3f827b26	1.0193832
232	0x3fe39f6c	1.7783027
233	0x3f669220	0.9006672
234	0x3efbffb0	0.49218512
235	0x3fd4d1c8	1.662652
236	0x3f528282	0.8223039
237	0x3f0f1ada	0.5590035
238	0x3f55ef81	0.8356858
239	0x3f83cd2e	1.0296991
240	0x3f14315b	0.5788781
241	0x3f403af8	0.7508998
242	0x3f0cd41f	0.5501117
243	0x3f27667d	0.6539076
244	0x3f51bef5	0.81932
245	0x3f1d8f6f	0.6154699
246	0x3f350fab	0.7072703
247	0x3f104ea8	0.5637002
248	0x3c13d7be	0.009023605
249	0x3f4860d8	0.7827277
250	0x3f5f9f3c	0.8735235
251	0x3e9ce23b	0.3064135
252	0x3fd631d5	1.6733958
253	0x3f34085b	0.7032525
254	0x3efaf6dc	0.49016464
255	0x3f2eeb05	0.6832736

bn1.bias f4 [256]
0	0x3ea81eee	0.32836097
1	0x3dc36c63	0.095421575
2	0x3e89f2ff	0.26943204
3	0x3ea3bc0d	0.3197941
4	0x3e7121d6	0.23548064
5	0x3e4f69cd	0.20255204
6	0x3eedc924	0.4644252
7	0x3bd21bed	0.0064120204
8	0x3ea9e617	0.33183357
9	0x3f71654d	0.942952
10	0xbc8cbafe	-0.017179009
11	0x3ddc289c	0.10749933
12	0x3e1866e8	0.14883006
13	0x3f1835bd	0.59457
14	0x3d1a6690	0.037695467
15	0x3e316cf0	0.17326713
16	0xbe85cc55	-0.26132455
17	0x3e9bdc0d	0.30441323
18	0xbe9a2995	-0.3010985
19	0x3e1f5361	0.1555915
20	0xbf09a9dd	-0.53774816
21	0x3e8fb9d2	0.28071457
22	0x3f810790	1.0080433
23	0x3df483c8	0.11939198
24	0x3cdc1e98	0.026870057
25	0x3d62c397	0.05536231
26	0x3ebafa44	0.36519063
27	0xbcd976f3	-0.026545977
28	0x3e627937	0.22116552
29	0x3e1405e5	0.14455374
30	0xbdcc332d	-0.099706985
31	0xbe5cf9ea	-0.2157971
32	0x3e820c6a	0.25400096
33	0x3e31661d	0.1732411
34	0x3e44b288	0.1920873
35	0x3e66ddde	0.22545573
36	0x3e5c960e	0.21541616
37	0x3d3e34c2	0.046437033
38	0x3f11997e	0.56874835
39	0x3e5775b9	0.21041001
40	0x3ee3fff8	0.44531226
41	0x3ebd88c5	0.3701841
42	0xbc515a37	-0.012777857
43	0x3e529c6f	0.20567487
44	0x3ef3e90e	0.47638744
45	0x3e9eb6e8	0.3099892
46	0x3eb7ed90	0.35923433
47	0x3b05ce47	0.002041714
48	0x3f14e4f9	0.58161885
49	0x3eade4e0	0.3396368
50	0x3e14ef77	0.14544474
51	0x3e878050	0.26465082
52	0x3ecdf0e1	0.4022284
53	0xbf152534	-0.5825989
54	0xbf14dd6e	-0.58150375
55	0x3de80327	0.11328726
56	0x3f0c49d5	0.5480016
57	0x3f005446	0.5012859
58	0x3e68aa84	0.22721297
59	0x3e47e09d	0.19519277
60	0x3e8ed26e	0.2789492
61	0x3ed391ba	0.41322118
62	0xbe068f53	-0.13140611
63	0xbee3e97d	-0.44514075
64	0x3dead2ea	0.1146601
65	0x3ef818a1	0.4845629
66	0xbe3088a8	-0.1723963
67	0x3ec7cc44	0.3902303
68	0x3cd56d6e	0.026053157
69	0x3dcc4e00	0.09975815
70	0xbe8ae3b7	-0.27126858
71	0x3f11c272	0.56937325
72	0x3ed8e313	0.42360744
73	0x3e27c919	0.16385306
74	0x3ecb6af8	0.39730048
75	0xbde204e3	-0.11036088
76	0x3dfa1452	0.12210907
77	0x3ebd49cd	0.36970368
78	0xbd0a38e1	-0.03374565
79	0xbeb604d9	-0.35550573
80	0x3ec44a1d	0.38337794
81	0xbd305ed0	-0.04305917
82	0xbe888052	-0.266604
83	0xbe04be2e	-0.12963173
84	0x3f278b9d	0.6544741
85	0x3e75683f	0.23965548
86	0x3ed75ab9	0.42061403
87	0x3e86af44	0.26305592
88	0x3eeddeda	0.46459085
89	0x3e3cb7f6	0.1842955
90	0x3eaa103f	0.3321552
91	0xbf1167af	-0.56798834
92	0x3f0b791e	0.54481685
93	0xbe7a16ac	-0.24422711
94	0x3d9126f6	0.07087509
95	0xbbd2e61b	-0.006436122
96	0x3f3e9034	0.74438787
97	0xbbcb2d72	-0.006200486
98	0x3f30bab1	0.6903487
99	0x3d5a4ac9	0.053293977
100	0x3f2f1cfd	0.6840361
101	0xbdcd41c4	-0.100223094
102	0x3cd9793d	0.026547069
103	0x3f364b51	0.71208674
104	0x3e3e42f6	0.18580231
105	0x3ec52bdc	0.38510025
106	0xbe8ce061	-0.27514938
107	0xbd45cb7b	-0.048289757
108	0x3bbd61e3	0.0057794913
109	0x3d854c76	0.065087244
110	0xbe38bf8e	-0.18041822
111	0x3d405200	0.0469532
112	0xbe38b393	-0.18037252
113	0x3e0789f2	0.13236216
114	0x3eafc0d7	0.34326813
115	0xbe20ef97	-0.15716396
116	0x3e65b557	0.22432457
117	0x3f13c2db	0.577192
118	0x3eef280d	0.46710244
119	0x3e41c0e7	0.18921243
120	0x3e515c46	0.20445356
121	0x3ef03c16	0.46920842
122	0xbe99198f	-0.29902312
123	0x3e9b24fb	0.3030165
124	0x3dac7074	0.08419886
125	0x3e11681d	0.14199872
126	0x3e3c0717	0.1836208
127	0x3dc95d2a	0.09832223
128	0x3dd1bd05	0.10241131
129	0x3e5084c0	0.2036314
130	0x3eb72c71	0.35776094
131	0x3ec8a945	0.39191642
132	0x3d8c0803	0.068374656
133	0x3eb8db65	0.36104885
134	0x3f167bb4	0.58782506
135	0x3e2f4bbf	0.17118739
136	0x3f0c1ae1	0.54728514
137	0xbc065380	-0.008198619
138	0x3e50e016	0.20397982
139	0x3bb77319	0.0055984375
140	0x3e63188a	0.2217733
141	0xbe38abb2	-0.18034247
142	0xbdda36b5	-0.10654966
143	0x3e84aba2	0.25912195
144	0x3e63e9b5	0.22257121
145	0x3ed5b88b	0.41742358
146	0x3f65bf55	0.89745075
147	0x3e36b880	0.17843819
148	0xbe14e885	-0.14541824
149	0xbdf8aed6	-0.12142722
150	0x3d824edb	0.06362697
151	0xbb5c94e1	-0.0033658075
152	0x3eed4d67	0.46348116
153	0xbbda36ab	-0.006659349
154	0xbd0899e8	-0.0333499
155	0xbd9e9271	-0.07742775
156	0xbd9de054	-0.07708803
157	0x3e646780	0.22305107
158	0x3d416d14	0.047223166
159	0x3e8ef6f2	0.2792278
160	0x3de45168	0.111483395
161	0xbcce50bd	-0.025184983
162	0x3e0667e6	0.13125572
163	0x3d897413	0.067115925
164	0x3f27794d	0.65419465
165	0x3e2b4d9c	0.16728824
166	0xbd66f8a8	-0.05638948
167	0xbdcd6b22	-0.100301996
168	0xbcf05ec5	-0.029342065
169	0x3ed57843	0.41693315
170	0xbdac1b45	-0.08403639
171	0x3f05f58d	0.52327806
172	0x3e697cce	0.22801515
173	0x3ec3fc9e	0.3827867
174	0xbecb77ec	-0.3973993
175	0x3f04b146	0.51833
176	0x3e492fd8	0.19647157
177	0x3e4e09f4	0.20120984
178	0x3eca632d	0.3952879
179	0x3dbf576f	0.093428485
180	0xbe8fde70	-0.28099394
181	0x3c6533c0	0.013989389
182	0xbe3c784e	-0.18405268
183	0xbef40184	-0.47657406
184	0x3f2a10cd	0.66431886
185	0x3d5a9947	0.053368833
186	0x3e5f0669	0.21779789
187	0xbe1b3f89	-0.15160955
188	0xbd088266	-0.033327483
189	0x3e9cab2c	0.30599344
190	0x3ece0a92	0.4024244
191	0xbec52e95	-0.38512102
192	0xbcad7244	-0.02117265
193	0xbc8971e5	-0.016777942
194	0x3ea48cda	0.3213871
195	0x3e002240	0.12513065
196	0x3f20a2fd	0.627487
197	0x3ee46847	0.44610807
198	0x3d9ada6e	0.075611934
199	0x3f3a6a75	0.7281869
200	0x3e872b70	0.26400328
201	0x3dc8a704	0.09797481
202	0x3f5622fe	0.83647144
203	0x3e329d54	0.17442828
204	0x3dab8eda	0.08376856
205	0xbd9df3fe	-0.077125534
206	0xbea369cc	-0.31916654
207	0x3ed7b97b	0.42133698
208	0x3dcaa749	0.09895188
209	0x3db4d008	0.08828741
210	0xbd84ddf0	-0.06487644
211	0x3f25145a	0.6448418
212	0xbe0c2a97	-0.13688122
213	0x3e90ce2a	0.2828229
214	0x3b941425	0.004519003
215	0x3e51b113	0.20477705
216	0x3f053a0f	0.52041715
217	0x3e8f3083	0.279667
218	0xbd17db57	-0.037074413
219	0xbe194d2c	-0.14970845
220	0x3e974bdc	0.29550064
221	0x3ea6c6fc	0.32573688
222	0x3ee7b9dd	0.4525899
223	0x3e9dae57	0.30797073
224	0x3ef3997f	0.47578046
225	0xbd4c232b	-0.049838226
226	0xbe75d269	-0.24006046
227	0xbdbc96f7	-0.09208482
228	0x3cca95cb	0.02472963
229	0x3f31e257	0.6948599
230	0x3f26b966	0.65126646
231	0x3dae76ed	0.08518777
232	0x3eb65ec8	0.35619187
233	0xbe6a49d2	-0.22879723
234	0x3e3654ea	0.1780583
235	0x3ed2233e	0.41042513
236	0x3ed90fe0	0.42394924
237	0x3f105e35	0.5639375
238	0x3dcd9f39	0.10040135
239	0x3edd71ec	0.43250978
240	0xbba74613	-0.005104789
241	0xbdb2618a	-0.0871001
242	0x3e5e06fb	0.2168235
243	0x3f20047d	0.6250685
244	0xbcbc9c71	-0.023023816
245	0x3ef4ba22	0.47798258
246	0xbe2eb389	-0.17060675
247	0xbe3c4edc	-0.18389457
248	0x3cacc69c	0.021090798
249	0x3e98f676	0.29875535
250	0x3ef23991	0.47309545
251	0x3e936836	0.28790444
252	0x3ec995b9	0.39372042
253	0xbed46eed	-0.4149088
254	0x3f17aaa7	0.5924477
255	0x3e1196b4	0.14217645

bn1.running_mean f4 [256]
0	0x3f7ba616	0.983003
1	0x3f4203fe	0.7578734
2	0x406bd2a5	3.6847317
3	0x3f5b796b	0.85732144
4	0x3fae10cd	1.3598877
5	0x3ecfdce0	0.40598202
6	0x403980e1	2.8984911
7	0x00000004	6e-45
8	0x3f765f1d	0.9623888
9	0x406bab37	3.6823251
10	0x403a2d8a	2.9090295
11	0x3e7c9b6e	0.24668667
12	0x3f7096ab	0.939799
13	0x402ad342	2.6691442
14	0x3935bb14	0.00017331197
15	0x3e3a330a	0.18183532
16	0x4036a13a	2.8535905
17	0x4057781e	3.3667064
18	0x3e6fe9de	0.23429057
19	0x3e340517	0.17580067
20	0x3f1f5225	0.6223472
21	0x40df05da	6.9694643
22	0x3db60de6	0.0888937
23	0x3e17edd5	0.1483682
24	0x3fcfb102	1.6225893
25	0x3fbb7f78	1.4648275
26	0x3d4972a2	0.049181588
27	0x3fb1b009	1.3881847
28	0x40c636b3	6.194177
29	0x40f5ce1f	7.6814113
30	0x3faa4b2f	1.3304194
31	0x414d6f7c	12.839718
32	0x3b237fa5	0.0024947908
33	0x3ad2c6e7	0.0016081006
34	0x3f987165	1.1909605
35	0x41ad1412	21.6348
36	0x4002a148	2.0410938
37	0x00000004	6e-45
38	0x4017b6df	2.3705366
39	0x3f88c562	1.0685236
40	0x4083289b	4.0987067
41	0x3aa05e32	0.0012235104
42	0x00000004	6e-45
43	0x40155cea	2.333796
44	0x404125fd	3.0179436
45	0x403533d1	2.8312876
46	0x417b204d	15.695386
47	0x3ed72b76	0.42025346
48	0x3f9cfa96	1.2263973
49	0x3fd446c9	1.6584102
50	0x3f4e9750	0.80699635
51	0x3f594fbe	0.848873
52	0x3f63d4ef	0.88996786
53	0x4083efcb	4.1230216
54	0x3e346128	0.17615187
55	0x4045720c	3.0850859
56	0x3fd6412b	1.6738638
57	0x3e2b25fc	0.16713709
58	0x3edc0588	0.4297297
59	0x3db4ffb1	0.08837832
60	0x414e2268	12.8834
61	0x400839dc	2.1285315
62	0x4040eea5	3.0145657
63	0x3cd59de9	0.026076274
64	0x3f60bcdb	0.8778817
65	0x404e644f	3.2248724
66	0x404cc63e	3.1995997
67	0x3fb0d385	1.3814551
68	0x369e52a1	4.718386e-06
69	0x40106cb9	2.256636
70	0x3fa1c90f	1.2639483
71	0x3ee6bcd1	0.4506593
72	0x40fbb024	7.8652515
73	0x3e501e2b	0.20324008
74	0x3d747b8b	0.059688132
75	0x3eb8b6ae	0.36076874
76	0x400fffc9	2.249987
77	0x32653e96	1.3343785e-08
78	0x3fd5c39e	1.6700323
79	0x3ee8daa9	0.45479324
80	0x3e60868c	0.21926326
81	0x3a6bb2de	0.0008991192
82	0x3ff02198	1.8760252
83	0x3fc9e258	1.57722
84	0x3db1744c	0.0866476
85	0x3f116676	0.5679697
86	0x3c1e380c	0.009656917
87	0x3f900b00	1.1253357
88	0x40b2df7e	5.5897818
89	0x3e9af264	0.30263054
90	0x3f8f08e8	1.1174593
91	0x40425dad	3.0369675
92	0x3ef3e2e5	0.47634044
93	0x3f1d8500	0.61531067
94	0x40a7d7fe	5.245116
95	0x00000004	6e-45
96	0x4067d59f	3.6224134
97	0x2f0868ad	1.2406316e-10
98	0x3e344032	0.17602614
99	0x3a8986a0	0.0010492392
100	0x40ac0a93	5.376291
101	0x3f4a2b5e	0.78972423
102	0x400ae43f	2.170181
103	0x40171ebe	2.3612514
104	0x402254a3	2.5364158
105	0x40ff7b62	7.9838114
106	0x40d97ccc	6.796484
107	0x39e0c63c	0.00042872305
108	0x00000004	6e-45
109	0x3e5a4800	0.21316528
110	0x00000004	6e-45
111	0x3a88ae97	0.0010428008
112	0x3eb02510	0.34403276
113	0x411f49db	9.955531
114	0x3f029965	0.5101531
115	0x3ebf0577	0.37308857
116	0x40414131	3.019604
117	0x3d685c08	0.056728393
118	0x3abfdc5e	0.0014637818
119	0x3c3009a6	0.010744488
120	0x40eaab0c	7.3333797
121	0x3f97d3b2	1.1861479
122	0x249527a4	6.4685603e-17
123	0x408b7ee0	4.3592377
124	0x3fcd0b7a	1.6019127
125	0x401b09be	2.4224696
126	0x40d96a3a	6.794217
127	0x3f810af4	1.0081468
128	0x3e5fa4f7	0.21840273
129	0x401dc61b	2.4652164
130	0x3ffdb556	1.9820964
131	0x40b909a4	5.782427
132	0x3ecbf6b7	0.39836666
133	0x3f351809	0.707398
134	0x40446483	3.0686347
135	0x3e40a7fd	0.18814082
136	0x3ff8905a	1.9419053
137	0x40b83846	5.7568693
138	0x40bc3382	5.8812876
139	0x3d913b8e	0.07091437
140	0x3f5da900	0.86586
141	0x3fadb213	1.3569969
142	0x3d9e8995	0.077410854
143	0x3e39101a	0.18072549
144	0x40d8cedb	6.775251
145	0x3d94cf82	0.072661415
146	0x411cfad3	9.811236
147	0x40f378c3	7.6084914
148	0x415cc2be	13.7975445
149	0x4104483a	8.267633
150	0x3edc50fc	0.43030536
151	0x00000004	6e-45
152	0x3f886664	1.0656247
153	0x2f52ac3a	1.9160576e-10
154	0x40f0789c	7.514723
155	0x3f0358b9	0.51307255
156	0x3fc22df8	1.5170279
157	0x41076332	8.461718
158	0x3ea57942	0.32319075
159	0x3fa79c25	1.3094527
160	0x3e206bc4	0.1566611
161	0x3d9ea3a0	0.07746053
162	0x3f9d34cd	1.2281739
163	0x3f31c562	0.6944181
164	0x3f79c81c	0.9757097
165	0x41797c9a	15.59292
166	0x3d1cb64c	0.03825979
167	0x3f058788	0.5215993
168	0x3b0ee1f1	0.0021802152
169	0x3f632607	0.887299
170	0x40022f74	2.0341463
171	0x00000004	6e-45
172	0x3fc277f1	1.5192853
173	0x4080e0bb	4.027433
174	0x4037065b	2.859763
175	0x40a346f6	5.102412
176	0x3fcf9651	1.6217748
177	0x00000004	6e-45
178	0x3fe1aedb	1.7631487
179	0x4057d451	3.3723338
180	0x3ea11420	0.31460667
181	0x3c90013c	0.017578714
182	0x00000004	6e-45
183	0x2ea793a7	7.620509e-11
184	0x3dbe7a43	0.09300663
185	0x3f89a1e0	1.0752525
186	0x3e4c86a6	0.1997324
187	0x419b0de2	19.381779
188	0x413050e6	11.019751
189	0x3fa84f11	1.3149129
190	0x3b396917	0.0028291398
191	0x407432a1	3.8155901
192	0x2fdb30c0	3.9870507e-10
193	0x40fa8e20	7.8298492
194	0x403e5c3d	2.9743798
195	0x3d8aceac	0.06777701
196	0x408a0ee9	4.31432
197	0x3ea6fd25	0.3261501
198	0x3dc42b26	0.095785424
199	0x3e83bdfe	0.2573089
200	0x400a4be5	2.1608822
201	0x35204f55	5.972009e-07
202	0x3fa667ae	1.300039
203	0x4003aff3	2.057614
204	0x409c1af4	4.87829
205	0x00000004	6e-45
206	0x3fa919aa	1.3210957
207	0x405582a8	3.3360996
208	0x3ede56f1	0.43425706
209	0x3fe6d2a9	1.8033038
210	0x3e9648d6	0.29352444
211	0x40184bf9	2.379637
212	0x41a7cb1c	20.974174
213	0x3e18a59a	0.14906922
214	0x3de38b97	0.11110609
215	0x415ce56e	13.806013
216	0x3f245109	0.6418615
217	0x00000004	6e-45
218	0x416241b4	14.141041
219	0x3fdd44a5	1.7286574
220	0x3b9b61cf	0.0047418843
221	0x409c648b	4.8872733
222	0x412022dd	10.008512
223	0x3e05bd3d	0.1306047
224	0x40271a99	2.6109984
225	0x3e1fb956	0.15598044
226	0x404d59a9	3.2085974
227	0x4029b914	2.6519213
228	0x3fe1a16a	1.7627385
229	0x2ef4008a	1.1095931e-10
230	0x40b3725b	5.6077094
231	0x3bff10e8	0.007783998
232	0x40394856	2.89504
233	0x3f93abbf	1.1536788
234	0x3ff9e4d8	1.9522963
235	0x406ef52e	3.7337146
236	0x3f90d21f	1.1314124
237	0x4177ec13	15.495135
238	0x3f333c16	0.7001356
239	0x3f3a371b	0.72740334
240	0x00000004	6e-45
241	0x3fad05b3	1.3517364
242	0x3ecd3874	0.40082133
243	0x40cc2cc4	6.3804646
244	0x3a9bcdb9	0.0011886872
245	0x401f816a	2.4922738
246	0x403b4712	2.9262128
247	0x3c035664	0.008016203
248	0x419ac139	19.344347
249	0x3ef66f1d	0.48131648
250	0x4055a4eb	3.3381908
251	0x00000004	6e-45
252	0x4031bf42	2.7772985
253	0x401b3c96	2.4255729
254	0x3f71353e	0.94221866
255	0x3d1d28bc	0.038368925
