checkpoint_critic_2021-06-21_01-42-19.pth (torch_old, 190102 bytes, 9 tensors)

fcs1.weight f4 [256, 48]
0	0x3eaed0b4	0.34143603
1	0x3f24859a	0.6426636
2	0x3d7cf0e0	0.061753154
3	0xbea2abaf	-0.3177161
4	0x3e421ba1	0.18955852
5	0xbf0a3202	-0.53982556
6	0x3c8a842d	0.01690873
7	0xbec8db0d	-0.39229622
8	0x3e059cf8	0.1304816
9	0xbe403276	-0.1876925
10	0x3d6e5b31	0.058192436
11	0xbf1b0b24	-0.60563874
12	0x3e961dcb	0.29319605
13	0x3efea8d9	0.49738196
14	0x3dc51a83	0.09624197
15	0xbf0db45f	-0.5535335
16	0xbda87083	-0.08224585
17	0xbf30c557	-0.69051117
18	0xbe510ca8	-0.20414984
19	0x3da0d643	0.07853367
20	0x3e82b929	0.2553189
21	0x3fc67e4c	1.5507293
22	0xbe819d6c	-0.25315416
23	0x3e1a2b67	0.15055619
24	0x3efca766	0.49346465
25	0xbf7e4a78	-0.9933238
26	0xbdad6d52	-0.08468117
27	0xbd74cd3e	-0.059766047
28	0xbe822549	-0.2541907
29	0xbefb9ec9	-0.4914458
30	0xbdaa2c95	-0.083092846
31	0xbc17a446	-0.009255474
32	0x3ed151d2	0.40882736
33	0xbf96e1f9	-1.1787711
34	0xbd2e4f50	-0.042556107
35	0x3e7de3cd	0.2479393
36	0xbecdaf01	-0.4017258
37	0x3ed63ab4	0.41841662
38	0xbdf15a88	-0.117848456
39	0x3e02eeae	0.12786362
40	0x3e9ee88e	0.310368
41	0xbfaf3e90	-1.3690968
42	0xbe284e05	-0.16436012
43	0xbe363b50	-0.17796063
44	0xbe83817f	-0.25684735
45	0x3fceeb5c	1.6165576
46	0xbe53c994	-0.20682365
47	0xbe26ea0d	-0.16300221
48	0x3e849620	0.25895786
49	0x3e66b259	0.22528972
50	0x3d3bd385	0.045856018
51	0x3f03e8e3	0.5152723
52	0xbea88157	-0.32911178
53	0x3dfe7a0e	0.12425624
54	0x3d8e382c	0.06944308
55	0x3ef162fe	0.47145838
56	0x3e6e1595	0.2325042
57	0x3e3fb7f3	0.18722515
58	0x3e0551cd	0.13019486
59	0x3d292dd0	0.041303456
60	0xbdd5a110	-0.10431111
61	0xbdad7a37	-0.08470576
62	0x3d85338b	0.06503972
63	0x3e1b13ac	0.15144223
64	0x3e168dab	0.1470248
65	0x3f1bb6e3	0.6082594
66	0xbe6f81f5	-0.23389418
67	0x3fc39b5b	1.5281786
68	0xbe4e7b10	-0.20164132
69	0xbeee391c	-0.46527946
70	0xbe5f890a	-0.2182962
71	0x3fb61b9b	1.4227175
72	0x3d9f9e21	0.077938326
73	0x3f8445ef	1.0333842
74	0xbd326e54	-0.04356225
75	0x3e22ba22	0.15891317
76	0x3e965a0c	0.29365575
77	0x3da20b57	0.07912319
78	0xbd79850a	-0.06091789
79	0x3dc93d2d	0.098261215
80	0x3ee103da	0.4394825
81	0x3f632d03	0.8874056
82	0xbe83e1b1	-0.25758126
83	0xbf0b7ba5	-0.5448554
84	0x3dd7c6dc	0.10535976
85	0xbd337463	-0.043812167
86	0xbe9790a7	-0.29602548
87	0xbf0f7f13	-0.56053275
88	0x3f8e9b1d	1.1141087
89	0x3e8c0408	0.27346826
90	0x3ef4c394	0.47805464
91	0xbe7f2e3c	-0.24919981
92	0x3e35af41	0.17742635
93	0xbee1c21c	-0.44093406
94	0x3efeb571	0.49747804
95	0xbe2b8bcd	-0.16752549
96	0x3e667742	0.22506431
97	0x3ea209ee	0.316482
98	0xbd2db454	-0.042408302
99	0xbd284e9b	-0.04109059
100	0xbd643281	-0.055712227
101	0xbf0b7280	-0.5447159
102	0xbd1a1902	-0.037621506
103	0x3b5e543b	0.0033924717
104	0x3ea7dee1	0.3278723
105	0x3ea70e97	0.3262832
106	0x3a1ce6fb	0.00059853465
107	0xbc950af2	-0.018193696
108	0x3bc452a1	0.0059912954
109	0xbf1340f3	-0.5752098
110	0xbd9538d9	-0.072862335
111	0x3d97e507	0.074167304
112	0x3e95e81f	0.29278657
113	0x3e4573a8	0.192824
114	0xbc0cb9d5	-0.008589228
115	0xbe43e111	-0.19128825
116	0x3e200a93	0.15629034
117	0xbf35ccc6	-0.71015584
118	0xbcb8f429	-0.022577362
119	0xbe23eb43	-0.16007714
120	0x3f50a498	0.8150115
121	0x3d2758e9	0.040856276
122	0xbd300ea8	-0.042982727
123	0x3e46597e	0.19370076
124	0xbcac1705	-0.02100707
125	0xbf07bf54	-0.5302632
126	0xbdc03414	-0.09384933
127	0x3e81eab4	0.25374377
128	0x3f4757fb	0.7786862
129	0x3d0d89d9	0.03455529
130	0xbd42c466	-0.04755058
131	0xbe1f4a28	-0.15555632
132	0x3c00a6e2	0.007852288
133	0xbf161e1f	-0.5863971
134	0x3cb42bbe	0.021993514
135	0xbe0427cb	-0.12905805
136	0x3f351ce6	0.7074722
137	0xbd7492f3	-0.059710454
138	0xbb01c73b	-0.0019802589
139	0x3e11dbd4	0.14244014
140	0xbdaff078	-0.08590788
141	0xbf3168de	-0.6930064
142	0xbccdaf42	-0.025107983
143	0x3e1d6dad	0.15373869
144	0x3f154761	0.5831204
145	0xbba99c85	-0.0051761293
146	0xbd4ae11a	-0.04953108
147	0x3e527455	0.2055219
148	0xbe0eb9be	-0.13938043
149	0xbf176f61	-0.59154326
150	0xbd2ec1a6	-0.042665146
151	0x3e752cec	0.23942918
152	0x3eb45a1b	0.35224995
153	0x3f065c74	0.5248482
154	0x3d90d5f8	0.07072061
155	0x3fb848f5	1.4397265
156	0xbd8ab873	-0.06773462
157	0xbf2372a9	-0.6384683
158	0x3dc5f590	0.09665978
159	0x3fb6a1ba	1.4268105
160	0x3e91b92c	0.28461587
161	0x3f78e813	0.9722912
162	0x3d36e267	0.044649508
163	0x3e541c34	0.20713884
164	0xbd75158e	-0.05983501
165	0xbf193988	-0.5985341
166	0x3e1d87d4	0.15383846
167	0x3e2f19ac	0.17099637
168	0xbe8da4b4	-0.2766472
169	0x3f7586b4	0.95908666
170	0xbdd0ea79	-0.10200972
171	0x3d693e11	0.056943957
172	0x3e4c141b	0.19929545
173	0xbf0ede58	-0.5580802
174	0xbd5bd12a	-0.05366627
175	0x3d91b170	0.07113922
176	0xbe6f1c8b	-0.23350732
177	0x3fcbc95e	1.5920827
178	0xbdc3eacc	-0.09566268
179	0x3f8babc5	1.0911795
180	0x3dc9ec32	0.09859504
181	0xbf2aadce	-0.66671455
182	0xbe18b916	-0.14914355
183	0x3f9758ea	1.182401
184	0xbe3695c7	-0.17830573
185	0x4004a976	2.072843
186	0xbdada92f	-0.08479535
187	0x3d5b9243	0.053606283
188	0x3bc7a78f	0.0060929726
189	0xbf25fa71	-0.6483527
190	0xbe0f9438	-0.14021385
191	0xbc72850d	-0.01480223
192	0xbd0a77ff	-0.033805843
193	0xbe8fdad0	-0.28096628
194	0x3d3d0b22	0.046153195
195	0x3cccb5de	0.024989065
196	0x3ae1d264	0.0017228839
197	0xbfe12c98	-1.7591734
198	0xbbf4b916	-0.007468353
199	0x3c0924c7	0.008370585
200	0xbe12d121	-0.14337589
201	0xbe7c49a8	-0.24637473
202	0xbcb34956	-0.021885555
203	0xbc9fdb0c	-0.01951363
204	0xbd0cdd6d	-0.034390856
205	0xbf372649	-0.71542794
206	0x3cf5e3c6	0.030015837
207	0x3b996868	0.0046816356
208	0xbd61f425	-0.055164475
209	0x3e43fca8	0.1913935
210	0x3c85999d	0.0163086
211	0xbd88f110	-0.06686604
212	0x3c8697f2	0.016429875
213	0x3fed8f77	1.8559407
214	0xbc8cdd42	-0.017195348
215	0xbe083b88	-0.1330396
216	0xbd0173cf	-0.031604584
217	0xbe8577f9	-0.26068094
218	0x3bd14c2b	0.0063872538
219	0xbd77ab9b	-0.06046639
220	0x3d5b10f6	0.053482972
221	0xbfd8c8da	-1.6936295
222	0xbc3a98a9	-0.011388936
223	0x3c3afca9	0.011412778
224	0xbe4b9db9	-0.19884385
225	0xbdb49265	-0.08816985
226	0x3b901fac	0.004398307
227	0xbda05bb5	-0.07829992
228	0xbd9c9093	-0.07644763
229	0xbf3fc5d4	-0.74911237
230	0x3cb7e6a8	0.022448853
231	0x39ce1190	0.00039304467
232	0x3b3893c7	0.0028164254
233	0x3ed26a2a	0.41096622
234	0xbd0df4b2	-0.034657188
235	0x3ca1fcaf	0.01977381
236	0xbdce133b	-0.10062262
237	0x3ff456e1	1.9089013
238	0x39e63b11	0.00043913026
239	0x3c7dc1cd	0.0154881
240	0xbbd63339	-0.006536868
241	0xbd051c4f	-0.0324977
242	0x3d1c6799	0.038184736
243	0x3e1f0dc8	0.15532601
244	0x3e8dd9c3	0.27705202
245	0xbf8864ee	-1.0655801
246	0xbb87c76d	-0.0041436465
247	0x3e13dafd	0.14439006
248	0x3d9bd316	0.07608621
249	0x3db0b788	0.08628756
250	0x3c912eeb	0.017722568
251	0x3d1c99d8	0.038232654
252	0x3eb68a02	0.35652167
253	0x3d8ed4bc	0.069741696
254	0x3bb77bdc	0.005599482
255	0x3de12f39	0.10995335

fcs1.bias f4 [256]
0	0xbe949276	-0.2901799
1	0xbf234abd	-0.63785917
2	0xbef9530f	-0.4869618
3	0xbf535900	-0.8255768
4	0x3e02f8ce	0.12790224
5	0xbfce13b7	-1.6099766
6	0xbf178a04	-0.5919497
7	0xbf4913d0	-0.78545856
8	0xbe7dde4f	-0.24791835
9	0xbc3bb9f6	-0.011457911
10	0xbfcd53ee	-1.6041238
11	0xbebab750	-0.3646798
12	0xbeab6dc3	-0.3348218
13	0xbd273e95	-0.040831167
14	0xbf1946b0	-0.59873486
15	0xbf3832cb	-0.71952504
16	0xbfa54651	-1.2912084
17	0xbe460da2	-0.19341138
18	0xbf1bab70	-0.6080847
19	0x3e1deaa6	0.15421543
20	0xbed5948b	-0.41714892
21	0xbdb22012	-0.08697523
22	0xbf8f0908	-1.1174631
23	0xbf3a0765	-0.72667533
24	0xbf6ae10b	-0.9174964
25	0xbf4338fc	-0.76258826
26	0xbecce351	-0.4001718
27	0xbf53b5de	-0.8269938
28	0xbf0cca70	-0.54996395
29	0xbf01e38c	-0.50737834
30	0x3ef267df	0.47344872
31	0xbfa1efc0	-1.2651291
32	0xbf01f460	-0.5076351
33	0xbfe9c9dc	-1.8264728
34	0xbf3ae558	-0.730062
35	0xbf56f9f4	-0.8397515
36	0xbfd6b8db	-1.6775163
37	0xbf8ada2b	-1.084783
38	0xbf60e820	-0.87854195
39	0xbe99c2b4	-0.3003136
40	0xbf5da96b	-0.86586636
41	0xbeb8b6ec	-0.36077058
42	0xc02a594e	-2.6617007
43	0xbf09ea15	-0.53872806
44	0xbf18c0f2	-0.5966941
45	0xbe5025fc	-0.2032699
46	0xbf07b396	-0.530084
47	0xbf66bf7b	-0.90135926
48	0xbd9a7e73	-0.075436495
49	0xbbff29ab	-0.0077869496
50	0xbec85e03	-0.39134225
51	0xbe9c51ae	-0.30531067
52	0xbf7ed2e4	-0.99540544
53	0xbde657f8	-0.112472475
54	0xbf82e17f	-1.0225066
55	0x3e14d601	0.14534761
56	0x3d50993a	0.05092738
57	0xbeb49590	-0.35270357
58	0x3c1a6ef5	0.009425868
59	0xbf16062a	-0.58603156
60	0xbdb4cfd6	-0.08828704
61	0xbf9253e1	-1.1431848
62	0x3e91bc1e	0.28463835
63	0xbea70ab5	-0.32625356
64	0xbf0a721b	-0.5408036
65	0xbf21b591	-0.63167673
66	0xbfcedb40	-1.616066
67	0xbfb1cd2c	-1.3890738
68	0xbf3e235c	-0.74272704
69	0xbe454ec7	-0.19268332
70	0xc00e5670	-2.2240257
71	0xbeefbf22	-0.4682551
72	0xbf1f7c8f	-0.62299436
73	0xbd557fe5	-0.052123923
74	0xbf5191d2	-0.8186313
75	0xbf71a19f	-0.9438724
76	0xbf7c064b	-0.984471
77	0xbec3a691	-0.38213018
78	0xbf731ad9	-0.9496284
79	0x3d9c3222	0.076267496
80	0xbfa41c0a	-1.2821057
81	0xbf58d47c	-0.84699225
82	0xbe951b97	-0.29122612
83	0xbd0e8612	-0.03479583
84	0xc01ee1c3	-2.4825294
85	0xbf8f0d1e	-1.1175878
86	0xbf902453	-1.1261085
87	0xbf0ea30b	-0.55717534
88	0xc043171e	-3.048286
89	0xbf07e820	-0.5308857
90	0xbeec56d6	-0.4616
91	0xbe812563	-0.25223836
92	0xbf381ec8	-0.7192197
93	0xbe297735	-0.1654938
94	0xbf5a7caf	-0.853465
95	0xbf32f92d	-0.6991146
96	0xbf519fd8	-0.8188453
97	0xbe9e67f2	-0.3093868
98	0xbec4c9e6	-0.38435286
99	0xbf117f4e	-0.56834877
100	0xbec91643	-0.39274797
101	0xbfa59e56	-1.2938945
102	0xbfb3ce52	-1.4047339
103	0xbf3df1c9	-0.7419706
104	0xbfb77921	-1.4333841
105	0x3d887fa4	0.066649705
106	0xbf43f66c	-0.76547885
107	0xbf14db80	-0.5814743
108	0xbf867cb7	-1.050681
109	0xbf0b0736	-0.5430788
110	0xbe936717	-0.2878959
111	0xbf901af0	-1.1258221
112	0xbe8b3928	-0.27192044
113	0xbe70616f	-0.23474668
114	0xbf132168	-0.5747285
115	0xbe32d8f0	-0.17465568
116	0xbf91d975	-1.1394488
117	0xbf17ae0d	-0.59249955
118	0xbf83405c	-1.0254016
119	0xbf060a62	-0.5235959
120	0x3d6f0199	0.058351133
121	0xbf2d4506	-0.67683446
122	0xbead1619	-0.33805922
123	0xbf226cf9	-0.6344753
124	0xbf9b4143	-1.2129291
125	0x3e335eb4	0.17516595
126	0xbf8a4ddd	-1.0805012
127	0xbeb0944e	-0.34488147
128	0xbe9fa1ca	-0.31178123
129	0xbe98e552	-0.29862458
130	0xbf095462	-0.5364438
131	0xbc381f25	-0.011237894
132	0xbf4385b4	-0.7637589
133	0xbf01f1b8	-0.5075946
134	0x3d3a5938	0.045495242
135	0xbf1f4194	-0.6220944
136	0xbf5330c6	-0.824963
137	0x3dff57fc	0.124679536
138	0xbe3c06fe	-0.18362042
139	0xbec02861	-0.37530807
140	0xbfb6fd2b	-1.4296011
141	0xbe8c889e	-0.2744798
142	0xbf2e036f	-0.6797399
143	0xbfe6feb8	-1.8046484
144	0x3cc80286	0.024415266
145	0xbf882ad6	-1.0638072
146	0xbf59d00b	-0.85083073
147	0xbe396973	-0.18106632
148	0xbfd9f6f8	-1.7028494
149	0xbf8aa09a	-1.0830262
150	0xbf8989f9	-1.0745231
151	0x3eb0f01f	0.34558198
152	0xbf6021dc	-0.87551665
153	0xbf331a73	-0.69962233
154	0xbf2a7b7d	-0.6659468
155	0xbe9dde10	-0.30833483
156	0xbf0953af	-0.53643316
157	0xbf20d664	-0.62827134
158	0xbfa07f07	-1.2538766
159	0xbf3a9b74	-0.7289345
160	0xbf08c730	-0.53428936
161	0xbf46cac9	-0.77653176
162	0xbf1ad75b	-0.60484856
163	0xbee74f70	-0.45177794
164	0xbe1aa710	-0.15102792
165	0xbf0b1dfb	-0.5434262
166	0xbef4010a	-0.47657043
167	0x3f8db69c	1.1071353
168	0xbf8727f9	-1.0559074
169	0xbfc11ebd	-1.5087506
170	0xbf2b9985	-0.6703113
171	0xbf744d35	-0.9543031
172	0x3b20dfc9	0.002454745
173	0xbf07399c	-0.5282228
174	0xbf047796	-0.51744974
175	0xbdf03fc9	-0.11730916
176	0xbeca86cc	-0.39555967
177	0xbe7e42d8	-0.24830186
178	0xbea33094	-0.31873
179	0x3f252dad	0.6452282
180	0xbe511bfa	-0.20420828
181	0xbf80334b	-1.0015653
182	0xc00436f0	-2.065853
183	0xbf9e36ef	-1.2360514
184	0xbf042102	-0.51612866
185	0xbf2a23b5	-0.66460735
186	0xbf7ef528	-0.9959283
187	0xbfc2b2db	-1.5210832
188	0xbf569999	-0.8382812
189	0xbf0c1401	-0.54718024
190	0xbf449e13	-0.768037
191	0xbf2dad31	-0.67842394
192	0x3ebaf824	0.3651744
193	0xbf68ea54	-0.90982556
194	0xbf1a14a7	-0.6018776
195	0xbf727470	-0.9470892
196	0xbf59b32d	-0.85039026
197	0xbf6665cd	-0.89999086
198	0xbf0116ed	-0.50425607
199	0xbfa4072f	-1.2814692
200	0xbe4f050e	-0.20216772
201	0xbecee4c8	-0.4040892
202	0xbf02cb31	-0.51091295
203	0xbf2a8a16	-0.6661695
204	0xbf342b65	-0.70378715
205	0xbed2a985	-0.41144958
206	0xbe8b32a6	-0.2718708
207	0xbf46f487	-0.7771687
208	0xbfb02a68	-1.3762941
209	0xbf553a23	-0.83291835
210	0x3e8ea50f	0.27860305
211	0xbf0900a4	-0.535166
212	0xbf36a491	-0.7134486
213	0x3c9d5926	0.019207548
214	0xbf0a6f02	-0.54075634
215	0xbf6e81e4	-0.9316695
216	0xbf907820	-1.1286659
217	0xbe55821a	-0.20850411
218	0xbfce6826	-1.6125534
219	0xbf0f6f02	-0.5602876
220	0xbecfd4e6	-0.40592116
221	0xbeb4735f	-0.3524427
222	0xbf5521a0	-0.8325443
223	0xbe724856	-0.23660406
224	0xbe8e5fc5	-0.2780744
225	0xbe5c5bfa	-0.21519461
226	0xbed9c390	-0.42532015
227	0xbe5aa970	-0.21353698
228	0xbf254764	-0.6456206
229	0xbf870e74	-1.0551286
230	0xbf2e6acf	-0.68131727
231	0xb897e0be	-7.2421026e-05
232	0xbec97f6b	-0.39355025
233	0xbf1c48be	-0.61048496
234	0xbf30d7f8	-0.6907954
235	0xbdf91c6f	-0.121636264
236	0xbf1753a9	-0.5911203
237	0xbf47641d	-0.77887136
238	0xbc9f3379	-0.019433724
239	0xbee6042f	-0.44925067
240	0xbfef26e2	-1.8683741
241	0xbf116232	-0.5679046
242	0xbefd3e5e	-0.49461645
243	0x3d9366dd	0.07197354
244	0xbee06f8f	-0.43835112
245	0xbf07d7ab	-0.5306346
246	0xbe8116c9	-0.25212696
247	0xbfad39ea	-1.3533299
248	0xbf9d9042	-1.2309649
249	0xbf1ec97d	-0.62026197
250	0xbf97e7fb	-1.186767
251	0xbf11adf6	-0.5690607
252	0xbf116802	-0.5679933
253	0xbe01daa8	-0.12681067
254	0xbe507e69	-0.20360722
255	0xbe8c0d00	-0.27353668

fc2.weight f4 [128, 260]
0	0xbe4892fa	-0.19587317
1	0x3e3b4818	0.1828922
2	0x3e922ef1	0.28551438
3	0x3e36e04c	0.17859
4	0xbe02113c	-0.12701887
5	0x3c952661	0.018206777
6	0x3d458413	0.04822166
7	0xbde8700b	-0.113494955
8	0x3db7e8cf	0.089799516
9	0xbe84ff53	-0.25976047
10	0x3e363536	0.17793736
11	0xbd8d2915	-0.068926014
12	0x3e1654c8	0.14680779
13	0xbe4e6a2d	-0.2015769
14	0xbeca181e	-0.39471525
15	0xbea32ade	-0.31868643
16	0x3cc6d008	0.024269119
17	0x3d1f9dc5	0.03896882
18	0x3be11c69	0.006869842
19	0x3d395fbb	0.04525731
20	0x3e96f474	0.29483378
21	0x3ec4eef3	0.38463554
22	0xbe5f8017	-0.21826206
23	0xbe71e934	-0.23624116
24	0x3f3d52de	0.7395457
25	0x3ca2c184	0.019867666
26	0xbea33664	-0.31877434
27	0x3e2135e1	0.1574321
28	0xbe1e3beb	-0.15452544
29	0xbcadce55	-0.02121655
30	0xbf0b5845	-0.54431564
31	0x3d4c8e6e	0.04994052
32	0xbe33d0f9	-0.17560185
33	0xbd69f80d	-0.057121325
34	0xba288d54	-0.0006429751
35	0xbdad39d3	-0.08458295
36	0xbe9907e5	-0.29888836
37	0xbd7757bf	-0.060386416
38	0xbd9eb9f5	-0.07750312
39	0xbe59a548	-0.21254456
40	0x3e4010dd	0.18756433
41	0xbed1d359	-0.40981558
42	0xbd6f93cd	-0.058490563
43	0xbd2381e7	-0.039918806
44	0x3e161278	0.14655483
45	0x3d08e28b	0.033419173
46	0xbf654a16	-0.8956617
47	0xbcf19e3a	-0.029494394
48	0xbe87e6b3	-0.26543197
49	0x3dca6e3c	0.09884307
50	0xbdc9e4ec	-0.098581165
51	0xbe50b8ce	-0.20382997
52	0xbed1563c	-0.40886104
53	0xbdde79fb	-0.1086311
54	0xbe95986f	-0.2921786
55	0xbe8c1523	-0.27359876
56	0xbf15a963	-0.5846159
57	0xbe8ef929	-0.2792447
58	0x3b57e847	0.0032944845
59	0x3e919bcd	0.2843918
60	0xbdef3132	-0.11679305
61	0x3e827b18	0.25484538
62	0xbf068f4c	-0.52562404
63	0xbd00a300	-0.03140545
64	0x3d47c125	0.04876818
65	0x3ec88ed2	0.39171463
66	0x3d15dc78	0.03658721
67	0x3c6dac93	0.014506477
68	0xbe58d886	-0.21176347
69	0x3b992fc7	0.004674885
70	0x3ee97474	0.4559666
71	0x3cd69798	0.026195332
72	0x3cba703d	0.022758598
73	0xbeb9527c	-0.36195743
74	0xbf08f7c0	-0.53503036
75	0xbe7352c3	-0.2376204
76	0x3c08dd19	0.008353495
77	0xbc15215b	-0.009102191
78	0x3db4b8d7	0.08824318
79	0x3d935d83	0.0719557
80	0xbd7a6376	-0.06113001
81	0xbe3fce11	-0.18730952
82	0x3db2c39f	0.08728718
83	0x3e0527fa	0.13003531
84	0x3c98ee6d	0.018668378
85	0xbc818f40	-0.015815377
86	0xbd9ff817	-0.07810991
87	0xbec0765d	-0.37590304
88	0xbc388987	-0.011263258
89	0xbebb43eb	-0.36575255
90	0x3e8d0cac	0.2754873
91	0xbd9e5d77	-0.07732671
92	0x3eea125b	0.4571713
93	0xbec101f9	-0.37696818
94	0x3d5c7461	0.053821925
95	0xbedc3ea7	-0.4301655
96	0x3ccfa5a6	0.025347542
97	0xbbff4490	-0.0077901557
98	0xbd16c73d	-0.036811102
99	0xbe1803aa	-0.14845148
100	0x3cd15ab3	0.025555944
101	0x3dc87d93	0.097895764
102	0x3d23bdee	0.039976053
103	0xbe8890d1	-0.26672986
104	0xbc3d100b	-0.0115394695
105	0xbf16f207	-0.58963054
106	0x3d5a9340	0.053363085
107	0xbee940d2	-0.45557266
108	0x3f145d3f	0.5795478
109	0x3da21dba	0.07915826
110	0xbdedd4b8	-0.116128385
111	0xbdad7dc1	-0.08471251
112	0xbee53b96	-0.44772023
113	0x3b4f91c3	0.0031672574
114	0xbc96ac3a	-0.01839267
115	0xbdddb8de	-0.10826276
116	0x3e311e02	0.17296603
117	0xbe789a27	-0.24277554
118	0xbe298a8b	-0.16556756
119	0xbd2b5c20	-0.041835904
120	0xbdd0b780	-0.1019125
121	0x3e10171b	0.14071314
122	0xbe86270e	-0.2620167
123	0x3efaefbe	0.49011034
124	0x3e84dcb0	0.2594962
125	0xbe7ee82b	-0.24893253
126	0x3e9728ff	0.29523465
127	0xbf4438bd	-0.76649076
128	0xbe67ccbc	-0.22636694
129	0xbcd65775	-0.02616475
130	0x3dbf89b6	0.09352438
131	0xbe0a3486	-0.13496599
132	0xbe87bbd4	-0.2651049
133	0xbe49df09	-0.19713987
134	0x3dbdcc73	0.09267511
135	0x3e914020	0.28369236
136	0xbec6e388	-0.38845468
137	0x3e4dc981	0.20096399
138	0xbf496310	-0.7866678
139	0xbeddd80e	-0.433289
140	0x3bd19796	0.0063962443
141	0xbaefdbf2	-0.0018299802
142	0xbe4b1834	-0.19833452
143	0x3e94da24	0.29072678
144	0xbf5fa020	-0.87353706
145	0xbe9c5f0b	-0.30541262
146	0xbd3eec96	-0.046612345
147	0xbec0b0a9	-0.3763478
148	0xbde602b9	-0.11230988
149	0x3dd79d8c	0.105280966
150	0xbe4cb5a3	-0.19991164
151	0xbe19c883	-0.15017895
152	0xbc04b2bd	-0.008099255
153	0x3e95f317	0.29287025
154	0x3e8d827d	0.27638617
155	0xbd8b2671	-0.067944415
156	0xbde4d86a	-0.1117409
157	0x3dd51326	0.10404043
158	0xbd24e8ef	-0.040261205
159	0xbe33bebc	-0.17553228
160	0xbe8c0b86	-0.27352542
161	0x3e8bb8ae	0.27289337
162	0x3e83f7e7	0.25775072
163	0xbee8250d	-0.45340768
164	0x3e3686df	0.17824887
165	0xbe1226d0	-0.14272618
166	0xbdc250ac	-0.09488043
167	0x3d8fe12f	0.07025372
168	0x3b681b76	0.0035416759
169	0xbe1b5c98	-0.1517204
170	0xbf36d978	-0.7142558
171	0x3d2c7ebe	0.04211306
172	0xbe247b3a	-0.16062632
173	0xbf1eb18d	-0.6198967
174	0x3e29b0c6	0.1657134
175	0xbeb3eeac	-0.3514303
176	0xbeca9012	-0.39563042
177	0xbe7cdb19	-0.24692954
178	0x3dc733d6	0.09726684
179	0xbedee288	-0.43532205
180	0x3dcd636c	0.10028729
181	0xbd7ace53	-0.061231922
182	0x3e2ed29c	0.17072529
183	0x3dca1b63	0.09868505
184	0x3e828f74	0.2550007
185	0xbf043121	-0.51637465
186	0x3db6ef15	0.0893232
187	0xbeaee486	-0.34158725
188	0xbd84e5d0	-0.06489146
189	0x3d869f54	0.06573358
190	0xbf12acfc	-0.57295203
191	0xbea2c245	-0.3178884
192	0xbe4315fd	-0.19051357
193	0x3e079f13	0.13244276
194	0x3e9b348d	0.3031353
195	0xbb8ba0f6	-0.0042611314
196	0xbd90e1d8	-0.07074326
197	0x3d5aca04	0.053415313
198	0x3dc8907a	0.09793182
199	0xbf03b39f	-0.51445955
200	0xbef9a3ec	-0.48757875
201	0x3e781e4b	0.24230306
202	0xbefb9b7f	-0.49142072
203	0x3cda4094	0.026642121
204	0xbec2da4d	-0.38057175
205	0xbe0d728d	-0.13813229
206	0xbd2f52f0	-0.042803705
207	0x3d37daad	0.04488628
208	0x3cbaa817	0.02278523
209	0xbe3931e2	-0.18085435
210	0x3d68f064	0.05686988
211	0xbeb5d71f	-0.35515687
212	0x3e6c294d	0.2306263
213	0x3dd26221	0.10272623
214	0xbeaf7d26	-0.34275168
215	0xbdbeb039	-0.093109556
216	0xbe41f5b8	-0.1894139
217	0xbd1a4acd	-0.03766899
218	0xbdc2b7b1	-0.095076926
219	0x3dc4f009	0.096160956
220	0xbed3572b	-0.4127744
221	0xbee5adc1	-0.44859126
222	0xbe76a47e	-0.24086186
223	0x3d3e713c	0.046494707
224	0xbea9880f	-0.33111617
225	0xbe73ea96	-0.23819956
226	0xbdb19450	-0.086708665
227	0xbec6f902	-0.38861853
228	0x3dc6b050	0.09701598
229	0x3d266f02	0.04063321
230	0x3ee05932	0.4381805
231	0xbe5f261d	-0.21791883
232	0xbe28260a	-0.16420761
233	0x3e976333	0.2956787
234	0x3e34fddf	0.17674969
235	0xbe90f8c2	-0.28314787
236	0x3e0b0c43	0.13578896
237	0xbded9d27	-0.1160224
238	0x3f0f35c6	0.55941427
239	0xbe15e282	-0.14637187
240	0xbe7b06a6	-0.24514255
241	0xbdd835a0	-0.10557103
242	0x3deb2525	0.11481694
243	0x3e4657f2	0.19369486
244	0x3e836ce4	0.25669014
245	0x3e345917	0.1761211
246	0x3e36e094	0.17859107
247	0x3e4c8ced	0.19975634
248	0x3e01bfa4	0.12670761
249	0xbe6397c0	-0.22225857
250	0xbe366cb8	-0.1781491
251	0x3e1dd5f4	0.15413648
252	0xbe4cd7b3	-0.20004158
253	0x3d8eaa91	0.06966127
254	0xbec28c8a	-0.37997848
255	0xbe612c4b	-0.21989553

fc2.bias f4 [128]
0	0xbeb33839	-0.35003832
1	0xbd91ae5f	-0.07113337
2	0xbe1c7e49	-0.15282549
3	0xbed797ea	-0.4210809
4	0xbde24260	-0.11047816
5	0xbe4812be	-0.195384
6	0xbea28a96	-0.31746358
7	0xbed37a14	-0.41304076
8	0xbe96ad5e	-0.29429144
9	0xbecc5234	-0.39906466
10	0xbeb6302a	-0.3558362
11	0xbeba6a4e	-0.3640923
12	0xbf07b183	-0.53005236
13	0xbed35724	-0.4127742
14	0xbe597a1d	-0.21237989
15	0xbe4079e5	-0.18796499
16	0xbe45c8ea	-0.19314924
17	0xbe813311	-0.25234273
18	0xbe904eee	-0.2818522
19	0xbe62e097	-0.22155987
20	0xbec7f1d1	-0.3905168
21	0xbece4a17	-0.402909
22	0xbe12398e	-0.14279768
23	0xbec2020f	-0.37892196
24	0xbea093bf	-0.3136272
25	0xbe927b1e	-0.28609556
26	0xbe662bd6	-0.2247766
27	0xbada40b7	-0.0016651367
28	0xbe7ab774	-0.24484044
29	0xbe8ab705	-0.27092758
30	0x3d0ebcc3	0.034847986
31	0xbecf2783	-0.40459833
32	0xbe95e9cf	-0.29279944
33	0xbe8f4291	-0.27980474
34	0x3d197fe7	0.037475493
35	0xbdf57ce9	-0.11986715
36	0xbe42d3bc	-0.19026083
37	0x3dfbac5d	0.12288735
38	0xbe93da77	-0.28877613
39	0x3ceab9c8	0.02865304
40	0xbf0e0a96	-0.554849
41	0xbe8d808a	-0.2763713
42	0xbe5f8817	-0.21829258
43	0xbe468f0d	-0.19390507
44	0xbe848b28	-0.25887418
45	0xbed8a05c	-0.42309844
46	0x3d3356ce	0.043783955
47	0xbd7c9710	-0.061667502
48	0xbea564e4	-0.32303536
49	0xbec5aec8	-0.3860991
50	0xbddf1f95	-0.10894696
51	0xbeac6908	-0.33673882
52	0x3d5d1959	0.05397925
53	0xbf090895	-0.5352872
54	0xbed4c1f3	-0.41554222
55	0xbecf9075	-0.405399
56	0xbce6ec94	-0.028188981
57	0xbecbac7f	-0.39780042
58	0xbefd35bf	-0.49455068
59	0xbe312aa6	-0.17301425
60	0xbecd9d48	-0.4015906
61	0xbe7b01b5	-0.2451237
62	0xbe944f79	-0.28966883
63	0xbda2fce6	-0.07958393
64	0xbe14aaa3	-0.14518218
65	0xbe8acb83	-0.27108392
66	0xbec07cc4	-0.3759519
67	0xbf2211c8	-0.6330838
68	0xbe17034c	-0.14747351
69	0x3dafd00b	0.08584603
70	0xbe8d66ed	-0.2761759
71	0xbed59a5e	-0.41719335
72	0x3df5d6d2	0.12003864
73	0xbe985be2	-0.297576
74	0xbd4e1173	-0.05030961
75	0xbed33225	-0.41249195
76	0xbea365f3	-0.3191372
77	0xbd6d3a7d	-0.057917107
78	0xbdfdb138	-0.123873174
79	0x3d9c98c9	0.07646329
80	0xbe2e64b2	-0.170306
81	0xbe156422	-0.14588979
82	0xbe9acbde	-0.30233663
83	0xbe55346c	-0.20820779
84	0xbec1d8f3	-0.37860832
85	0xbe3432ac	-0.17597455
86	0xbeb5f5ea	-0.3553918
87	0xbea49824	-0.32147324
88	0xbea946ff	-0.33061978
89	0xbedd42db	-0.4321507
90	0x3dc2effb	0.09518429
91	0xbe8b06ee	-0.27153724
92	0xbe3e520e	-0.18585989
93	0xbe3c3cca	-0.18382564
94	0xbe9e25f4	-0.3088833
95	0xbe98f02e	-0.29870743
96	0xbece2628	-0.40263486
97	0xbec83f6a	-0.3911088
98	0xbedc47b6	-0.4302346
99	0xbe7d1fab	-0.24719112
100	0xbe76e468	-0.24110568
101	0xbef55cc8	-0.4792235
102	0x3bad02b1	0.005279862
103	0xbeb086f9	-0.34477976
104	0xbe7d762d	-0.24752112
105	0x3e62552b	0.22102802
106	0x3d94f723	0.072737
107	0x3e157620	0.14595842
108	0xbe5048b2	-0.20340231
109	0xbe40cbf8	-0.18827808
110	0xbe21a3d0	-0.15785146
111	0xbdf36466	-0.11884384
112	0xbeb1e2a6	-0.34743232
113	0xbe11b171	-0.14227845
114	0xbea22eff	-0.3167648
115	0xbe600888	-0.21878254
116	0xbedf0d49	-0.43564823
117	0xbef443ad	-0.47707883
118	0xbe5fae31	-0.21843792
119	0xbe84a16d	-0.25904408
120	0xbf1a872b	-0.603625
121	0xbe6ee861	-0.23330833
122	0xbde2e880	-0.11079502
123	0xbed2d4dd	-0.41178027
124	0x3d70d52a	0.05879704
125	0xbed035d9	-0.40666083
126	0xbdcb9c83	-0.099419616
127	0xbe4231ea	-0.18964353

fc3.weight f4 [1, 128]
0	0x3c10825b	0.008820142
1	0x3c671a9d	0.014105466
2	0x3ca69260	0.020333469
3	0xbd4cbbb1	-0.049983684
4	0xbdad6c07	-0.0846787
5	0xbdda0307	-0.10645109
6	0x3b7ef423	0.003890284
7	0x3d37dbc7	0.04488733
8	0x3dfa90b7	0.122346334
9	0xbb8098ed	-0.00392448
10	0xbd98d1f2	-0.07461919
11	0xbdd74084	-0.10510352
12	0xbe2bbfab	-0.16772334
13	0xbe04a917	-0.12955128
14	0xbe03a7f7	-0.12857042
15	0x3d795366	0.06087055
16	0xbd58c49f	-0.052921887
17	0x3c517473	0.012784111
18	0xbbfcaecf	-0.0077112685
19	0xbd53bcef	-0.051693853
20	0xbd988782	-0.07447721
21	0xbd85ce9e	-0.0653355
22	0xbba4b6c1	-0.005026669
23	0x3c5d5cd1	0.013510899
24	0x3bf2f857	0.0074148583
25	0x3d2b5177	0.041825738
26	0x3c6ecc72	0.014575111
27	0x3c31d387	0.010853655
28	0x3c98b487	0.01864077
29	0x3c32fd11	0.010924594
30	0x3c22119e	0.009891896
31	0xbc774ca5	-0.015093957
32	0xbe6d5286	-0.23176011
33	0xbb901d9e	-0.004398062
34	0x3c7d240a	0.015450487
35	0xbd518f81	-0.051162247
36	0xbdef265b	-0.116772376
37	0x3c887186	0.016655695
38	0xbda35545	-0.07975248
39	0x3cd6326d	0.026147092
40	0x3c886231	0.016648384
41	0xbd8f2700	-0.069898605
42	0x3bfe17b8	0.0077542923
43	0xbd586c82	-0.052837856
44	0xbd831ac6	-0.06401591
45	0x3d304896	0.043037973
46	0x3c9615ff	0.018321035
47	0x3bdafde8	0.0066831
48	0xbbbb5687	-0.005717102
49	0x3c425dc6	0.011863178
50	0x3c26f2bc	0.010189708
51	0xbc6f9c82	-0.014624717
52	0xbd0e62a1	-0.03476203
53	0x3b672e42	0.0035275375
54	0xbb164f1b	-0.0022935334
55	0xbde3c6cd	-0.111219026
56	0xbc383d47	-0.011245078
57	0xbd8c9c8d	-0.06865797
58	0x3d54fa34	0.051996425
59	0xbd4693f1	-0.04848093
60	0xbbd45ab6	-0.00648054
61	0xbe3eec52	-0.18644837
62	0x3c222746	0.009897059
63	0x39ce0ac1	0.00039299394
64	0x3e13e6a5	0.14443453
65	0x3ca11246	0.019662034
66	0xbdd155dc	-0.102214545
67	0xbe00caf5	-0.12577422
68	0x3cfb61d2	0.030686293
69	0x3c84d480	0.01621461
70	0xbd8a6a68	-0.06758577
71	0xbd89ece5	-0.06734637
72	0x3c645bcb	0.013937901
73	0xbd3e4359	-0.046450946
74	0x3d6f6c71	0.058453027
75	0x3c4238b9	0.011854344
76	0x3d3365a4	0.043798104
77	0x3c0c6360	0.008568615
78	0xbd0d3693	-0.034475874
79	0x3c7cb0da	0.015423024
80	0x3c7c6d92	0.015406983
81	0x3d54df8b	0.051971
82	0x3d78b0b8	0.060715407
83	0x3c920f6a	0.017829616
84	0xbd4d1b25	-0.050074715
85	0x3d1c83b1	0.03821153
86	0xbdb2fc76	-0.08739559
87	0x3c444ae0	0.011980742
88	0xbd29c312	-0.0414458
89	0x3c368bac	0.011141699
90	0xbc839551	-0.01606241
91	0xbe21e869	-0.15811314
92	0x3c3e593c	0.011617955
93	0x3cb11bac	0.02161964
94	0x3b985fe4	0.004650103
95	0x3b03d75e	0.0020117383
96	0xbb77e07d	-0.0037823014
97	0x3cdb1ab8	0.026746139
98	0x3da3dcaf	0.080010764
99	0x3ad42f93	0.0016188495
100	0x3d1a4b92	0.037669726
101	0xbd8226c4	-0.0635505
102	0xbd250a11	-0.040292803
103	0xbdb555e5	-0.08854274
104	0x3a224b5b	0.00061910384
105	0xbd6075f5	-0.054799993
106	0x3d2b3e13	0.041807245
107	0x3c40d050	0.011768416
108	0x3ceeebed	0.029165233
109	0xbdafa33c	-0.08576056
110	0x3dc252b2	0.09488429
111	0x3d11e517	0.035618868
112	0x3d2d2ab8	0.042277068
113	0x3db8d490	0.09024918
114	0xbb577c0d	-0.0032880337
115	0x3e05e7c5	0.13076694
116	0xbda999da	-0.08281298
117	0x3c91517d	0.017739052
118	0xbdfe6057	-0.12420719
119	0xbcf834a7	-0.030298544
120	0xbc72bb2b	-0.014815132
121	0x3cc8eb62	0.024526302
122	0xbe2dfdd8	-0.16991365
123	0xbbb6168e	-0.005556888
124	0x3c806146	0.015671384
125	0xbb7c3068	-0.0038481
126	0x3d29780f	0.041374262
127	0xbd8a30bb	-0.06747576

bn1.weight f4 [256]
0	0x3ddc34bf	0.10752248
1	0xbdc6e4c7	-0.097116046
2	0x3e35d21c	0.17755932
3	0x3d6ce037	0.057831015
4	0x3ef32cc1	0.47495082
5	0x3e7bdedd	0.24596734
6	0x3e03f0d3	0.12884836
7	0xbdd1399c	-0.10216066
8	0x3dab0610	0.08350766
9	0x3df69c33	0.120415114
10	0x3d69970f	0.057028826
11	0x3eb6b0c4	0.35681736
12	0x3f09fdc0	0.53902817
13	0x3e8cca58	0.27498126
14	0x3e78d2f3	0.2429922
15	0x3d3a6857	0.045509662
16	0x3e2159b0	0.1575687
17	0x3f841374	1.0318437
18	0x3d0a6199	0.033784483
19	0x3dc737be	0.09727429
20	0x3da4bd6f	0.08043944
21	0x3e065801	0.13119508
22	0x3ddf52c4	0.10904458
23	0x3e0a074d	0.13479348
24	0x3d61057b	0.054936867
25	0x3d8ad464	0.067787915
26	0x3e5875d2	0.21138695
27	0x3d8c7231	0.06857718
28	0xbd8daffe	-0.069183335
29	0x3dbef387	0.09323793
30	0x3e65e600	0.2245102
31	0x3de6bbcb	0.112662874
32	0x3e19b5e9	0.150108
33	0x3e3b34c8	0.18281853
34	0x3e06c4d4	0.13161021
35	0x3d8eab36	0.0696625
36	0x3f25085b	0.64465874
37	0x3f0329f8	0.51235914
38	0x3e0ff782	0.1405926
39	0x3df4a3b2	0.11945285
40	0x3d8638a5	0.06553773
41	0x3deca258	0.11554402
42	0x3e655f1e	0.22399566
43	0x3d1efb66	0.03881397
44	0x3d8a921e	0.06766151
45	0x3e32acb8	0.174487
46	0x3df63293	0.12021365
47	0x3df9d59e	0.12198947
48	0x3e1bc525	0.15211923
49	0x3dfe33ba	0.1241221
50	0x3e1dc1cd	0.1540596
51	0x3dda08da	0.106462196
52	0x3f1f900b	0.6232917
53	0x3e8137b9	0.25237826
54	0x3dc9e61f	0.09858345
55	0x3dd560fd	0.1041889
56	0x3e2181c0	0.15772152
57	0x3dabb98e	0.08385001
58	0x3e1e3af2	0.15452173
59	0x3d861235	0.065464415
60	0x3ec0a8d8	0.37628818
61	0x3e244c7b	0.160448
62	0x3e58e53b	0.21181194
63	0x3f771fc7	0.96532863
64	0x3d4c3d90	0.049863398
65	0x3e3cd4e3	0.18440585
66	0x3e12b822	0.14328054
67	0x3e0d2655	0.13784154
68	0x3ddf4764	0.109022886
69	0x3d94fd4e	0.072748765
70	0x3dd9ba45	0.10631231
71	0x3d68ade4	0.05680646
72	0x3e47794b	0.19479863
73	0x3f2e00b1	0.67969805
74	0x3dcf1d16	0.101129696
75	0x3eb0f366	0.34560698
76	0x3dac6b1f	0.08418869
77	0x3e2d6546	0.16933164
78	0x3d819274	0.06326762
79	0x3e0a7f1c	0.13525051
80	0x3b001b17	0.0019547397
81	0x3acc6a4d	0.0015595645
82	0x3de5e49d	0.11225245
83	0x3e670dda	0.22563878
84	0x3e86d132	0.26331478
85	0x3dde31d2	0.10849346
86	0x3dcc5dd0	0.09978831
87	0x3d12b99b	0.03582154
88	0x3ee80ded	0.45323125
89	0x3e789218	0.2427448
90	0x3e08460d	0.13307972
91	0x3eaa0664	0.33208
92	0x3e25e997	0.16202389
93	0x3e1b0170	0.15137267
94	0x3dc365eb	0.09540924
95	0xbc1019aa	-0.008795181
96	0x3de27ab2	0.110585585
97	0x3dd9c497	0.106332
98	0x3e008ab3	0.1255291
99	0x3df2d63e	0.1185727
100	0x3e53e8d2	0.20694283
101	0x3e1a7e48	0.15087235
102	0x3e7b7ae6	0.24558601
103	0x3e1cb654	0.15303928
104	0x3f1846fc	0.59483314
105	0x3dcfdfe2	0.10150124
106	0x3d819230	0.06326711
107	0x3e8d689b	0.2761887
108	0x3d82c0a1	0.06384397
109	0x3e282180	0.16419029
110	0x3e6720a7	0.2257105
111	0x3e3ad9ad	0.18247099
112	0x3e26094c	0.16214484
113	0xbdf8aec5	-0.1214271
114	0x3d9efd57	0.077631645
115	0x3df1bdba	0.118037656
116	0x3e012d6f	0.12614988
117	0x3e23842d	0.1596839
118	0xbe75f783	-0.240202
119	0x3e3f6cef	0.18693899
120	0x3daf5289	0.08560664
121	0x3e1186ee	0.14211628
122	0x3e4c3b46	0.19944486
123	0x3d57ec0b	0.052715342
124	0x3e376ba0	0.1791215
125	0x3e250831	0.16116406
126	0x3e3adca1	0.18248226
127	0x3e21994f	0.15781139
128	0x3dedcd73	0.11611452
129	0x3e474c9f	0.19462822
130	0x3e152d0b	0.14567964
131	0x3d8196ad	0.06327567
132	0x3d116de8	0.035505205
133	0x3e1cf302	0.15327075
134	0x3eeeeabb	0.4666346
135	0x3c6627cc	0.014047574
136	0x3e312bd0	0.1730187
137	0x3d610589	0.05493692
138	0x3dc2799c	0.094958514
139	0x3d3fb398	0.046802133
140	0x3f0e76d8	0.5565009
141	0x3cfd40a2	0.030914608
142	0x3dfb444c	0.12268886
143	0x3e42d129	0.19025101
144	0x3d8c9cd9	0.06865854
145	0x3dd6137a	0.104529336
146	0x3e82abdd	0.25521746
147	0x3e027575	0.12740119
148	0x3e944bed	0.28964177
149	0x3de04d4d	0.10952244
150	0x3e348fe5	0.17633016
151	0x3e2bcd05	0.16777427
152	0x3e2dc16c	0.16968316
153	0x3d91d871	0.07121361
154	0x3d906dde	0.070522055
155	0x3e0b3c61	0.13597251
156	0x3d576200	0.052583694
157	0x3e0f8004	0.14013678
158	0x3d94eca5	0.07271699
159	0x3d988fb2	0.07449283
160	0x3dca87fb	0.098892175
161	0x3dbf7cd5	0.09349982
162	0x3d756b42	0.059916742
163	0x3e2b3f99	0.1672348
164	0x3e90d459	0.28287008
165	0x3e6fd54a	0.23421207
166	0x3dd4ba4c	0.10387096
167	0x3f14b376	0.58086336
168	0x3e27407b	0.16333191
169	0x3d89191d	0.06694243
170	0x3d43ccf7	0.04780289
171	0x3d7035fb	0.05864523
172	0x3ca4d05e	0.020118888
173	0x3dcbdfeb	0.09954818
174	0x3dc20aab	0.09474691
175	0x3e05beb9	0.13061036
176	0x3dc924d1	0.09821475
177	0x3d4ca0b3	0.049957942
178	0x3dc11a82	0.09428884
179	0x3e5c6ee5	0.21526678
180	0x3d999a13	0.075000905
181	0x3d6e3c84	0.05816318
182	0x3da4a83c	0.08039901
183	0x3d309f84	0.043120876
184	0x3d98bed7	0.07458275
185	0x3d39a28c	0.045321032
186	0x3d4bcfd7	0.04975876
187	0x3e93358a	0.28751785
188	0x3d9d5953	0.07683053
189	0x3e0aa658	0.13540018
190	0x3e6833a7	0.22675954
191	0x3dcd6ef4	0.10030928
192	0x3de4a67d	0.111645676
193	0x3d2bc80c	0.041938826
194	0x3e212a4c	0.15738791
195	0x3cd24c8c	0.025671266
196	0x3da3b2c2	0.0799308
197	0x3c44038d	0.011963737
198	0x3d13753c	0.036000475
199	0x3e3379ea	0.17526975
200	0x3e2ce9ef	0.16886114
201	0x3d93f5b8	0.072246015
202	0x3da0c68e	0.07850371
203	0x3f3b8975	0.7325662
204	0x3dc8679a	0.097853854
205	0x3dc7c95a	0.09755202
206	0x3d9969c1	0.07490874
207	0x3e4699d5	0.1939462
208	0x3ec27db8	0.3798654
209	0x3e1973ad	0.14985533
210	0x3df0da91	0.11760438
211	0x3e0a7283	0.13520245
212	0xbe860893	-0.26178417
213	0x3f75c318	0.96000814
214	0x3e0fd71e	0.14046904
215	0x3e0fb1cf	0.14032672
216	0x3db55002	0.08853151
217	0x3e2499c3	0.1607428
218	0x3e7dcb89	0.24784674
219	0x3d80eeca	0.062955454
220	0x3d633b23	0.05547632
221	0x3e3c0b76	0.18363747
222	0x3ddbe3ca	0.10736807
223	0x3d4db02e	0.050216846
224	0x3e108a14	0.14115173
225	0x3e19abb7	0.1500691
226	0x3d0b6cbd	0.034039248
227	0x3daffda3	0.08593299
228	0x3d8a2348	0.067450106
229	0x3e3cec73	0.18449573
230	0x3e36ecb1	0.17863728
231	0x3dda4b79	0.106589265
232	0x3e9c389f	0.30511948
233	0x3e017a9c	0.12644428
234	0xbdb4d698	-0.08829993
235	0x3e11bd64	0.14232403
236	0x3dfe07cb	0.1240383
237	0x3df951e3	0.12173822
238	0x3e0ece65	0.13945921
239	0x3e18e1b0	0.14929843
240	0x3dc36062	0.09539868
241	0x3d028a88	0.031870395
242	0x3d94875f	0.072523825
243	0x3e58cd1e	0.21171996
244	0x3dcfe324	0.101507455
245	0x3de34c8a	0.11098583
246	0x3dc862c7	0.09784465
247	0x3e97c5f2	0.29643208
248	0x3ddc4b1c	0.107565135
249	0xbdaabfd7	-0.08337372
250	0x3de5a21f	0.11212563
251	0x3e0504ac	0.12990063
252	0x3ded004d	0.11572323
253	0x3f97d190	1.1860828
254	0x3dff89a3	0.12477424
255	0x3eb11721	0.34587958

bn1.bias f4 [256]
0	0x3d66047f	0.05615663
1	0xbd209fcc	-0.039214894
2	0x3a77f3b4	0.0009458617
3	0x3c4436d9	0.011975967
4	0x3eccf6d7	0.40032074
5	0x3e83bde9	0.25730827
6	0x3d37901d	0.04481517
7	0x3d99b574	0.075053126
8	0xbd2a9dda	-0.041654445
9	0x3d113087	0.03544667
10	0x3be4f807	0.006987575
11	0x3e79a314	0.24378616
12	0xbce9b500	-0.02852869
13	0x3cf5c667	0.030001832
14	0x3da4975f	0.08036684
15	0x3c3e8d2f	0.0116303405
16	0x3d827b4d	0.06371174
17	0x3e6beaf0	0.2303884
18	0x3b31043b	0.0027010578
19	0x3c28e35d	0.010308114
20	0xbd7f87a0	-0.0623852
21	0x3d536b4a	0.05161599
22	0x3c0f7c61	0.008757682
23	0x3d165788	0.03670457
24	0xbcd2a33f	-0.025712607
25	0x3c540cc1	0.012942494
26	0x3dda7123	0.1066611
27	0x3d1968a7	0.03745332
28	0xbc84e6de	-0.016223367
29	0x3d2033e8	0.039112
30	0x3d4bdc99	0.049770925
31	0xbcc077b5	-0.02349458
32	0x3e045b9e	0.12925574
33	0x3daff629	0.08591873
34	0x3db6f2cc	0.089330286
35	0x3c3bf8d7	0.011472902
36	0x3e96b853	0.29437503
37	0x3ec337ca	0.381285
38	0x3d983ed8	0.074338615
39	0x3d879a20	0.06621194
40	0x3c5d55f2	0.0135092605
41	0x3d4a103c	0.04933189
42	0x3d518941	0.051156286
43	0x3c50f4d0	0.01275368
44	0x3c94f634	0.018183805
45	0x3e292505	0.16518028
46	0x3cd093c5	0.025461087
47	0x3c6ff969	0.014646866
48	0x3d17ac3f	0.0370295
49	0x3cb69de6	0.022292089
50	0x3d7e6f01	0.06211758
51	0x3da68297	0.08130377
52	0x3ec6a079	0.38794306
53	0x3e253346	0.1613284
54	0x3caf701a	0.021415759
55	0x3daec547	0.085337214
56	0x3e920d6c	0.28525865
57	0x3c9ae258	0.018906757
58	0x3c957541	0.018244388
59	0x3c972eed	0.018454993
60	0x3e67486f	0.22586225
61	0x3d9a6d5b	0.07540389
62	0x3dee7e72	0.11645211
63	0xbd48db38	-0.04903719
64	0x3c6a72a3	0.014309558
65	0x3d779ecd	0.06045418
66	0x3d576016	0.05258187
67	0x3da6c91a	0.08143826
68	0x3ce3ed5f	0.027823148
69	0x3d1abdb5	0.037778575
70	0xbc256a21	-0.010096104
71	0x3bef6c8f	0.0073066424
72	0x3d59ac0b	0.05314259
73	0x3e472e6a	0.194513
74	0x3d543e71	0.05181736
75	0x3f0a6649	0.54062325
76	0xbd0ba788	-0.034095317
77	0x3d401c5c	0.046902046
78	0x3bfab6ec	0.0076512005
79	0x3d535c1d	0.051601518
80	0x3bb16180	0.0054132342
81	0xba80bbbb	-0.0009821573
82	0x3cac760c	0.021052383
83	0x3dbb0b8b	0.09133061
84	0x3e015926	0.12631664
85	0x3c5582b1	0.013031648
86	0x3c8ab648	0.016932622
87	0x3c18df46	0.009330576
88	0x3eb671ae	0.35633606
89	0xbb4b5cce	-0.0031030658
90	0xbd25ef57	-0.040511455
91	0x3e3ecb56	0.18632254
92	0x3d59d8e8	0.053185374
93	0x3ce90f92	0.028449807
94	0xbaab991a	-0.0013091892
95	0x3ab67393	0.0013919942
96	0x3c4c0c22	0.012454065
97	0x3d6a2990	0.057168543
98	0x3c8eb182	0.017418627
99	0x3d9a28ca	0.07527311
100	0x3d1527fc	0.036415085
101	0x3d08e7bc	0.033424124
102	0x3dd6ff2c	0.10497889
103	0x3dfbc2d7	0.12293022
104	0xbe19f782	-0.15035823
105	0x3d844cee	0.06459986
106	0x364a9ef6	3.0192873e-06
107	0x3e0c2b35	0.13688357
108	0x3c63f249	0.013912746
109	0x3d48e99e	0.04905092
110	0x3e3f495e	0.18680331
111	0x3dfdcb28	0.123922646
112	0x3e916ec2	0.28404814
113	0x39677d8d	0.00022076648
114	0x3e065ab4	0.13120538
115	0x3d828594	0.06373134
116	0x3d42abc4	0.04752709
117	0x3d22befa	0.03973291
118	0x3a82c475	0.0009976762
119	0x3d4dff5a	0.05029235
120	0x39108bad	0.00013784943
121	0x3c8ff36f	0.017572133
122	0x3e32c841	0.17459203
123	0x3cc22d30	0.023703188
124	0x3d28b3e9	0.0411872
125	0x3d32903c	0.043594584
126	0xbbe66cd3	-0.007032016
127	0x3ccee9db	0.025257995
128	0x3d06c111	0.032898966
129	0x3cd777a7	0.026302172
130	0x3dbc9633	0.09208336
131	0x3dacbf62	0.08434941
132	0x3ce8ca75	0.028416852
133	0x3d48ea57	0.04905161
134	0xbd16f195	-0.036851484
135	0x3ba98435	0.005173231
136	0x3ebcaed1	0.36852124
137	0x3c397013	0.0113182245
138	0x3c90385b	0.017604997
139	0x3b8dbba1	0.0043253456
140	0xbc880dd1	-0.01660815
141	0x3bbdb2cc	0.0057891365
142	0x3d4484bd	0.04797815
143	0x3d5826ea	0.052771486
144	0x3c853bcc	0.016263865
145	0x3c5ef4b5	0.013608147
146	0x3d8c72a3	0.06857803
147	0x3cc877e6	0.024471235
148	0x3d83cea6	0.064358994
149	0x3ce0270b	0.027362367
150	0x3ca51615	0.020152131
151	0x3d1f84f7	0.038945165
152	0x3c863ce7	0.016386462
153	0x3caacb63	0.020848935
154	0x3be6562a	0.0070293145
155	0x3d595748	0.053061754
156	0x3b2f307c	0.002673178
157	0x3ac682ac	0.0015145144
158	0x3c84c085	0.016205082
159	0x3dc55493	0.09635272
160	0x3daaabf9	0.083335824
161	0x3d12cdb1	0.035840694
162	0x3b9bdb5c	0.0047563743
163	0x3ad6666f	0.0016357432
164	0x3d8c72f3	0.06857862
165	0x3da98020	0.08276391
166	0x3cf99943	0.030468589
167	0x3db9051b	0.09034177
168	0x3d74c864	0.05976142
169	0x3bc1262f	0.0058944444
170	0x3c136e29	0.008998432
171	0xbc541989	-0.012945541
172	0x3dcf24d8	0.10114449
173	0x3ccfffc4	0.025390513
174	0x3b8a1ea7	0.00421508
175	0x3d48bb76	0.0490069
176	0x3ca1ba68	0.019742206
177	0xb9aa9854	-0.0003253842
178	0x3d531698	0.05153522
179	0x3de2c380	0.11072445
180	0x3ca14d4f	0.019690184
181	0x3c92937e	0.017892595
182	0x3c9d1aa4	0.019177742
183	0x3bf22749	0.007389937
184	0x3c4403fc	0.011963841
185	0x3bd8625a	0.0066035213
186	0xbcf091e4	-0.029366441
187	0x3e898066	0.26855773
188	0xb95b851c	-0.00020935055
189	0x3d18d0ed	0.037308622
190	0x3def2e63	0.116787694
191	0x3d4a6c6f	0.049419817
192	0x3d1e9c41	0.038723234
193	0x3cdd0817	0.026981397
194	0x3def90b8	0.11697525
195	0x3bbaddc7	0.0057027075
196	0x3cce06bb	0.025149694
197	0x3a91da19	0.001112762
198	0x3bbf28ea	0.0058337348
199	0x3e471987	0.19443332
200	0x3cdfb36f	0.02730724
201	0x3c6ae03c	0.014335688
202	0x3c9c3757	0.019069357
203	0x3e074313	0.1320918
204	0x3ec67956	0.38764447
205	0x3b89aeef	0.004201762
206	0x3c91393a	0.017727483
207	0x3ced159e	0.028940972
208	0x3e07229a	0.13196793
209	0x3ca74ce5	0.020422408
210	0x3c31cece	0.010852529
211	0x3d1bc554	0.038029984
212	0xbe2469a5	-0.16055925
213	0x3e53acf5	0.20671447
214	0x3e1d0357	0.15333305
215	0x3cd56b25	0.026052067
216	0x3c8967f0	0.016773194
217	0x3d13571f	0.035971757
218	0x3db3189a	0.08744927
219	0x3a8df9c7	0.0010831886
220	0x3bbded89	0.0057961387
221	0x3e1985b6	0.14992413
222	0x3d7ca628	0.061681896
223	0xbb8d775c	-0.0043172073
224	0x3deb11b6	0.114779875
225	0x3d2c6844	0.042091623
226	0x3ba0fc05	0.0049128556
227	0x3c5d7e6b	0.01351891
228	0x3c010cd8	0.007876597
229	0x39a81d49	0.00032065276
230	0x3d2b373e	0.04180073
231	0xbb8a2ec5	-0.004217001
232	0x3e0ed0da	0.13946858
233	0x3d628f02	0.055312164
234	0x39713f87	0.00023007217
235	0x38b4eaab	8.626779e-05
236	0x3d09d7df	0.033653136
237	0x3c8cc89c	0.017185502
238	0x3d2490e4	0.04017724
239	0x3d319b06	0.043360732
240	0xbebee83a	-0.3728655
241	0x3cbe4e0b	0.023230573
242	0x3d09d33f	0.033648726
243	0x3ddea777	0.10871785
244	0x3d0279b8	0.03185436
245	0x3be0ce72	0.0068605477
246	0x3d192e40	0.037397623
247	0x3e83748d	0.2567486
248	0x3c8acf2a	0.016944487
249	0xbc6f0c58	-0.014590345
250	0x3cdc683e	0.026905175
251	0x3d3cb5f9	0.04607198
252	0x3c2582fb	0.010102029
253	0x3e114930	0.14188075
254	0x3d219538	0.039448947
255	0x3e89d287	0.26918432

bn1.running_mean f4 [256]
0	0x40ba3f86	5.8202543
1	0x404e0209	3.2188742
2	0x00000004	6e-45
3	0x3f3802fa	0.7187954
4	0x3fcda089	1.6064616
5	0x4000f028	2.014658
6	0x40f7098a	7.7199144
7	0x40788706	3.8832412
8	0x40aa5cd2	5.3238306
9	0x40e6b618	7.2097282
10	0x407509dc	3.8287268
11	0x40208059	2.5078337
12	0x41962b7c	18.771233
13	0x3e9619bd	0.29316512
14	0x40ae8311	5.4534993
15	0x3f6ad5c9	0.9173246
16	0x401053c6	2.2551131
17	0x4161aa09	14.1040125
18	0x4029fb2a	2.6559548
19	0x3eafd08b	0.34338793
20	0x3f11b159	0.56911236
21	0x40a41547	5.1275973
22	0x3f00e5a2	0.5035039
23	0x400b34a1	2.1750872
24	0x3fb9fb1b	1.4529756
25	0x3f62bec0	0.8857231
26	0x404d5005	3.208009
27	0x40872061	4.2227025
28	0x40925816	4.5732527
29	0x410b8763	8.720553
30	0x3f72afc3	0.9479944
31	0x40d6ed43	6.7164626
32	0x40eda866	7.4268064
33	0x41093572	8.575548
34	0x40bfcadc	5.993513
35	0x3f8c3c81	1.0955964
36	0x3fa05481	1.2525789
37	0x3fbbffb2	1.4687407
38	0x40f4e62e	7.653098
39	0x40f09239	7.5178494
40	0x408ea5db	4.457746
41	0x3f7d63b5	0.98980266
42	0x4000c494	2.0119982
43	0x3fc7c252	1.5606177
44	0x3ee4c1c1	0.44679072
45	0x4000ec38	2.0144176
46	0x3f8c4c4f	1.0960788
47	0x3e70d9f1	0.23520638
48	0x3f82a57a	1.020675
49	0x3fa2cd46	1.2718894
50	0x3fe23731	1.7673093
51	0x41041e25	8.2573595
52	0x3fb048ca	1.3772213
53	0x3fd86aba	1.690757
54	0x3f3d8771	0.7403479
55	0x41018639	8.095269
56	0x40a77094	5.2324924
57	0x3f248524	0.64265656
58	0x3fafee2a	1.3744557
59	0x3fdc3f84	1.7206883
60	0x3f1827e6	0.5943588
61	0x4079d286	3.9034743
62	0x4083698f	4.1066356
63	0x4181c2d9	16.22014
64	0x3ef770d7	0.48328277
65	0x3ffbd700	1.9674988
66	0x3fa95575	1.3229204
67	0x40a287d7	5.079082
68	0x40121af7	2.2828958
69	0x40b729ab	5.7238364
70	0x42373212	45.798897
71	0x4133905f	11.222747
72	0x3fa591f9	1.2935172
73	0x3f538bb4	0.82635045
74	0x408af30f	4.3421702
75	0x4183adfd	16.459955
76	0x3ff64990	1.92412
77	0x408768d5	4.231547
78	0x3eeb245a	0.45926172
79	0x40b0ad6a	5.5211687
80	0x401c3236	2.4405646
81	0x210869a8	4.6218427e-19
82	0x3f06383e	0.5242957
83	0x401eb751	2.4799387
84	0x41842f0c	16.522972
85	0x3fed63e0	1.8546104
86	0x3e8b623f	0.27223393
87	0x3f271957	0.6527304
88	0x41f26b48	30.302383
89	0x00000004	6e-45
90	0x40ed6a5f	7.4192348
91	0x40a18fe6	5.0488157
92	0x405056f2	3.2553067
93	0x3f6a2649	0.9146467
94	0x3a3b5e2d	0.0007147517
95	0x407bbfe9	3.9335883
96	0x40e9f780	7.3114624
97	0x40c005f8	6.0007286
98	0x4092c1ae	4.5861425
99	0x40c800e6	6.2501097
100	0x405bd8d3	3.435109
101	0x4001cf5a	2.0282807
102	0x3fbabe80	1.4589386
103	0x40318a84	2.7740793
104	0x4023a7db	2.55712
105	0x3f9a55db	1.2057451
106	0x3f0364a1	0.5132542
107	0x3f8dd534	1.108069
108	0x3f74c20d	0.956086
109	0x400aa1f9	2.166136
110	0x40b76044	5.730501
111	0x40bc9b28	5.89394
112	0x40ce75bf	6.4518733
113	0x00000004	6e-45
114	0x40a7286e	5.2236853
115	0x410f8c98	8.971825
116	0x3fc041ea	1.5020115
117	0x3f7439e0	0.9540081
118	0x00000004	6e-45
119	0x3f98c3fe	1.1934812
120	0x3fcb802d	1.5898491
121	0x4015dbdc	2.3415442
122	0x40aad8e8	5.338978
123	0x40d3e4cd	6.62168
124	0x3f75d83b	0.96033067
125	0x404f68cd	3.2407715
126	0x3f905189	1.1274883
127	0x3f3ba77e	0.7330245
128	0x408d44ff	4.4146724
129	0x3edcb293	0.4310499
130	0x40996ff8	4.794918
131	0x405444f4	3.3167086
132	0x41229923	10.162387
133	0x3e62a65d	0.22133775
134	0x41935885	18.418222
135	0x40c64f11	6.1971517
136	0x4132e8c5	11.1818285
137	0x3fc49ffb	1.5361322
138	0x3f23168b	0.6370627
139	0x3cdf5af9	0.027265059
140	0x3ff576f3	1.9176925
141	0x407c4e9d	3.9422982
142	0x40b5ef22	5.685441
143	0x414468e7	12.275611
144	0x4093feec	4.6248684
145	0x3f676ded	0.9040211
146	0x4021a36a	2.525599
147	0x3f76ec05	0.9645389
148	0x3f46cb08	0.7765355
149	0x400cb969	2.1988165
150	0x3d0139dc	0.03154932
151	0x3f61eeff	0.88255304
152	0x3e1f8809	0.15579237
153	0x413b1ed5	11.695027
154	0x3ed93a6d	0.42427388
155	0x3f4bd019	0.79614407
156	0x3d2388e9	0.03992549
157	0x00000004	6e-45
158	0x3e591d01	0.2120247
159	0x408df468	4.4360847
160	0x4000deaa	2.0135903
161	0x412b07df	10.689422
162	0x3ec62257	0.38698074
163	0x39eb3980	0.00044865534
164	0x3f294def	0.6613454
165	0x4096aae8	4.7083626
166	0x40172ef2	2.3622403
167	0x4037f073	2.8740509
168	0x4135565c	11.333584
169	0x4221a92b	40.415203
170	0x3ebd4d33	0.3697296
171	0x41ad9064	21.695503
172	0x3aefcad2	0.0018294698
173	0x407230d2	3.7842298
174	0x289ad947	1.7191664e-14
175	0x3fdf5a0c	1.7449355
176	0x3e501f4d	0.2032444
177	0x3b7f1fe3	0.0038928918
178	0x4126916e	10.410505
179	0x3c060453	0.008179742
180	0x3fe7e556	1.8116863
181	0x3f8604f9	1.0470268
182	0x418d8779	17.691149
183	0x3e57fa98	0.21091688
184	0x3ec83a7e	0.39107126
185	0x3ef1b62f	0.47209308
186	0x4080e69b	4.02815
187	0x4001c41f	2.0275953
188	0x39d70f39	0.00041019337
189	0x400d3cc1	2.2068331
190	0x4023802e	2.5546985
191	0x40d090a0	6.5176544
192	0x40d0bf35	6.5233407
193	0x409d0076	4.9063063
194	0x40fb6aee	7.856803
195	0x3ea44ac2	0.32088286
196	0x404e631e	3.2247996
197	0x3fe0e04c	1.756845
198	0x3ed3df3c	0.41381252
199	0x40031680	2.0482483
200	0x3ed6b0ed	0.4193186
201	0x3fc4115b	1.5317796
202	0x3f97e6f9	1.1867362
203	0x41a5de55	20.73356
204	0x39997573	0.0002926994
205	0x4002040a	2.0314965
206	0x3fa90736	1.3205326
207	0x3f94c653	1.1623024
208	0x3f4ac30b	0.7920386
209	0x3ed0372d	0.40667096
210	0x3fe2892a	1.7698109
211	0x4045ae20	3.0887527
212	0x3f87efeb	1.0620092
213	0x417b346f	15.700301
214	0x4120519a	10.019922
215	0x40c8e952	6.2784815
216	0x3f41678a	0.75548613
217	0x3fb668da	1.4250748
218	0x40a3d8e1	5.1202245
219	0x412a76a7	10.653968
220	0x3fad1a3a	1.3523629
221	0x3e94c784	0.29058468
222	0x40883dae	4.2575293
223	0x3fc46f3d	1.5346447
224	0x40f1cf15	7.5565286
225	0x3f7eb42e	0.9949368
226	0x3ef70393	0.48244914
227	0x3f2cb2b0	0.67460155
228	0x3eb65210	0.35609484
229	0x00000004	6e-45
230	0x405bbc21	3.4333575
231	0x3fd75c5d	1.6825062
232	0x40b61c8d	5.690985
233	0x409699a6	4.706256
234	0x310dfee9	2.06631e-09
235	0x3cbd761d	0.02312761
236	0x3ffcbfe5	1.9746062
237	0x3fa3a5de	1.2784994
238	0x3f635518	0.8880172
239	0x40b6874c	5.7040157
240	0x4038c0ce	2.8867679
241	0x40bb6fe2	5.8574076
242	0x40c02cec	6.0054836
243	0x411f14af	9.94255
244	0x3ff7ac4a	1.9349453
245	0x3e1a259d	0.15053411
246	0x40795602	3.8958745
247	0x40d85a2d	6.761008
248	0x3e1e8db1	0.15483738
249	0x3ee01c52	0.43771607
250	0x3fdad734	1.7096925
251	0x40bb7a56	5.8586836
252	0x3e0db48c	0.13838404
253	0x413e678a	11.900278
254	0x40c53475	6.1626534
255	0x3f2571d2	0.646268
