checkpoint_actor_1_2021-06-21_01-46-51.pth (torch_old, 163992 bytes, 10 tensors)

fc1.weight f4 [256, 24]
00000000: bd39 a63d 956b af3b 330c adbc bdec a43d
00000010: 88fe 5ebe e27b 4d3f 7ce3 06bd ade8 f13d
00000020: 934d ee3d ac2b 2bbc 8166 51bd 371f bfbc
00000030: c3c4 503e beed 133f ce21 c7bc 5a13 dc3b
00000040: 8ccc 293e e97d adbc c1aa feb8 daee 893e
00000050: a4ab 363f d6a8 783e a654 833d 0b72 8a3e
00000060: daf4 8e3e b175 763d 462e 63bd 7db6 e5bc
00000070: 8c4a 083c 1be1 ebbc ab25 063c b9a7 86bd
00000080: 5421 c83e fd69 a43e 26ed 7837 c3d9 2d3e
00000090: bbfd 3abd 255a 97bd bfcc 15bd d91e 4f3e
000000a0: 9953 de3e baac 623e 14c2 48bd 30ff 643c
000000b0: 4ba5 8fbd e843 a2bc 3177 2e3d 4fc3 86bd
000000c0: 9e73 c83e 8987 113f 0bd8 4abc 01d5 1dbd
000000d0: 181d b739 76a9 f4bd 82c9 613d d2e0 7d3c
000000e0: 0aaf f83e 3812 043f bb4d 9abd 7bc6 c43d
000000f0: 58e5 6ebe 426e bcbe e23f eabc 6ec8 263d
00000100: e9be 0f3f e8e6 043f 5c00 04bd 3bbd d73d
00000110: 1972 bdbe 4d01 66bf 06b8 66bd 491d ed3d
00000120: 4113 d83a 71f7 80be 4c9f 15bd fac0 9a3d
00000130: ce0c 133e 3a19 6c3e 8e18 27bd 9d85 083d
00000140: 0751 3b3d 6429 a93c 3e3f 10be 7fdb 223e
00000150: d581 4dbd 79dd 4e3f 5a39 0cbe da25 1a3e
00000160: 0de3 a63d 7066 ef3d e456 97bd 5631 103e
00000170: fb8a 47be 1dec a03f 0936 f3bc dc57 2b3e
00000180: 665f 1f3f b3f9 e13e 7315 0b3e 9e56 023e
00000190: eedc 743d a7d0 c2bd c810 2c3e da29 413d
000001a0: 3b64 173f 8120 b03e 98a8 d1bc 9cdf 3b3d
000001b0: bde2 a33d 9327 5bbe bcf5 333c 08a8 0b3d
000001c0: 618b 123f 9553 703e 57ab a6bb 4ef8 8abe
000001d0: 45b0 cebd de6e 323f 983b e6bc ad13 8cbe
000001e0: 7ac0 063e ccfe 1ebf f57f c93d 1347 413e
000001f0: 7597 1fbe eafc 593e 30f7 383d 467b e83d
00000200: de9c 843e ad6c 09bf 9cec 19be fbd6 483d
00000210: 1516 84be 82fa 063e 135e 6fbe 0355 9b3c
00000220: 689b 883e c618 dbbe f2dd 7abc d5b8 c73e
00000230: 929e 05bf 7cb1 e13d 1c71 953c 1823 be3e
00000240: 0752 78bd ae4c fb3d 7b9f 5abe 9a70 41be
00000250: 61fa 3ebe 1f68 75be 8ebc 96be 7769 33be
00000260: d372 5c3d d8b9 afbd 8b06 d5bd d111 533d
00000270: 8b54 bf3b 6b37 9bbf 06f4 b0bd 08c4 523d
00000280: fc9d 98bd bdd7 c9bd 8ce0 a7bd 515b 4dbc
00000290: abd9 00be 5de7 56bf 27b3 e4bb 4fd1 66bc
000002a0: 483b 043e 25a4 25bf 0da8 da3d b6e5 4ebe
000002b0: 77b5 a6be dc3a fbbe a079 c63d 7132 f3bd
000002c0: 3b78 543e ff6e 0bbf af25 bcbd f48f fa3d
000002d0: cfdc cbbe 5de3 8dbd 53e9 5ebd 0f47 783d
000002e0: c422 223e 2b2a 08bf d82e bbbd c8d3 623e
000002f0: 7a3b e6be 5ca9 a13e 9e9c c3bd 81d2 483e
00000300: 9d2e 9fbc e7ab 61be 05dd 203d 6eca 4bbe
00000310: 03ea 003f f051 04bf 5ddf f23c 7740 66be
00000320: bbee f93d a98d 56be b145 943d 81fe 04be
00000330: 5ac2 b63e a47d 5fbf 1fef cd3d 735d 28be
00000340: 3a92 493e 0786 56be aa15 b9bd 3286 f5bc
00000350: 0566 8b3d 65de 5dbd aa58 43be 67b1 5fbd
00000360: 130f cdbd 894a 553f ed4b ddbb 8573 a53d
00000370: 50f9 95bd d183 43be 8f27 46bd 422e e83d
00000380: 1ae4 02be 83b2 823f 6472 97bd 12fa 133e
00000390: ce2c 853c 2e62 07bf 6e3b 66bc 50b3 8c3d
000003a0: 6eda d6bd 1c65 823f 6529 71bc d6c6 963c
000003b0: 8af9 bdbd efb8 9bbf dbb4 be3b 8998 263d
000003c0: b868 163e 4036 853d 66cb 83bc 1e66 453d
000003d0: 8b50 1abf 9f7f 163f 79bf 323d a9fc 943b
000003e0: b4ae 1e3e 59da 763c 8739 cabc 9249 8c3d
000003f0: 1591 81bf 28d2 a33e b9d0 f8bc 15ba a73c
0.081164815 0.005353401 -0.021123981 0.08052967 -0.21776783 0.80267155 -0.03293179 0.118119575
0.1163589 -0.010447424 -0.051123146 -0.023330314 0.20387559 0.5778464 -0.024308112 0.006716174
0.16581935 -0.021178203 -0.00012143469 0.26940042 0.7135565 0.24283156 0.0641263 0.27040133
0.27921182 0.060170833 -0.05546405 -0.028041119 0.008318555 -0.028793862 0.008187692 -0.06574959
0.39087927 0.32112113 1.4837167e-05 0.16977601 -0.045652132 -0.073902406 -0.036572214 0.20226611
0.43423155 0.22136202 -0.049013212 0.013976857 -0.07013949 -0.01980777 0.04259414 -0.06580221
0.3915071 0.56847435 -0.01238061 -0.038533214 0.00034926157 -0.119463846 0.055123813 0.015495496
0.48571044 0.515903 -0.07534357 0.0960817 -0.23329675 -0.3680287 -0.028594915 0.04071849
0.5615068 0.51914835 -0.032226905 0.1053414 -0.37001112 -0.89845735 -0.056327842 0.11577851
0.001648523 -0.25188783 -0.03652887 0.075563386 0.14360353 0.23056498 -0.0407949 0.03333055
0.04573157 0.02064962 -0.14086625 0.15904044 -0.050172646 0.8080669 -0.13693753 0.15053502
0.08148775 0.1168946 -0.0738962 0.1408132 -0.1948661 1.2572056 -0.029688852 0.16732734
0.6225494 0.44135818 0.13582401 0.12728354 0.059781007 -0.095124535 0.16803277 0.047159053
0.59137315 0.343998 -0.025593087 0.045867547 0.08002231 -0.21401815 0.010983881 0.034095794
0.57243925 0.23469384 -0.0050863433 -0.27142566 -0.100922145 0.6970042 -0.028104588 -0.2735876
0.13159361 -0.6210754 0.09838859 0.18874769 -0.1558512 0.21287885 0.04515761 0.113516375
0.2590093 -0.5368145 -0.15031666 0.049033146 -0.25798097 0.13181499 -0.2337573 0.018961435
0.26681066 -0.42792338 -0.015311705 0.39008203 -0.52195084 0.110201806 0.018242411 0.3713615
-0.060625102 0.12270485 -0.213499 -0.1889061 -0.186502 -0.239655 -0.2944073 -0.175207
0.053820442 -0.08580369 -0.104016386 0.051530663 0.0058389357 -1.2126287 -0.08640294 0.05145648
-0.07452008 -0.09855602 -0.08197126 -0.012533979 -0.12583034 -0.8394678 -0.0069793644 -0.014087989
0.12913239 -0.6470359 0.106765844 -0.20204815 -0.32560322 -0.49068344 0.09691167 -0.11874855
0.2074899 -0.5446624 -0.09186875 0.12234488 -0.398169 -0.06928132 -0.054421734 0.06061464
0.15833575 -0.53189343 -0.09139794 0.221511 -0.44967252 0.31574523 -0.09551357 0.19611551
-0.019431407 -0.22038232 0.03927328 -0.1990144 0.50357074 -0.51687527 0.029647524 -0.22485529
0.12203737 -0.20952477 0.07239855 -0.1298771 0.35695153 -0.8730109 0.10055374 -0.16441898
0.19684687 -0.20949565 -0.09037335 -0.029971216 0.06806568 -0.05416717 -0.19076791 -0.054612543
-0.10012641 0.83316857 -0.006753436 0.08078674 -0.07322943 -0.19093253 -0.04837757 0.11336948
-0.12782326 1.0210727 -0.07394865 0.14450863 0.016256716 -0.52884185 -0.014052255 0.06870139
-0.10490881 1.0187106 -0.014719342 0.01840536 -0.092761114 -1.2165812 0.0058198995 0.040672813
0.14688385 0.06504488 -0.016088199 0.04819309 -0.6027915 0.58788484 0.043639634 0.004546721
0.15496331 0.015066707 -0.024685634 0.0684997 -1.01224 0.31996274 -0.030372964 0.020474473

fc1.bias f4 [256]
00000000: dd18 1bbf 3570 98bc 1245 93be 00af ddbe
00000010: 0b3b f6be 9e39 0bbf 0a31 0fbe f3dd c0bd
00000020: fb36 01bf a399 10bc 2614 18bf 662a 06bf
00000030: 640b 8bbe a14e c6be ccc1 6dbe f122 2bbe
00000040: 3fbf 163e bc42 a2be c4b6 2fbf 0ad9 573d
00000050: 8569 efbe f8ba e7be af39 34bf 2daf 25bf
00000060: f841 16bf 8bc8 83bf caf0 8ebd d79f b8bd
00000070: c31f 3abe 7d95 d73c 3950 7cbd 320d cfbe
00000080: b271 cb3e c584 9dbe 00fe d6be 60b1 d7be
00000090: 88af a1bd 4d1d 8fbd 70c1 b1be 1a23 93be
000000a0: ab43 43be 68da e4be c149 4ebf 366d 05bf
000000b0: 4c2f 13be 66c7 9cbe 494e 1cbe a9fd 16bf
000000c0: f906 41bf 3ece 273c 4128 91be f6a8 5abf
000000d0: 50ff ebbc 7332 d1be 89e5 1dbe deb6 9abe
000000e0: f915 933e 1286 2abf 580b b93e 3814 403e
000000f0: b002 58be 056d afbe 6667 dcbe 9068 9abe
00000100: 3f09 2dbf cdcf 333c 9f79 25be db85 83be
00000110: 2ecf 3cbe d3dc 03bf a509 bebe 377d dfbd
00000120: 703c 0abf 270d f1be b7ce a8be c112 a7be
00000130: 23cd 8bbe 496d 6dbe 32cf b7be 876a 3ebf
00000140: 5efa 4bbe 1b5f b0be e362 8cbd 6a14 10bf
00000150: 9768 123e 20cd 1f3e 6f00 593d 74f0 5cbe
00000160: 58c8 08bf 7ec6 a7be 15f0 c83c 304f 04bf
00000170: fc9c 0dbf 59b4 82be 563d 07bf 535e 1fbe
00000180: df0f 47bf 2b37 41bf 6af1 b9be 3f6d 83be
00000190: a5ad 14be fa89 41bf de71 00be 10f4 99be
000001a0: 805e 18be dcf3 f3be 92f5 81be cb4e 66bf
000001b0: 7f68 d4be cc70 92be 9144 a2be be0e 07bf
000001c0: 8ed0 46be 8be1 7dbe eda8 ed3b 2495 bcbe
000001d0: b058 f9be 5efb d5be 9154 88be c101 14be
000001e0: 6c6c fdbe e060 17bf a324 963d af28 b4be
000001f0: 1ca6 793c f74a b3be 28b7 00be aac0 40be
00000200: 1c83 48bf ca19 32be 130c d6be 845a 89be
00000210: 90dc 8bbe 1fe6 82be 24f9 0ebf 51ef 5ebe
00000220: 0a49 8dbe d8cb 10bf 77fe f5be 6a2e 0ebf
00000230: 330f 87be 949f 39be 3822 8a3d eaee adbe
00000240: c463 9abd 9326 05bf c99a afbe 9001 4fbf
00000250: 56ad 15be 12ec 2dbe 2aa3 97be 571b 06bf
00000260: f3e3 bfbe e768 31bf b0dc c73d 5ec3 8e3d
00000270: 9442 4fbf 6c10 e9bd 1623 abbe a7d4 cdbe
00000280: ffb7 01be 624e 10bf cbc5 b2bd 0d1b 03bf
00000290: e655 54be 74eb d9be 80f4 14bf 024d 8abe
000002a0: a73e a4be 6854 40be 7118 c2be d0fe 2cbf
000002b0: 7392 d8be 35da 343f 60c0 2bbe 8fb7 aebe
000002c0: 62b2 96bd 58a3 43bf a3bb 06bf 7215 12bf
000002d0: 2a57 85be 6c6f 3bbe 2015 29be 35de 16bf
000002e0: 3be5 b4be 720a 85be 6bd4 b2be da27 96be
000002f0: d440 b3be fbd3 0fbf d995 8bbd 5174 24be
00000300: 9ce6 2fbf fdad f1be eb2a 0ebe 7d7e 653c
00000310: 847f 0fbe 7665 7cbe 64fa 0abf 7003 33bf
00000320: ca3a 9bbe 0dbb ee3c 0663 e8be 08bc 1fbe
00000330: 2274 06bf b8a6 32be db45 bc3d c4c1 bbbd
00000340: b3cd 6ebc 6bcf 8cbf cf0f ffbe 4f6e c4be
00000350: 9f12 91bd 0241 d0be 62a5 aabe 08b3 77be
00000360: 9240 19bf 9cc8 9bbe 41a3 d0be a9da 0fbe
00000370: 4399 58be fda3 d0bd d07b bfbe 5f2a 0dbf
00000380: 1d1b 6ebe 4a55 04be 4b4b c2be 9010 b73c
00000390: 515a 5ebe 7677 20bf 32a3 15be f134 08bf
000003a0: 1164 70be ea8e 02bf d3f2 103e 15f2 47be
000003b0: d750 8dbe 1858 d0be 5f33 52be de26 ccbd
000003c0: bc6d e1be cee4 d6be cb4d d2be af6c 023e
000003d0: 5b62 ccbc 7693 d8be fecb 1fbf 38c8 bfbe
000003e0: 006a 5fbe 7f66 e1be 1208 b4be f5a8 dfbe
000003f0: f275 37be e7b8 c1bd dd39 b1be eafb fcbe
-0.60584813 -0.018608192 -0.28763634 -0.43297577 -0.4809192 -0.5438479 -0.1398355 -0.094173335
-0.5047452 -0.008825692 -0.59405744 -0.52408445 -0.27157128 -0.38731864 -0.23218459 -0.16712548
0.14721392 -0.3169154 -0.68638253 0.05269722 -0.46760193 -0.45259833 -0.7040052 -0.6472042
-0.5869441 -1.0295576 -0.069795206 -0.09014862 -0.18176179 0.026316399 -0.061599944 -0.40439755
0.3973518 -0.30765358 -0.41990662 -0.42127514 -0.07894808 -0.069880106 -0.34717894 -0.28737718
-0.19068782 -0.4469788 -0.8058129 -0.5211977 -0.14373511 -0.3062088 -0.15264238 -0.58980805
-0.75401264 0.010242043 -0.28351024 -0.85414064 -0.028808266 -0.40858802 -0.15419592 -0.30217642
0.287277 -0.66610825 0.36141467 0.18757713 -0.21094775 -0.34262863 -0.43047637 -0.301579
-0.67592233 0.010974837 -0.16159676 -0.2568806 -0.18438408 -0.51508826 -0.37116733 -0.10912555
-0.5399847 -0.47080347 -0.3297021 -0.32631496 -0.27304944 -0.2318622 -0.35900265 -0.743813
-0.19919726 -0.3444756 -0.06854799 -0.5628115 0.1429771 0.15605593 0.05297893 -0.215761
-0.534307 -0.32768625 0.024528543 -0.5168333 -0.55317664 -0.2552822 -0.52827966 -0.15563326
-0.7775859 -0.75474805 -0.36316997 -0.25669286 -0.14519365 -0.7560116 -0.12543437 -0.30069017
-0.14879799 -0.47646987 -0.25382668 -0.8996398 -0.41485974 -0.28601682 -0.31692937 -0.5275687
-0.19415495 -0.24793069 0.0072528035 -0.36832535 -0.48700476 -0.4179334 -0.2662702 -0.14453794
-0.49496782 -0.59132195 0.07331207 -0.3518729 0.0152373575 -0.3501813 -0.12569869 -0.18823496
-0.7832506 -0.1739265 -0.41806087 -0.2682687 -0.27316713 -0.25566193 -0.5584891 -0.2177098
-0.27594787 -0.5656104 -0.48045704 -0.5553957 -0.26378784 -0.1812728 0.06744808 -0.3397134
-0.0753856 -0.52011985 -0.3429778 -0.8086176 -0.14616904 -0.16984585 -0.29616672 -0.5238547
-0.374786 -0.69300693 0.0975889 0.06970857 -0.80960965 -0.11380085 -0.33425206 -0.40201303
-0.12667845 -0.563696 -0.08729132 -0.5121315 -0.20735893 -0.4256245 -0.5818558 -0.27011877
-0.3207905 -0.18782198 -0.37909272 -0.67576313 -0.42299232 0.7064546 -0.16772604 -0.3412442
-0.073582426 -0.7642112 -0.5263006 -0.5706397 -0.26043063 -0.18304223 -0.16511965 -0.5893281
-0.3533114 -0.25984532 -0.34927687 -0.2932728 -0.35010397 -0.5618283 -0.068156905 -0.16059996
-0.68711257 -0.47203055 -0.1388356 0.014007208 -0.14013487 -0.2464808 -0.54288316 -0.6992712
-0.3031829 0.029141927 -0.4538805 -0.15599072 -0.52520955 -0.1744641 0.091930114 -0.09167817
-0.01457541 -1.1000799 -0.49816748 -0.3836541 -0.0708363 -0.40674597 -0.33329302 -0.24189389
-0.5986415 -0.3042649 -0.40749553 -0.14048256 -0.21152215 -0.10187528 -0.3739915 -0.5514278
-0.2325253 -0.1292316 -0.3794807 0.022346765 -0.2171414 -0.6268228 -0.14613035 -0.5320578
-0.23475672 -0.5099932 0.1415513 -0.1952594 -0.27600738 -0.4069221 -0.20527409 -0.09968351
-0.44029033 -0.4197144 -0.41074976 0.12736772 -0.024949243 -0.42300004 -0.6242064 -0.37457442
-0.2181778 -0.4402351 -0.35162407 -0.4368359 -0.17916086 -0.094590954 -0.3461446 -0.49410945

fc2.weight f4 [128, 256]
00000000: baf6 9a3e 1124 92bd a8b5 403e 0e83 c6bd
00000010: 82e4 4fbe ae7e a13e 0e43 503e 6e50 dd3d
00000020: 7ef1 06be 5f12 17be da66 d5bd cf30 413e
00000030: 19ac 01bf a9af f1be 8e7a 3ebf 4be9 33bf
00000040: 9fd0 00bd bd59 d9be d84f 973e d544 883c
00000050: 3dd8 09be c626 863e e69f b63e 23da 0fbf
00000060: 7666 b63e 26b9 c53e 1777 ccbe 2c2c e23b
00000070: 1b60 09bd 2e0d 6e3e 971c 82bd d605 973e
00000080: 59c5 933d 9828 053f a8a0 a43d 679b 8d3d
00000090: 0638 083e ee66 c63d bec0 973e e364 e23d
000000a0: 6cd7 dabb 57fe 3abe c6f4 8e3e b6a8 21bd
000000b0: 767d 29bf f45a 9ebd acee 08be 9e1a 8b3e
000000c0: 0786 f6be 3207 e03e e104 cb3c e4d7 8ebb
000000d0: f3e7 843e bdd6 cc3d 635c 8e3e f253 d13e
000000e0: 9688 923e 50b1 52be d502 07bf 6caf 6cbd
000000f0: 0b93 8fbe 62f9 df3e ce3f 3b3d d93a 5dbe
00000100: 7a87 dfbd 0f33 d33d eb91 55be d969 583e
00000110: 6889 703e 13e9 e73d 511f 31be 3015 ed3d
00000120: a3e1 213a da71 433e 8768 91be c623 babe
00000130: e152 d03d f612 003c 9e7d fc3e 9e1b 22bf
00000140: 6a72 ebbd efcf 80be b339 03be b677 553e
00000150: dcd2 47be a6f0 733d 3df1 ea3d 1697 b7be
00000160: 4e68 5e3e e26d b93c e5c9 60be 3409 0a3f
00000170: 3e68 3bbe 759b 063e 0ed1 f3be eeb4 83be
00000180: 436c 9fbe df59 c53d 9aae b5be ba7c 973d
00000190: c077 d93d ae13 493e d450 56be 8e74 e53e
000001a0: 6b0d 413c ec5e 07be 22a3 b03e 8900 11bf
000001b0: f2ac 883e eac8 c9bd 0ad3 47bc d34b 283e
000001c0: 4d54 373e 6231 98be b47f 22bd 443a 793e
000001d0: 5273 80be 5e22 1ebe fe09 0e3f 3994 723e
000001e0: 797c d1bd b347 913e 361a a3be d879 bbbe
000001f0: 3cff acbc c878 bdbe 716c 903d 479c 713d
00000200: 6c7e 17bf 581a b1be e682 b63d 4dbe c4be
00000210: 185f 12bf 327d 373e b96b 84be a383 5e3e
00000220: a611 993e f1bb 18bb f873 8c3e 3ad9 863d
00000230: 8f07 0dbe 00f7 39bd 7542 53be 1e0b ae3e
00000240: c099 af3e e351 803d 3dbe 60bd cd32 17be
00000250: 2da6 123e e97f ab3d 1ead 9f3e 9296 12bf
00000260: f235 b8bc a739 89be 2011 78be 15b9 a53d
00000270: 3e7c bebe a2bf 9f3e 2eff 7bbe 2d56 afbd
00000280: 5ba0 b33e cd12 d9bd 8b8b 1b3e 8feb 4d3e
00000290: 0747 53be cc58 cabd c0f1 babe ac62 843d
000002a0: 4fde a73e 0cc7 d03d fa75 a0bd e792 95be
000002b0: 1b87 09be 35f0 e7ba c819 643d 6822 493e
000002c0: db35 95be dd67 71be c273 1b3e 9ff0 42bd
000002d0: 3a22 0e3e 0a0a 1f3e 84e7 b93e ec39 78bc
000002e0: b225 afbe 06a8 afbd 8109 c8bd 7260 533e
000002f0: 7f4c 0abf f7c4 5abc 93d9 813e 7c65 18be
00000300: d153 b43c 6f43 4b3e 1033 c8be eb84 0a3a
00000310: 8573 323e 26e9 b2bd ef5a 473e 4579 493e
00000320: 8798 7abe ebea 2c3d c788 e6bd 5788 43bc
00000330: 3cb7 36bc ba5b 89be 1f0a 99bd e4f3 de3e
00000340: e742 08be 0073 723d 0836 a1be a41e a73e
00000350: 44c5 ad3e e501 1f3e 4fd7 d0bc 5e93 e43e
00000360: c3e8 d13e 2551 e83d 72b7 193e 4069 3dbf
00000370: 72f4 bebe 527d 5dbe 270c 323e ec29 cebe
00000380: 41df 843e d68a 23bd 999d 0dbe bad6 803e
00000390: 5fac 88be e246 d23e 9c1b 9e3c b9e5 c43d
000003a0: 2deb f5bd 8f76 1d3e c213 4cbe b0c3 663e
000003b0: 26a4 ebbe 29af 5abe f7ee 7dbe 6424 3b3e
000003c0: c168 0cbf 6d2c a5be 667d 283d 56e9 dd3d
000003d0: 7eae 10be cfbf 643e 10cf 50be ce69 79be
000003e0: da27 c6bd 42eb a83c af5d f8bd a5ba 54be
000003f0: c16c 923d 0305 043f 8af1 903e 1191 d7be
0.30266362 -0.07135785 0.18819296 -0.096929654 -0.20302013 0.3154196 0.2033808 0.10806356
-0.1317806 -0.14753102 -0.10420008 0.18866275 -0.50653225 -0.4720433 -0.74405754 -0.7027785
-0.031448957 -0.42451277 0.29553103 0.016634384 -0.13461395 0.26201457 0.35668868 -0.56192225
0.35625046 0.3861782 -0.39934608 0.0069022384 -0.03353892 0.23247215 -0.06353109 0.2949664
0.072153755 0.52015066 0.08038455 0.06914406 0.13302621 0.09687601 0.29639238 0.11054399
-0.0066785123 -0.18261085 0.27921122 -0.039467536 -0.66207063 -0.07732192 -0.13372296 0.27168745
-0.4814913 0.4375549 0.0247826 -0.0043592323 0.25958213 0.100018956 0.2780486 0.40884358
0.28619832 -0.20575452 -0.52738696 -0.057784483 -0.28041872 0.4374495 0.045715146 -0.2160448
-0.10914512 0.10312473 -0.20856445 0.21134128 0.23489916 0.11323752 -0.17297103 0.11576307
0.0006175285 0.190864 -0.2840006 -0.36355418 0.10172058 0.007817021 0.49314588 -0.6332339
-0.11496432 -0.2515864 -0.1281498 0.20846447 -0.1951403 0.059555672 0.11471794 -0.35857457
0.21719477 0.022635404 -0.21952017 0.5392029 -0.18301484 0.1314524 -0.47620434 -0.25723976
-0.31137285 0.09636282 -0.35484773 0.073968366 0.106185436 0.19636413 -0.20929271 0.44815487
0.011782984 -0.13219804 0.3449946 -0.5664144 0.26694447 -0.098527744 -0.012196312 0.16435175
0.17903252 -0.29725176 -0.03967257 0.24338633 -0.25087982 -0.15442798 0.55483997 0.23689355
-0.102288194 0.28375015 -0.31855935 -0.36616397 -0.021117799 -0.3700621 0.070519336 0.05898693
-0.5917728 -0.3459041 0.08911686 -0.38426438 -0.5717635 0.17918852 -0.25863436 0.21729903
0.29896277 -0.0023305381 0.27432227 0.065844014 -0.13772415 -0.045401573 -0.2063082 0.33992857
0.3429699 0.06265619 -0.054868925 -0.14765473 0.14321204 0.08374006 0.31186765 -0.57261
-0.02248666 -0.26801798 -0.24225283 0.08091942 -0.37204164 0.31200892 -0.24609062 -0.085613586
0.3508328 -0.10599289 0.1518995 0.2010939 -0.20632564 -0.09880218 -0.36512566 0.06464133
0.32786795 0.10194215 -0.07835002 -0.2921364 -0.13430445 -0.0017695489 0.05568865 0.19642031
-0.2914265 -0.23574777 0.15180877 -0.047592755 0.13880244 0.15531173 0.36309445 -0.015150528
-0.34208447 -0.0857697 -0.09767438 0.2064226 -0.54022974 -0.013352624 0.25361308 -0.14882463
0.022012623 0.19849943 -0.39101458 0.00052840885 0.1742688 -0.08735876 0.19468282 0.19675167
-0.24472247 0.042216223 -0.11256557 -0.011934361 -0.011152085 -0.26827794 -0.074726336 0.4354545
-0.13306771 0.059191704 -0.31486535 0.32640564 0.33939564 0.15528066 -0.025493292 0.44643682
0.40997896 0.11343602 0.15011385 -0.73988724 -0.37295872 -0.21629837 0.17387448 -0.4026636
0.2595158 -0.039927326 -0.1382965 0.25163823 -0.2669401 0.41069704 0.019300275 0.096141286
-0.12007747 0.15377258 -0.19929412 0.22535586 -0.46023673 -0.21355881 -0.24798189 0.182756
-0.5484734 -0.32260457 0.041135214 0.10835521 -0.14129063 0.22338794 -0.20391488 -0.24356768
-0.0967557 0.020619992 -0.12127244 -0.20774324 0.071496494 0.5157015 0.2830928 -0.42102864

fc2.bias f4 [128]
00000000: 4bba 62be d1d6 da3d 4251 afbe 361c 19be
00000010: 55cc 58be 7a95 8fbd fe99 49be a680 333b
00000020: bc1c 98bd 599b 103d 9f1e 93be 7334 603e
00000030: e0ef e7bd d54b d2bd acc9 c8be 0bd2 243d
00000040: da47 203e 3d73 303e be22 c2bd 005e 0abe
00000050: f628 123d 9dc1 12be 2326 18be 43e6 23be
00000060: c5f8 14bf d5da dbbd 5aaf 553d 3b5e 9fbe
00000070: 9118 6cbe 13f5 c4be fe3b 2cbe a735 c0bd
00000080: b25e 80be 9274 1abb e31c 9f3d aa22 d5be
00000090: 4184 08be 4f86 3abe 556b 063a 589f c23b
000000a0: d0dd 8cbe f476 d93b 7b20 10bf 8f4c 33be
000000b0: e337 2cbe e25b 0d3c a393 d1bd f3c0 7abd
000000c0: b869 9ebe f897 c9bc 4295 063e 9d5b 45be
000000d0: 44fa 75bd 4757 583d b747 1ebc 4f4a 3dbe
000000e0: da1d 01bd 2bd7 7c3d 916b 90bd 268b 1cbe
000000f0: 89a2 a73e 7a9e 163c 490a 5c3c 2deb efbc
00000100: ee43 53be 8b12 27be 52ab 39be 129b 04bf
00000110: 76fb c3be 5c16 5e3d 81e2 2cbe 6fa6 2c3c
00000120: 9d8e 98be 14b6 23be fdf6 893d b33d a1bc
00000130: 89a5 8ebe 04eb e1be 3c68 1e3b 8401 38be
00000140: 3084 d83c 5608 04be c578 f1bd 775a beba
00000150: a011 f0be 181b 2dbe 93bd 0c3e d221 28be
00000160: d80a 07be bf79 2cbe ff97 9bbe 84d6 d8bd
00000170: 6372 323e 31cc 873e 14ef 693e 4aed 013e
00000180: 8e34 06be 10b9 0e3e 1790 1ebe 41ea 2cbe
00000190: d219 233a 265b fabd 444d bdbe aba8 2c3e
000001a0: 1d9c b5be 8c98 2c3e 3c3b 073c 5106 143c
000001b0: f043 a7bd 2865 d43c 24e6 b9bc ff36 a3bd
000001c0: 23a0 1bbe bf63 77be 511c 9a3d 8d16 cfbe
000001d0: 85f4 873c 3eee 523c 078f 2cbf 2c69 34be
000001e0: 8a72 123d e0d9 71bd 7e98 64be 4e40 77bd
000001f0: a3f9 aebd f494 43be f806 eebb 05e7 87be
-0.22141378 0.10685504 -0.34241682 -0.14952168 -0.21171696 -0.07010932 -0.1968765 0.0027389913
-0.07427356 0.0353044 -0.287343 0.21895008 -0.113250494 -0.1026837 -0.39216363 0.040239375
0.15652409 0.1723146 -0.09479283 -0.1351242 0.035683595 -0.1433167 -0.14858298 -0.16005807
-0.5819209 -0.10735098 0.05216918 -0.3112658 -0.23056246 -0.38468227 -0.1681976 -0.09385233
-0.25072247 -0.0023568016 0.077691816 -0.4162801 -0.13331701 -0.18215297 0.0005127688 0.0059394054
-0.2751298 0.006636495 -0.5629956 -0.17509674 -0.16818194 0.008627864 -0.102332376 -0.061219167
-0.30940032 -0.024608597 0.13142875 -0.19273229 -0.060053125 0.05281761 -0.009660653 -0.18485378
-0.03152261 0.061728638 -0.07051767 -0.15287456 0.32741192 0.009193057 0.013430187 -0.029286945
-0.20631382 -0.16315667 -0.1813176 -0.5179912 -0.38277787 0.054220542 -0.1688328 0.010537728
-0.29796305 -0.15987426 0.067365624 -0.01968274 -0.27860668 -0.44124615 0.0024171015 -0.17969328
0.02643022 -0.12893805 -0.11790613 -0.001452281 -0.46888447 -0.16904867 0.13744192 -0.16419151
-0.1318773 -0.16843317 -0.303894 -0.105877906 0.17426448 0.26522973 0.22845107 0.12688175
-0.13105986 0.13937783 -0.15484653 -0.16886236 0.0006221804 -0.122244164 -0.36973011 0.16861217
-0.35470667 0.16855067 0.008253869 0.009034709 -0.08167255 0.025927141 -0.022692747 -0.07969474
-0.15197806 -0.24159144 0.07524932 -0.40446892 0.016596088 0.012874184 -0.6740574 -0.17618245
0.035753764 -0.059045672 -0.22323796 -0.06036406 -0.08543708 -0.1909979 -0.0072640143 -0.2654344

fc3.weight f4 [2, 128]
00000000: 39e5 d43e 6e73 c0bd 1103 bd3d 51f6 e1bf
00000010: b939 8abf 7854 11bd dad8 003d 3ad2 913f
00000020: 9483 02bf 03fc cb3c 4a25 24be 42f0 f4be
00000030: 0fcd c3bf cc4b ab3f fcf2 ab3e c582 d3bf
00000040: 7369 1abf 424a 1c3f 7f16 f33d c689 983e
00000050: 0353 9a3e 85fb b4bf ee20 e23e 3aab 493c
00000060: 702b 103f acc4 ffbb 98ee d43e 899a 3abf
00000070: 7db0 b6be b9d4 5ebf b466 5a3d 34ba fc3e
00000080: d279 07bf be87 443e f9e3 85be 2b25 d63c
00000090: 752f 283f d4dc 76bf 66ef 4dbe fa8e bfbf
000000a0: 898b d53e 01e7 3dbf f184 d7be 0f2d 80bf
000000b0: 369c 2e3f eb20 933f 09ff c0bf cd39 3fbf
000000c0: 5d47 2bbf 4e5a 0f3f 80fb 5c3f 6c78 bbbe
000000d0: 1f2c 25bf 86d7 253f d04d 093f 6327 783f
000000e0: ad4d 7dbe 9b81 56bf 2609 673f 743c a43e
000000f0: b64e d9be f168 c0bf f144 adbf 203e 64bf
00000100: d9df 0fbe 1785 1b3f 15ff 2e3f c184 563e
00000110: 5856 0cbe dec2 62bd ecdb 123f bed9 10be
00000120: 4800 25bf 61c9 90be c4f8 a5bd 3c71 d7bf
00000130: bb7a a7bf ceb3 3c3c ce97 42bf a762 053d
00000140: 7bf1 b6bc 3384 adbf d562 843e cf63 c03d
00000150: cd51 3c3f c232 983e 5cd9 833f 8a20 dd3d
00000160: 9268 b9bf 00cf aabe 420a a7be 831a 383e
00000170: 33c9 c73e 20ed a7be 3c74 aebe e303 523f
00000180: 3fe8 b83e b7cc 2c3f 54cc 14c0 90e4 443f
00000190: 646f 45be 20d5 c3be 9ce1 383e 0107 e9be
000001a0: 33b0 b63e 4ba3 ba3d e2e1 2ebf 668a 4fbe
000001b0: 0077 ca3e 1385 b43d 1149 1e3f 15ee d73e
000001c0: 7bd6 abbe cb94 d43e 7d6f 08bc d687 3bbf
000001d0: a2b0 0bbe 3cee f8bd 09b0 dcbe 0b0e ac3e
000001e0: 04d5 133f befb 693f cb1d 60bf 535a 683e
000001f0: 2fab 83bf a926 5a3e d89c 01bf cbff 40bf
00000200: 1081 af3e a978 63bf 9bfb 663f 493d e6be
00000210: a695 87bf 6747 debf fea0 87bf a078 29bf
00000220: 158b a4bf d7b9 8fbf 37e2 02bf 9922 9dbe
00000230: 5354 4d3e 912b 983e 9ea7 413f ac33 8d3c
00000240: f3a5 113e 6ec2 593f 798e 493f 9187 e03e
00000250: f397 563e 47de 08bf e2c2 c1be 0d3e c23f
00000260: dea4 203f 04d2 debf 4f96 7d3f 78bf 1d3f
00000270: e6a8 1e3e ab72 f9be ae51 d5bf 8174 96bf
00000280: de4e 483f c3bd 973f f363 943f f6d0 cfbf
00000290: a238 bc3d 89b0 a93e c0e9 67bf 115d 1a3e
000002a0: ad17 6c3f 43a5 aa3e 09b2 42bd 3904 ef3e
000002b0: b66e 6dbf d6f1 bc3e 0e53 9e3f 5ebf cc3f
000002c0: da0f bb3f 1c85 af3f 6b41 44be bc5a 913f
000002d0: 3152 c2be 9a58 81bf 9a30 133f 84da 103f
000002e0: 8330 8cbf 8747 1d3f 1787 223f 3d80 19bf
000002f0: dd85 b73d af9e 98ba 4308 69bf 517e efbd
00000300: 16b1 2c3f a044 fb3d 1589 40bd e392 203f
00000310: 12da ab3f 71cc 43bf 616c 1e3e 6038 10bf
00000320: 925a 37bf 1c59 643f ee45 75bf f7a2 e33e
00000330: 226f 003f 1b17 b3bf e8bb 093d 63ff 8fbf
00000340: 17ee 45bf 8024 6ebe 4897 d53e 4a25 1fbf
00000350: 7f4c 3a3f 081f 663f db56 7ebf 4ff5 ecbe
00000360: 77fa 973f 8a87 d8be 65e1 d2be b23d 313f
00000370: 84a1 473f c498 133f 2054 ae3e 96c3 bd3e
00000380: e24f 113e 6791 9c3f 1646 c2be 2869 84bf
00000390: d6f8 5bbf 693c 863f 9878 85bf b696 00bf
000003a0: 8ab0 733f f121 12bf 1fd3 abbf 4b0a 22bf
000003b0: 884b 6cbf 8464 82bf 7b8e 38bf a9fc 063f
000003c0: 79ba 98be 8f46 d83f 9ef2 383f 1abe 643e
000003d0: 6459 6f3f 0ecd 0ebf 6645 043d c8ea 06c0
000003e0: 5e22 ae3e 0306 693f 3b60 8a3d a777 d3bf
000003f0: 9027 c03e 657c 0ebf cadd 0bbe c3c7 4a3e
0.41581133 -0.093970165 0.092291005 -1.7653295 -1.0798866 -0.035480946 0.031456806 1.1392281
-0.5098202 0.024900442 -0.1602985 -0.47839552 -1.5296954 1.3382506 0.3358382 -1.6524283
-0.6031715 0.6105081 0.11869525 0.29792613 0.30141458 -1.4139258 0.44165748 0.01230889
0.5631628 -0.0078054275 0.41588283 -0.7289205 -0.35681525 -0.8704334 0.0533206 0.49360812
-0.5292026 0.19192407 -0.26150492 0.02614077 0.65697414 -0.96430707 -0.20110855 -1.4965508
0.4170802 -0.7418061 -0.42093614 -1.0013751 0.6820711 1.1494421 -1.507783 -0.7469757
-0.66905767 0.5599717 0.8632126 -0.36615312 -0.6452045 0.6478199 0.5363436 0.969351
-0.24736662 -0.8379151 0.90248334 0.32077372 -0.42442864 -1.5032026 -1.3536664 -0.89157295
-0.14050235 0.60749954 0.68357974 0.20949079 -0.13704813 -0.05536162 0.57366824 -0.14145562
-0.64453554 -0.2827864 -0.08104089 -1.6831431 -1.3084329 0.011517478 -0.76012886 0.032564785
-0.022331944 -1.3555969 0.25856653 0.09394037 0.7356232 0.29726225 1.0300708 0.10797222
-1.4485037 -0.33361053 -0.32625014 0.17978863 0.3902069 -0.327981 -0.34073055 0.8203718
0.3611469 0.6749987 -2.3249712 0.7691126 -0.19280773 -0.3824854 0.18054813 -0.45513156
0.35681304 0.09113177 -0.6831342 -0.20267639 0.39543915 0.088144444 0.6183024 0.4217383
-0.33562073 0.4151977 -0.008327362 -0.73254144 -0.13641599 -0.121548146 -0.43103054 0.33604464
0.5774691 0.91399753 -0.8754546 0.22690706 -1.0286616 0.2130381 -0.5062995 -0.7539031
0.34278154 -0.8885599 0.9022767 -0.44968632 -1.0592544 -1.736554 -1.0596006 -0.66199684
-1.2854944 -1.1228589 -0.51126426 -0.30690458 0.20051698 0.2972074 0.7564639 0.017236553
0.14223461 0.850623 0.7873302 0.4385343 0.20956402 -0.5346417 -0.37843996 1.5175186
0.6275157 -1.7407842 0.9905748 0.61620283 0.15494117 -0.48720297 -1.6665552 -1.1754304
0.7824534 1.1854786 1.1593002 -1.6235645 0.09190489 0.33142498 -0.9059105 0.15074565
0.92223626 0.3332921 -0.04753307 0.4668291 -0.92747056 0.36903256 1.2369096 1.5995901
1.4614213 1.3712497 -0.1916558 1.1355815 -0.37953332 -1.0105164 0.57496035 0.5658343
-1.0952305 0.6143727 0.6348738 -0.599613 0.08961079 -0.0011643971 -0.9102823 -0.11694015
0.6745771 0.122689486 -0.04700573 0.6272413 1.3425925 -0.7648383 0.15471031 -0.5633602
-0.71622574 0.8919847 -0.9580983 0.4446027 0.50169575 -1.3991426 0.033626467 -1.1249813
-0.7731642 -0.23256111 0.4171698 -0.62166274 0.72772974 0.898911 -0.9935128 -0.46280906
1.1873311 -0.42290908 -0.41187587 0.69234765 0.7798083 0.57654977 0.34048557 0.37063283
0.14190629 1.2231873 -0.37944096 -1.0344591 -0.8592657 1.0487186 -1.0427427 -0.50229967
0.9519125 -0.5708304 -1.3423804 -0.63296956 -0.9230275 -1.0186925 -0.7209241 0.5272928
-0.29829767 1.6896533 0.72245204 0.22338143 0.93495774 -0.5578164 0.032292746 -2.10808
0.34010595 0.910248 0.06756636 -1.652089 0.37530184 -0.5565856 -0.13658825 0.19802766

fc3.bias f4 [2]
00000000: 43e5 40bd cc8f 25bd
-0.04709364 -0.04042034

bn1.weight f4 [256]
00000000: e37a 7a3f bfcc 423f 1b5c 773f b436 3c3f
00000010: 9836 fb3e 6456 443f f07e 373f 7843 6f3f
00000020: ae6b 3a3f fabe ba3f 65e8 ac3f d376 d53f
00000030: c263 943f 75a7 243f 35f0 923f a50c 9e3f
00000040: 9f42 c03f fe55 8d3f d4b8 8d3e dd4c 783f
00000050: 06bb c63f 15ad 603f 2292 883e 4a70 a53f
00000060: 6407 823e 859b 3e3f c8fc d43e 7c78 ef3e
00000070: 9f22 673f 9e44 113f 39b3 123f c004 3a3f
00000080: 73d3 493f f2a5 653f bd1b 3bbf 0f12 1c3f
00000090: 434f 563d 6a18 863f f74a fa3e 4170 863f
000000a0: 184b 583f eca5 263f f2a4 0b3f 1fb7 383f
000000b0: 7fdf 873f 6361 2d3f fee8 303f 924a 833f
000000c0: 5151 c83f 022d 0d3f 6fc8 393f b6e4 7b3f
000000d0: d051 4f3f c0ab a53e e98e bd3e a655 0a3f
000000e0: 90fa 7b3e 3ab0 ac3f 6b49 1340 db40 ca3f
000000f0: 585c 883f 7f40 4d3f 37d2 5a3f eacc 4f3f
00000100: 67f6 533f 18c3 7c3f 156c 853f 805a a73f
00000110: 2d0d a53e f90f a53f a616 2d3f e51e 423f
00000120: 4b9e 433f 534f c73e 40f8 343f 0fc2 7a3f
00000130: c1cd e33e 7432 d93e 1519 193f 9d68 e23f
00000140: 4448 533f de92 103f afee 233f c6ce ee3e
00000150: f905 313f fc15 163f 37ad ae3f 07a6 153f
00000160: 2e03 d93f 42cd 213f f66e 393f 4bec 5d3f
00000170: 17f3 6b3f c25f 2e3f 0873 543f b49e 253f
00000180: 8ac0 613f 03d9 363f 4f76 223f 0857 503f
00000190: 74b1 173f b925 393f 1d97 943f 735c 9e3e
000001a0: 09ca 5a3f 393a 983e 541d 9b3f 60de 743f
000001b0: d692 1f3f 00a2 cc3f 8fe9 123f ffdb 703f
000001c0: f31b 803f c799 2d3f 5008 433f 07c1 2b3f
000001d0: 26b1 ba3f 26d6 873f 9bb4 e33e afb4 133f
000001e0: a130 ac3f fb3d 863f 45cd aa3f 3a99 933f
000001f0: d6e8 713f 6dfb 523f 134d de3e 823b f83e
00000200: ce6b 1a40 3b07 263f 1b6b 7e3f b6ea a03f
00000210: bb6e 363f 3cf2 883f 2edd 443f ede8 403f
00000220: 0dc7 a93e f137 c33f f439 603f c9d0 973f
00000230: c5a4 8f3f edb2 0c3f 8e00 443f 597f 503f
00000240: 4c64 243f c5f0 3e3f f01c e03e d549 9d3f
00000250: 64b9 9e3f 4bc3 253f 6b6e 633f 1420 4d3f
00000260: 1399 8a3f 6462 e93f b2c6 973f 7a0d 0c3f
00000270: 6e5c 433f eb24 3e3f 8f24 843f 64b7 493f
00000280: bea4 843f 3b16 273f 80ff 323f 55df 783f
00000290: bc57 8a3f 261b 8e3f 6c60 5c3f 5cea 423f
000002a0: 28e9 453f f43c 2c3f 9d0e 1b3f f75f 723f
000002b0: af3e 243f 3189 0b3f 5e86 433f 34b0 923f
000002c0: 3ab8 1b3f 6ca8 c33f c86d e23e ad49 913f
000002d0: 3039 223f 5303 7b3f 25d1 1e3f 10ae 453f
000002e0: a8db 943e 8585 2d3f 6b89 793f 0e46 4c3f
000002f0: 4827 653f 8f33 923f 32d4 5a3f d07f de3e
00000300: 7bef 0f3f 2813 a43e 2f3a 083f 6b4e 5e3e
00000310: a944 b83f 166d 553f dbf4 633e 439b c03f
00000320: bd9a 5f3f 5c4a 953f ca08 073e 0ef7 0f3f
00000330: d784 3c3f 9d27 513f 60a3 813f ec81 3c3f
00000340: fbfd 2c3f a3cc b73f 1155 7c3f 5438 833f
00000350: fc60 5e3f a4a2 c03e f7f1 e03e 8340 443f
00000360: 9988 523e 2114 5e3f 1e0d 413f 4b08 4f3f
00000370: ef3c 413f 151a e83e 5495 a13f c9fb 203f
00000380: 9f51 173f 1ec7 ef3e 456e 543f 0355 7f3f
00000390: 840a 7e3f a34c fe3e b87c 473f 9e65 b13f
000003a0: b69c 773f d71c 143f c753 f23e 7c2a 533f
000003b0: 8f8d 103f 23c0 413f 22c5 5b3f 1d64 ee3e
000003c0: 3fc3 2d3f 55e9 d13f eef2 813f 9c81 7f3f
000003d0: 33a6 953f 3e84 443f 2485 8b3f 6e64 a53f
000003e0: 3927 953e e5ec b33f 2a85 443f dbd6 983e
000003f0: 1382 493f ff2c c63e da3a 393f 433b 6e3f
0.9784376 0.7609367 0.96624917 0.7352097 0.4906509 0.7669432 0.71678066 0.93462324
0.72820556 1.4589531 1.3508421 1.6676887 1.1592944 0.6431802 1.1479555 1.2347609
1.5020331 1.1041868 0.27680075 0.96992284 1.5525825 0.877641 0.2667399 1.2924893
0.25396264 0.74456054 0.41599107 0.4677161 0.902872 0.56745327 0.5730472 0.726635
0.7883827 0.8970634 -0.730892 0.60965055 0.052321684 1.04762 0.4888532 1.0503007
0.84489584 0.65096927 0.5454856 0.7215442 1.061508 0.67726725 0.6910552 1.0257132
1.5649816 0.551468 0.7257146 0.9839586 0.8098421 0.32357597 0.37023094 0.5403694
0.24607301 1.349128 2.301356 1.5801042 1.0653181 0.8017654 0.8547701 0.8117205
0.82797855 0.9873519 1.0423609 1.3074493 0.32236615 1.28955 0.67612684 0.7582839
0.7641341 0.38927707 0.706913 0.9795236 0.44492915 0.42421305 0.598039 1.7688175
0.82532144 0.564741 0.6403608 0.4664213 0.6914974 0.58627295 1.3646611 0.5845646
1.6954095 0.63203824 0.7243494 0.8668868 0.921678 0.68114865 0.82988024 0.64695287
0.88184416 0.71424884 0.63461775 0.813828 0.59255147 0.72323185 1.1608616 0.30929908
0.8546453 0.2973192 1.2118325 0.9565182 0.6233343 1.5986938 0.5738763 0.9408569
1.000853 0.6781277 0.7618456 0.6709141 1.4585311 1.0612228 0.4447373 0.57697576
1.345234 1.0487665 1.3343893 1.1531136 0.94495904 0.82414895 0.43418178 0.484829
2.4128299 0.6485478 0.9938218 1.2571628 0.7126271 1.0698924 0.76899993 0.75355417
0.33159676 1.5251447 0.8758843 1.1860591 1.1222159 0.5496052 0.76563346 0.8144432
0.6421554 0.74586135 0.43772078 1.2288157 1.2400327 0.6475112 0.8884036 0.8012707
1.0827965 1.8233151 1.1857512 0.54708064 0.7631291 0.7427508 1.0323657 0.78795457
1.0362775 0.65268296 0.6992111 0.9721578 1.0808024 1.1102035 0.8608463 0.76138854
0.77308893 0.6728051 0.60569173 0.9467768 0.6415815 0.5450621 0.76376903 1.1460023
0.6082798 1.5285773 0.4422438 1.1350609 0.6336851 0.9805195 0.6203788 0.77218723
0.29073834 0.6778186 0.9747531 0.79794395 0.89513063 1.1421984 0.85480034 0.43456888
0.56224793 0.32045865 0.5321378 0.21709602 1.4395953 0.83369577 0.22261374 1.5047382
0.87345487 1.1663318 0.13186947 0.5623635 0.736402 0.8170107 1.0127983 0.73635745
0.67575043 1.4359325 0.985673 1.0251565 0.86866736 0.37624085 0.43934605 0.7666094
0.2055992 0.86749464 0.7541064 0.8087203 0.754836 0.453324 1.2623696 0.62884194
0.5910892 0.46831602 0.8298076 0.9973909 0.99234796 0.49667844 0.7792468 1.3859136
0.96723497 0.57856506 0.47329542 0.824867 0.56466 0.756838 0.85847676 0.46560755
0.67876047 1.6399332 1.0152261 0.99807143 1.1691345 0.76764286 1.0900006 1.2921274
0.29131487 1.405667 0.7676569 0.29851422 0.787141 0.38706204 0.72355425 0.93059176

bn1.bias f4 [256]
00000000: c7ad 573e 8537 383d 5a11 ec3e 78f5 ad3d
00000010: e23d 073e 2ad9 853d 88eb 263e 50ed 753e
00000020: aa76 993c 7d96 7fbc e13d bdbd 2995 87bd
00000030: b5dc b53e 8df5 f9bd 3b42 293f 21b6 3d3d
00000040: 977f e43c 891b ff3e ed10 823c 6e8f 873e
00000050: b65a ad3e 717f 9e3c 6d2f 59be ff9d 553e
00000060: a3d6 b5bd 7222 b9bb df7c 413e 7d36 063c
00000070: 7b5e b33e 392e 263e 6dff 743e e0e3 9dbe
00000080: ed3e a63c afcf 003e 7902 62bc ef5d 113d
00000090: e812 01bb acd5 3d3e 8deb 6c3e 75a8 31bd
000000a0: f6bf 923e b77e 8f3e dcc6 d3bd 0dd6 9a3d
000000b0: 88be 993e cc0e 4f3e 051b 5a3e a0e4 293d
000000c0: 8b63 ad3e af59 753d 7f4c 9a3e fc21 243e
000000d0: 9401 503e 34b2 e43d bc82 8bbd 2def 7ebd
000000e0: 698d 0bbe 155a 003f 5f1a da3e c688 d53d
000000f0: ea1d 853d fb29 3d3e 7ce2 493b c377 bb3e
00000100: 10bb fa3d 7b3c aa3e 534d b63e 0624 7e3e
00000110: 8213 a33b 5243 653e 9bc3 fb3d 9f99 6d3e
00000120: d734 d43d ee11 aebd 4196 fb3d 0de4 763e
00000130: ebaa 9dbc 6500 05bc a8d9 f1be f233 923d
00000140: c059 8c3e 3824 343e aaf6 a83e 40e9 43be
00000150: 2cc4 c63e 86e0 fa3d 736d 6e3e 4c63 d03e
00000160: 36a0 01bd 6e18 173e a926 473e a42d 763d
00000170: 8f79 8f3d db0d fe3a c29f 98bd df6d 0abd
00000180: 0fda d93e fd3e 92bd 1786 923e 8574 053a
00000190: 9b88 313e 25f7 b9bd eda3 073f 3452 7abd
000001a0: da62 593e c4eb 8f3d 3f66 983d 9fb1 0abd
000001b0: 9a78 39be db71 bd3e 354e 88be 2739 c93e
000001c0: ffee 5b3e 4bc2 223e bfb6 e73e 47ed 1abe
000001d0: dc69 f73e 0756 4d3e 72f1 b039 8c8f 0c3b
000001e0: c051 d33e 8e21 2d3e c885 46bd e0de ba3e
000001f0: d1f9 103f 6ee7 433e 7894 083c fd52 63bc
00000200: 750c e43e 7407 183f 4742 113d 2c41 173f
00000210: 6b13 b33c fc1d a23d fb2e 7a3e 782b d83d
00000220: 94e6 b53d fd15 7d3d ef89 2fbe aead 883d
00000230: b43b 573c b8ba 8a3e ff15 373e f637 9b3e
00000240: edb6 00bf 5a35 b23d 48bc 923d 6513 2a3f
00000250: c22c 4ebe 1e4d b4bd 09ae 343e 119f 563e
00000260: a476 d13e 62e3 343f 6c39 183e 96e4 5e3e
00000270: 220b 313e 9b0c e7bd 9bad 253f 51c1 b73c
00000280: f811 533d 1941 00be 6c03 7d3e f3ee 093e
00000290: 142e d03e d862 3d3d cee0 383e bfc8 433e
000002a0: 0459 29be 96c6 bb3d a66f 8f3e 0c09 3b3f
000002b0: 15c9 8539 495f 87bd db38 263e bd59 683d
000002c0: ddb5 5c3e 7f33 d3bb 22a7 e5bd 81ed 433e
000002d0: a4bd 29be fd9b b43d 611c 1f3e 24d1 653c
000002e0: a693 1b3f 5e5f e93b f70a c93c eefd 52bd
000002f0: ca6d 5f3e 46f7 573e 8a03 8a3e aa26 4d3e
00000300: d5b5 a2bd 488f 023e 3ce9 c03e ebe3 16bd
00000310: ef33 c43d 9b1d 543e 8f64 5abc fd7f 1d3f
00000320: f4cd 3f3e 41c5 0d3e 47d5 b03e 1f6a 3d3e
00000330: 906b 473c 2e78 863e cc6a a53e 795e 4c3e
00000340: 87b3 963e 8340 ef3d 7d4e b13d 6a95 2e3d
00000350: 51c3 3f3e 8e1b de3d 8cb9 103e dcc9 743e
00000360: b15e f5bc 5da1 083e bcea 3bbe 9cc9 9a3e
00000370: 7f90 853e 3d5a a53e f255 e43e 2089 2f3e
00000380: 4295 89bc 46c7 5c3e d8c8 0c3e 075b 9e3d
00000390: 9b1b b4bd 43b7 6a3e 2286 fb3d 5653 c63e
000003a0: 2d78 7a3e a0c7 303d 6513 01be d269 543e
000003b0: f5ee 283e f90f 293f 4d38 943e 5d80 4bbc
000003c0: 5e64 e23e 3bf9 a43e d72f b93a 095a ad3e
000003d0: 5304 6d3e 98fa 18bf 99aa 2f3e 3c23 073f
000003e0: 163a bb3b a4b8 893e 9752 443e dbf7 b83d
000003f0: d7f8 79bd 59ed 49be 6e4f e23d 0e2a b23e
0.21062385 0.044974823 0.46106988 0.08494085 0.132072 0.065355614 0.16300786 0.24016309
0.018733341 -0.015599844 -0.09240318 -0.06620247 0.3551995 -0.12205038 0.66116685 0.04631627
0.02789287 0.49825695 0.015877211 0.26476616 0.3385827 0.019347878 -0.21209498 0.20861052
-0.08878829 -0.005649858 0.18895291 0.008191702 0.3503302 0.1622857 0.23925562 -0.30837917
0.020293677 0.12579225 -0.013794535 0.035489973 -0.0019695107 0.1853854 0.2313673 -0.043373544
0.2866208 0.28026363 -0.10340664 0.07560358 0.30028176 0.20220488 0.2129937 0.0414778
0.33865008 0.059899982 0.30136487 0.16028589 0.20313102 0.11166802 -0.06812045 -0.062239815
-0.13628162 0.50137454 0.42598245 0.10426478 0.06499846 0.18473046 0.0030805161 0.36614808
0.122427106 0.33249268 0.3560587 0.2481843 0.0049766907 0.22388962 0.12293168 0.23203133
0.10361641 -0.084995136 0.12284518 0.24110432 -0.01924654 -0.00811777 -0.4723637 0.07138814
0.27412224 0.17591941 0.3300069 -0.19131947 0.38821542 0.12249856 0.23283939 0.40700758
-0.03164693 0.14755413 0.19448341 0.06010212 0.07005607 0.0019382791 -0.074523464 -0.033796187
0.42549178 -0.0714092 0.28617927 0.000509091 0.17337267 -0.09080342 0.52984506 -0.06111355
0.21229115 0.070273906 0.07441377 -0.0338608 -0.18112412 0.37000927 -0.26622167 0.39301416
0.21477889 0.1589443 0.45256612 -0.15129577 0.48322952 0.20052348 0.00033749227 0.0021447865
0.41273308 0.16907331 -0.048467427 0.36498165 0.5663119 0.19131252 0.008336179 -0.013874766
0.44540754 0.5938637 0.035463598 0.5908382 0.021859845 0.07915875 0.24431984 0.10555166
0.0888187 0.061788548 -0.17142461 0.06673752 0.013136793 0.2709558 0.17879485 0.30316132
-0.5027912 0.08701582 0.07164818 0.66435844 -0.20134261 -0.088037714 0.17644514 0.20959117
0.40910828 0.7065946 0.14865655 0.21766886 0.17289403 -0.11281701 0.64718026 0.022431048
0.05153081 -0.12524833 0.24708337 0.13470058 0.40660155 0.046236843 0.18054506 0.19119547
-0.16537863 0.09168737 0.28014868 0.7306068 0.00025517555 -0.06609971 0.16232626 0.056726206
0.2155375 -0.006445348 -0.11213519 0.1913357 -0.16576248 0.08818815 0.1553817 0.014026914
0.6077217 0.0071219644 0.024541361 -0.051511697 0.21819225 0.21090421 0.26955825 0.2003428
-0.07944838 0.1274997 0.37677944 -0.036838453 0.09580218 0.20714419 -0.013329639 0.6152342
0.18730909 0.13844778 0.34537718 0.18497513 0.012171641 0.26263565 0.32308042 0.19957913
0.29433843 0.116822265 0.086575486 0.04262296 0.18726851 0.108450994 0.1413328 0.23905128
-0.029952379 0.13342805 -0.18351263 0.3023194 0.26086804 0.3229541 0.4459682 0.17142153
-0.016794804 0.21560392 0.13748491 0.07732206 -0.08794328 0.22921471 0.12281443 0.38735455
0.24459906 0.043159127 -0.12605055 0.20743492 0.16497405 0.6604 0.28949204 -0.012420741
0.442172 0.32221398 0.0014128637 0.33857754 0.23146181 -0.59757376 0.17154922 0.5278814
0.0057137115 0.26898682 0.1917213 0.0903165 -0.061028328 -0.19719447 0.11050306 0.3479771

bn1.running_mean f4 [256]
00000000: d16c 8640 0400 0000 4729 613b c084 fe40
00000010: b7dd b53f ca62 a23f 0a7e 8e3f 0661 8e3f
00000020: 740b a73f 8b67 4f3e 6789 9d40 b3fb 6540
00000030: 9913 583f c718 d43c 48e2 8340 2b9e c23e
00000040: cce1 bb3d f1cd 5e3f 49cc 9740 2752 e240
00000050: 478d 4640 4c69 943f 963a 953b 93b5 813e
00000060: 817a 833f 56d3 083b 0400 0000 94fd 6f38
00000070: d867 5340 c05a c040 47f2 0f40 b8fd a041
00000080: c4c9 cb40 ddc2 533e 8d7a 4d3a 6de3 fd3f
00000090: 5d4d 7541 607c 2240 1979 3940 da17 2339
000000a0: e94a 723f b73d 2040 119e 913e 12d0 c53e
000000b0: a602 0540 16c8 783f 0185 713f adfe c641
000000c0: 9d52 683f 9053 1e40 de7e 9b3f 9764 2f41
000000d0: 1dc6 9640 6f42 dc40 4645 a641 d999 5240
000000e0: 310a fb40 f4e8 1e3f 5569 4140 32b4 0d3e
000000f0: c490 753b 6756 8e3f 11c3 743f d7e4 013f
00000100: 8cd1 2d3c 2552 b23f 41e8 0040 857c 9140
00000110: 0400 0000 a1f3 2d40 f33c 1940 3caf 2340
00000120: 282d 8340 386b 2540 46f5 dd3f 7113 e43e
00000130: f2b4 9340 d34d 5838 56e7 d840 52cc c43f
00000140: e456 533e a1e9 5440 080e 9540 210c 6b39
00000150: faa9 b53f 3285 8740 3774 ea3d 785e 1e40
00000160: cceb e03f 1fd9 4940 5336 8940 86ca 2a40
00000170: f16f 353e cef2 7738 bf6a 6d3f 75cf 283e
00000180: f875 2540 7145 943d f0ff 413f 0400 0000
00000190: c307 5740 ed02 2d3d 9cc8 0640 3b11 803f
000001a0: 2648 ba40 1b75 0540 8a44 f43a 1066 ce3f
000001b0: 1c85 f33e 9be2 7440 3ceb b93a 6bab 0340
000001c0: 134f 0b3f 14b4 9840 9008 ee3f 9af9 023f
000001d0: 02db 1540 08ac 9b3e 3a23 f43e 693c 2540
000001e0: a698 bf3f b2bc 783e 1ea0 793e ecee 1b3c
000001f0: b4ce 1041 a9b8 4740 0400 0000 5433 993e
00000200: 71b7 5140 0400 0000 8c2b a43f b95c bc3f
00000210: 8f2a 1c3f dc93 cd3e a9d2 913d 260a fe3b
00000220: bf11 e03b 3ce4 003f cc62 523b 37dd 3340
00000230: 4c1c 9d3f 24d6 0640 be88 8840 c53e c73f
00000240: 89fd 6a41 a21f ca3f cf72 093f 3bc9 c33d
00000250: af14 bb41 77d9 a33f a11c 963f ffbe 993c
00000260: dbfc 8340 062a ef3f 0090 a13e 7c3d 6d40
00000270: 0400 0000 dfc6 2041 80be dc3f 831d 1940
00000280: af50 2140 57f8 b73f 1931 4640 1c96 d13f
00000290: 5476 c040 5b0c b440 a41c 9a3c 7c7c 3e3f
000002a0: b35c 123f afab 053f 1cdc 8f3d b87a a140
000002b0: f01d 6e40 72ff 6441 2bca 503e c4b9 f93e
000002c0: fb96 1e3f 6fbe 9040 b82b a73e 76bc 0239
000002d0: 6a84 5240 e98f 153f 2bd7 3f40 7228 573e
000002e0: 0400 0000 0400 0000 61ee 383e 2893 dc3e
000002f0: 22f1 4b3f fc1f 0340 6df7 4640 6f10 9340
00000300: bce9 d240 a0e5 ea3f 1682 b73f 18ee fb3e
00000310: c9b6 e23f f30a 923f 0400 0000 b7c1 cc3f
00000320: 65c3 7f3f eb47 d93e fd66 d240 19f2 413f
00000330: ee07 eb3a 289f ea3f 6628 c23f 53e0 083f
00000340: 0799 7640 4393 b241 5a75 d13c 5e05 5e3f
00000350: 25d4 2d3f 5dab 133c 3ae7 7240 8232 263f
00000360: 5d78 cc3d fb78 853f 57b0 7941 18ba b43f
00000370: 19e5 aa3f b496 4640 53c1 d03f 2054 a53f
00000380: 09fb c33b 046e 4040 7bde c73f 974c ea3f
00000390: 1be1 b53b 140e 6541 1134 283f 49b1 633d
000003a0: d475 ee3f 9236 113e 6490 7741 985e 383f
000003b0: 3f82 9f40 86f5 8f3f 2dbb ad40 0400 0000
000003c0: c2ee 9840 b129 a63f 3878 0340 74fb 5b3f
000003d0: 83f0 ca40 e7b0 2e41 76fa 3b3d da88 6240
000003e0: 50be c83f 1cc9 ae40 598f 133f 0400 0000
000003f0: b050 8f3f 4ece 7340 3492 c13f 4948 8d3f
4.2007833 6e-45 0.0034356879 7.953705 1.4208287 1.2686398 1.1132214 1.1123359
1.305037 0.20254342 4.9230227 3.5934875 0.84404904 0.025890721 4.121372 0.38011298
0.09173927 0.8703299 4.743687 7.0725284 3.102373 1.1594634 0.004554103 0.25333843
1.027176 0.002087792 6e-45 5.7218203e-05 3.3032131 6.011078 2.2491624 20.123886
6.3683796 0.20679803 0.0007838391 1.983503 15.3313875 2.5388412 2.8980162 0.00015553777
0.94645554 2.5037668 0.28440908 0.38635308 2.0782866 0.97180307 0.9434357 24.874353
0.9075106 2.4738503 1.2148092 10.962058 4.7116838 6.8831096 20.783825 3.29064
7.844994 0.6207421 3.022054 0.1383827 0.003747032 1.1120118 0.9561015 0.50739807
0.010609042 1.3931319 2.0141757 4.54645 6e-45 2.717995 2.394345 2.5575705
4.099262 2.584669 1.7340477 0.44546083 4.615838 5.1570893e-05 6.7782393 1.5374854
0.20638615 3.3267596 4.657963 0.00022415865 1.4192498 4.235009 0.114479475 2.474516
1.757196 3.153877 4.2878814 2.668611 0.17718484 5.911552e-05 0.92741007 0.16485389
2.5853252 0.072398074 0.75781155 6e-45 3.3598487 0.04223912 2.1059942 1.0005258
5.821307 2.0852726 0.0018636149 1.6124897 0.47562492 3.826331 0.0014184485 2.0573375
0.5441753 4.771982 1.8596363 0.5116211 2.3414922 0.30404687 0.47683126 2.5818121
1.496846 0.24290732 0.24377486 0.009517413 9.050465 3.1206458 6e-45 0.29921973
3.2768214 6e-45 1.282579 1.4715797 0.6100244 0.4015187 0.07120258 0.0077526746
0.006838053 0.5034826 0.0032102345 2.810377 1.227426 2.10682 4.266692 1.5566031
14.686898 1.5790904 0.5369081 0.09559866 23.3851 1.280074 1.1727487 0.018767832
4.124616 1.86847 0.31555176 3.7068777 6e-45 10.0485525 1.7245636 2.3924263
2.5205495 1.4372662 3.0967467 1.6373935 6.0144444 5.626508 0.018812485 0.744087
0.571727 0.52215093 0.070244044 5.0462303 3.7205772 14.312365 0.20389621 0.4877454
0.6194913 4.5232463 0.32650542 0.00012467973 3.289332 0.58422714 2.9975078 0.21011522
6e-45 6e-45 0.18059684 0.4308102 0.79664814 2.0488272 3.1088517 4.595756
6.591032 1.8351326 1.4336574 0.4920509 1.7712032 1.1409591 6e-45 1.5996617
0.99907523 0.42437682 6.575072 0.75760037 0.001793144 1.8329821 1.5168579 0.5346729
3.85309 22.321905 0.025568653 0.8672694 0.6790183 0.009013024 3.795363 0.6492082
0.09983895 1.0427545 15.605552 1.4119291 1.3351165 3.1029482 1.6308998 1.2916298
0.0059808535 3.0067148 1.5614771 1.8304623 0.0055505163 14.315937 0.6570445 0.055588994
1.8629708 0.14180973 15.472752 0.7201934 4.984649 1.1246803 5.4290986 6e-45
4.7791452 1.2981473 2.0542126 0.8593056 6.3418593 10.918189 0.045893155 3.5396028
1.5683079 5.4620495 0.57640606 6e-45 1.1196499 3.8094668 1.5122743 1.1037685
