checkpoint_actor_0_2021-06-21_01-46-51.pth (torch_old, 163992 bytes, 10 tensors)

fc1.weight f4 [256, 24]
0.07264648 0.39220685 0.20644133 -0.07647143 -0.039476223 -0.2750907 0.19463317 -0.038883425
-0.053780682 0.43832418 -0.13363446 -0.038463954 0.17216332 -0.5323128 -0.10681695 -0.008416357
0.076373495 0.39737362 -0.14759736 -0.39611632 0.08660402 -0.7607478 -0.0833532 -0.39511535
-0.16495915 0.3162245 0.19281954 0.11048332 0.1638665 -0.41889846 0.25646895 0.07277285
-0.060119603 0.63775724 0.067478955 0.0700159 -0.031160995 -0.87813586 0.03089289 0.102505915
-0.07629512 0.56410164 -0.04491636 -0.14421484 -0.07774901 -1.3522198 0.046691127 -0.2239958
0.18119939 -0.21944453 0.06599725 0.28321257 0.044967808 0.124351986 0.13350743 0.3372478
0.196081 -0.026723351 -0.030127447 0.46946642 -0.07091217 0.5494294 0.016616957 0.4141054
0.24163516 0.23250005 -0.0038254084 0.41534302 -0.17746253 0.7233674 -0.027926592 0.42578444
0.03632869 0.36301312 -0.12161684 0.19446442 0.07665514 -0.24307619 -0.12588318 0.15222955
0.14315484 0.25155383 -0.009737255 0.2285908 0.55597377 0.092258245 -0.0058091553 0.22008504
0.19122767 0.16522205 0.01163258 0.114835165 1.032001 0.23494194 0.05583837 0.14134964
0.21623725 0.041878056 -0.02954297 0.13912657 0.87501335 0.32583025 0.0026629504 0.059001844
0.15239249 -0.007305985 -0.03183522 -0.0041630343 -0.1838199 0.10002078 0.004742804 -0.015938828
0.12520078 -0.22751823 -0.008535101 -0.019704469 -1.5196521 0.20195293 -0.031554163 -0.021866936
-0.054000884 0.23834153 -0.022463514 -0.1461599 -0.46248192 -0.5023059 -0.07569761 -0.22139251
0.05872131 0.18714082 -0.03651457 -0.19159235 -0.18596803 -0.7785356 -0.1199559 -0.22166558
0.045274127 0.17525572 -0.05768389 0.024315136 -0.17664485 -1.163119 -0.024129106 0.005598674
-0.20240606 -0.0039095003 0.16340062 0.43334863 0.25884017 -0.50239617 0.08250136 0.44704968
-0.12510079 0.15398595 0.0427129 0.41980466 0.0963214 -0.63791835 0.060324855 0.4197307
-0.21571606 0.4055576 -0.03761792 0.33325833 -0.063018784 -0.7919005 0.037372485 0.33170387
0.2101129 0.25739968 -0.028510906 -0.03683052 0.05210597 -0.3294113 -0.038364183 0.04646715
0.32257915 0.28268352 -0.032950103 0.07149689 -0.06047468 -0.20451854 0.00449746 0.009765354
0.389516 0.26288217 0.005752148 -0.096998066 -0.09229773 -0.07803213 0.0016366212 -0.122390404
0.22580095 -0.23075195 -0.084081516 0.48158905 -0.0004689702 0.06266128 -0.09370751 0.45574743
0.22452404 -0.21548082 -0.03883118 0.46077347 0.10315828 -0.07231514 -0.010677606 0.42622975
0.35219926 -0.04699441 0.054687884 0.6187491 0.043582145 0.17165951 -0.045707718 0.5941029
-0.016016988 -0.062838614 -0.0011542661 -0.2944963 -0.09309907 0.31328893 -0.042780105 -0.26191443
-0.0048945304 -0.22559227 0.11418947 -0.13988666 -0.3833174 -0.08516783 0.17407931 -0.21569972
0.058587488 -0.37046272 0.070617914 -0.1397295 -0.7567969 -0.42049217 0.09115685 -0.11746477
-0.08757531 0.7756183 -0.2578371 0.35101447 0.36336222 -0.5434165 -0.19811267 0.30737853
-0.084183455 0.627673 -0.013732472 -0.16141658 0.27027565 0.041931663 -0.01941891 -0.20944212
00000000: adc7 943d 56cf c83e 5b65 533e 0e9d 9cbd
00000010: d2b1 21bd b0d8 8cbe eb4d 473e 3a44 1fbd
00000020: 2249 5cbd 076c e03e 79d7 08be 618c 1dbd
00000030: 954b 303e a745 08bf d8c2 dabd c3e4 09bc
00000040: b569 9c3d 8e74 cb3e c323 17be c2cf cabe
00000050: 735d b13d 5ec0 42bf 15b5 aabd 8f4c cabe
00000060: 0deb 28be 2de8 a13e 7c72 453e 1445 e23d
00000070: 9fcc 273e dc79 d6be e64f 833e ef09 953d
00000080: f93f 76bd 0f44 233f 6832 8a3d 7f64 8f3d
00000090: 5845 ffbc 83cd 60bf 1613 fd3c 9fee d13d
000000a0: 9e40 9cbd f768 103f 38fa 37bd 0ead 13be
000000b0: df3a 9fbd 8a15 adbf 323f 3f3d 285f 65be
000000c0: 558c 393e 11b6 60be 9129 873d 3d01 913e
000000d0: 2a30 383d 41ac fe3d 2cb6 083e beab ac3e
000000e0: 75c9 483e eeea dabc d6cd f6bc e75d f03e
000000f0: 663a 91bd 68a7 0c3f 4920 883c 9f05 d43e
00000100: 356f 773e 7e14 6e3e b4b3 7abb d7a7 d43e
00000110: bdb8 35be 9b2e 393f 4fc6 e4bc 6b00 da3e
00000120: 64cd 143d dbdc b93e 4012 f9bd ae21 473e
00000130: 5ffd 9c3d f7e8 78be 85e7 00be 10e2 1b3e
00000140: 2f97 123e aacb 803e 0289 1fbc b513 6a3e
00000150: 4c54 0e3f e4f1 bc3d ba5a bebb f95d 613e
00000160: 30d1 433e f82f 293e 9496 3e3c b32e eb3d
00000170: 9c18 843f 9f94 703e c6b6 643d f6bd 103e
00000180: 4c6d 5d3e 5388 2b3d 1904 f2bc 3277 0e3e
00000190: e000 603f 39d3 a63e e584 2e3b ebab 713d
000001a0: c70c 1c3e 0b67 efbb a665 02bd 106a 88bb
000001b0: 493b 3cbe b2d7 cc3d 8669 9b3b 2592 82bc
000001c0: a234 003e 8afa 68be cfd6 0bbc 446b a1bc
000001d0: f683 c2bf c0cc 4e3e f03e 01bd 4a22 b3bc
000001e0: 0830 5dbd cd0f 743e 6705 b8bc f1aa 15be
000001f0: 6eca ecbe 1f97 00bf 5907 9bbd b8b4 62be
00000200: c285 703d d8a1 3f3e 4d90 15bd c930 44be
00000210: 676e 3ebe 1c4e 47bf 70ab f5bd 4dfc 62be
00000220: 5d71 393d 3c76 333e f145 6cbd 8930 c73c
00000230: 63e2 34be 15e1 94bf 67aa c5bc 1575 b73b
00000240: 8943 4fbe 441b 80bb 7e52 273e dfdf dd3e
00000250: b386 843e 099d 00bf 79f6 a83d b2e3 e43e
00000260: 6c1a 00be 7eae 1d3e b9f3 2e3d a3f0 d63e
00000270: 2744 c53d 9e4e 23bf 3217 773d f1e6 d63e
00000280: ace4 5cbe 3fa5 cf3e 4015 1abd d6a0 aa3e
00000290: fe0f 81bd feb9 4abf e413 193d 17d5 a93e
000002a0: d627 573e e4c9 833e b48f e9bc 99db 16bd
000002b0: 126d 553d 99a8 a8be c323 1dbd 5754 3e3d
000002c0: 1829 a53e e5bb 903e b0f6 06bd f66c 923d
000002d0: 4cb4 77bd 4f6d 51be 6e5f 933b ddfe 1f3c
000002e0: a46e c73e 7e98 863e 847c bc3b eca6 c6bd
000002f0: 9806 bdbd 4fcf 9fbd e583 d63a d2a7 fabd
00000300: 5d38 673e 3d4a 6cbe ee32 acbd d792 f63e
00000310: 1de0 f5b9 8f54 803d b9e9 bfbd ba57 e93e
00000320: a1e9 653e 01a7 5cbe 720d 1fbd 80ea eb3e
00000330: a644 d33d f619 94bd 20f1 2ebc c93a da3e
00000340: 7653 b43e 367d 40bd 6700 603d 5766 1e3f
00000350: 3183 323d 83c7 2f3e 0438 3bbd 2117 183f
00000360: 0f36 83bc 88b1 80bd be4a 97ba 38c8 96be
00000370: baaa bebd 6867 a03e 313a 2fbd a619 86be
00000380: 4c62 a0bb a901 67be 2bdc e93d 733e 0fbe
00000390: 2e42 c4be 796c aebd d941 323e 63e0 5cbe
000003a0: 6ff9 6f3d 4aad bdbe 20a0 903d 4015 0fbe
000003b0: 71bd 41bf c04a d7be 71b0 ba3d 5f91 f0bd
000003c0: af5a b3bd ec8e 463f 3903 84be 2bb8 b33e
000003d0: 9d0a ba3e 581d 0bbf 0cde 4abe b860 9d3e
000003e0: 6068 acbd 2daf 203f 2afe 60bc 634a 25be
000003f0: 9261 8a3e 89c0 2b3d 6814 9fbc ff77 56be

fc1.bias f4 [256]
-0.37778294 0.12826219 -0.33577612 -1.3719753 -0.6533955 -0.17851181 -0.15042855 -0.107213564
-1.2676654 0.002295502 -0.5828626 -0.19749902 -0.020535981 0.03287524 -0.45300674 0.0011247144
-0.59546685 -0.48928902 -0.583809 -0.56310934 -0.21862882 -0.71551925 -0.6087558 -0.17258553
-0.9097365 -0.6323108 -0.65115976 -0.40820298 -0.16452843 -0.12332531 -0.4605862 -0.5489363
-0.6530757 0.011479292 -0.6594129 -0.2748089 -0.43007722 -0.35289565 -0.88700426 -0.40707725
0.032457348 -0.60481465 -0.61365455 -0.693014 -0.025603218 -0.6304503 -0.23690283 -0.2643976
-0.12658301 -0.7727658 -0.12764668 -0.8262827 -0.36995056 -0.13913313 -0.50507694 -0.025081782
-0.12825945 -0.865807 -0.52828044 -0.4325743 -0.43948266 -0.24216707 -0.52477485 -0.4760522
-0.51202863 -0.4748304 -0.7681771 -0.42248753 -0.5733663 -0.3781053 -0.09333501 -0.21519697
-0.20829363 -0.24539667 -0.9848681 -0.1609096 -0.47304785 -0.26518285 -0.604563 -0.1505295
0.06140948 -0.21924575 -0.36523256 -0.72538877 -0.6256838 -0.5306097 -0.61680573 -0.44250402
-0.12657586 -0.06667483 -0.381782 -0.4950156 -0.55375516 -0.20793843 -0.36431032 -0.44145235
-0.49641475 -0.7332307 -0.8692806 -0.29573825 0.14986604 -0.50277096 -0.16565266 -0.3042365
-1.1534233 -0.30786964 -0.39953586 -0.75891244 -0.6519794 -0.32111934 0.046287924 -0.45005915
-0.55912685 -0.8155145 -0.16396636 -0.12624943 -0.1107906 -1.0747339 -0.67882866 -0.077704206
0.07183764 -0.8486127 -0.42420983 0.5549417 -1.1653795 -0.19907904 0.12830244 -0.5359138
-0.60294324 -0.34481218 -0.49332476 -0.083767325 -0.32302958 -0.94319046 -0.7218328 -0.3891554
-0.3848484 -0.64559734 0.011506968 -0.2390284 -0.51103526 -0.47044867 -0.6796872 -0.52130276
-0.14954658 -0.54291683 -0.11905802 -0.5120925 -0.3752465 0.09469132 -0.49255228 -0.6281355
-0.3704664 -0.54275656 -0.102128595 -0.21469198 -0.24404204 -0.5172693 -0.16207923 -0.31563818
-0.65105504 0.068641685 -0.5558035 -1.2501961 -0.66415125 -0.2963104 -0.73004615 -0.15905215
-0.27495483 -0.29498106 -0.58603126 -0.46647152 -0.19674657 0.27409163 -0.62611073 0.29993868
-0.085498735 -0.72656226 -1.15083 -0.5480661 -0.48316538 -0.34602323 -0.06918685 -0.9044166
-0.37007934 -0.71459705 -0.5336941 -0.056020148 0.020500807 -0.1439961 -0.32393938 -0.3832863
-0.8242262 -0.16691802 -0.30407396 -0.11450924 -0.16159452 -0.8461174 -0.5850614 -0.035463814
-0.19149624 -0.27105546 -0.26681897 -0.4036526 -0.55069596 -0.5662293 -0.46666056 0.025282305
-0.52391875 -0.37869936 -0.96906006 -0.10823852 0.24003266 -0.36128223 -0.47697562 -0.71711606
-0.94994324 -0.19038245 -0.2040058 -0.42208192 -0.41265407 0.081408195 -0.4922612 -1.5364132
0.13089928 -0.12716901 -0.12705107 -0.41674823 -0.14149128 -0.21811536 -0.27352345 -1.0074146
-0.15748824 -0.1567357 -0.64791316 -0.6868531 -1.2537379 -0.28561863 -0.43941814 -0.63413626
-0.43100753 -0.1360641 -0.31681663 -0.42105106 -0.24005745 -0.29012728 -0.45088723 -0.7528806
0.3840287 -0.30426055 -0.08104252 -0.37697205 -1.1750158 -0.4762419 -0.9554131 -0.43170047
00000000: c46c c1be 2a57 033e d9ea abbe e39c afbf
00000010: ed44 27bf cdcb 36be f109 1abe c992 dbbd
00000020: dc42 a2bf 2270 163b 7c36 15bf 2f3d 4abe
00000030: 133b a8bc 30a8 063d 80f0 e7be 276b 933a
00000040: 8470 18bf 1784 fabe 8274 15bf ef27 10bf
00000050: 3ce0 5fbe 452c 37bf 6cd7 1bbf 43ba 30be
00000060: 7ee4 68bf 1fdf 21bf 68b2 26bf fbff d0be
00000070: 247a 28be fb91 fcbd f4d1 ebbe 1787 0cbf
00000080: f82f 27bf a413 3c3c 49cf 28bf c1b3 8cbe
00000090: 1533 dcbe bdae b4be b612 63bf 6e6c d0be
000000a0: fff1 043d 22d5 1abf 7718 1dbf 5e69 31bf
000000b0: d7bd d1bc 3165 21bf a896 72be 1f5f 87be
000000c0: fa9e 01be fbd3 45bf d0b5 02be 4387 53bf
000000d0: 296a bdbe ea78 0ebe b94c 01bf 4f78 cdbc
000000e0: 7256 03be 87a5 5dbf 633d 07bf 617a ddbe
000000f0: df03 e1be a5fa 77be a557 06bf 1dbd f3be
00000100: 4f14 03bf f81c f3be 41a7 44bf 4950 d8be
00000110: 22c8 12bf 0597 c1be 6d26 bfbd 985c 5cbe
00000120: ed4a 55be 4449 7bbe 5120 7cbf 7cc5 24be
00000130: 5433 f2be 0cc6 87be a4c4 1abf 6824 1abe
00000140: 8288 7b3d f581 60be c3ff babe 14b3 39bf
00000150: d02c 20bf 0ad6 07bf fbe6 1dbf e38f e2be
00000160: 1a9d 01be d08c 88bd ee78 c3be af72 fdbe
00000170: e6c2 0dbf d0ed 54be e286 babe 0b06 e2be
00000180: 132a febe 02b5 3bbf 2c89 5ebf 016b 97be
00000190: 7c76 193e 99b5 00bf daa0 29be e3c4 9bbe
000001a0: 60a3 93bf 17a1 9dbe f78f ccbe 1648 42bf
000001b0: 1fe8 26bf c169 a4be 6898 3d3d 276e e6be
000001c0: f022 0fbf 8fc5 50bf cce6 27be 8847 01be
000001d0: 2fe6 e2bd e190 89bf b7c7 2dbf 6223 9fbd
000001e0: 9d1f 933d af3e 59bf 0832 d9be a910 0e3f
000001f0: 282b 95bf 60db 4bbe b761 033e a631 09bf
00000200: 7d5a 1abf 398b b0be 1095 fcbe 348e abbd
00000210: 2264 a5be ee74 71bf 09ca 38bf 603f c7be
00000220: d90a c5be de45 25bf b987 3c3c dcc3 74be
00000230: 35d3 02bf a6de f0be fbff 2dbf 1974 05bf
00000240: bd22 19be 99fc 0abf b1d4 f3bd 7e18 03bf
00000250: 4f20 c0be 86ed c13d d02f fcbe 7dcd 20bf
00000260: c6ad bdbe 18f2 0abf cc28 d1bd 37d8 5bbe
00000270: 28e6 79be c36b 04bf 19f8 25be 549b a1be
00000280: 8bab 26bf 0394 8c3d 2349 0ebf 6d06 a0bf
00000290: d105 2abf ffb5 97be 4ee4 3abf 91de 22be
000002a0: e1c6 8cbe c207 97be 2506 16bf 5bd5 eebe
000002b0: ef77 49be bd55 8c3e cb48 20bf 9091 993e
000002c0: f619 afbd fcff 39bf 664e 93bf 0f4e 0cbf
000002d0: 7461 f7be f529 b1be d6b1 8dbd d987 67bf
000002e0: 0a7b bdbe d5ef 36bf 2da0 08bf 6275 65bd
000002f0: 4ff1 a73c b773 13be 62db a5be 1a3e c4be
00000300: 7d00 53bf 8fec 2abe 95af 9bbe d283 eabd
00000310: 0979 25be 269b 58bf 95c6 15bf 8142 11bd
00000320: 9717 44be c8c7 8abe 7f9c 88be 8eab cebe
00000330: 69fa 0cbf 67f4 10bf 22ee eebe d61c cf3c
00000340: 8a1f 06bf e2e4 c1be 5214 78bf 28ac ddbd
00000350: 1fcb 753e fcf9 b8be 2636 f4be eb94 37bf
00000360: 7b2f 73bf 9ef3 42be e5e6 50be 1f1b d8be
00000370: 6547 d3be 57b9 a63d a909 fcbe 30a9 c4bf
00000380: 760a 063e 9838 02be ad19 02be 0660 d5be
00000390: 17e3 10be a259 5fbe 440b 8cbe f6f2 80bf
000003a0: 9944 21be 537f 20be a3dd 25bf 9bd5 2fbf
000003b0: 7c7a a0bf 9b3c 92be 6afb e0be c156 22bf
000003c0: 05ad dcbe 6354 0bbe ca35 a2be 0194 d7be
000003d0: 9fd1 75be 908b 94be b1da e6be c8bc 40bf
000003e0: 699f c43e 0ac8 9bbe 9ff9 a5bd 7b02 c1be
000003f0: eb66 96bf fad5 f3be f495 74bf d807 ddbe

fc2.weight f4 [128, 256]
0.3395238 0.15208016 0.1513377 -0.04350387 -0.011957638 0.29347393 -0.10555266 0.01788629
-0.073697835 -0.30318594 -0.12823781 -0.19446756 0.018463062 -0.40874752 -0.2486108 0.37649712
-0.091117956 -0.274439 0.13103074 -0.13465703 0.51170695 0.007474759 0.023174781 0.4539398
0.12277035 0.18468422 -0.25956482 0.3704195 -0.40345195 -0.027649693 -0.010123295 0.009884858
0.4743623 -0.029097041 0.098605834 -0.1982244 0.016661523 0.35978708 0.08486922 0.07889589
-0.56545967 -0.18809591 0.03466667 0.108650364 -0.17362313 0.025264246 -0.3982156 -0.117427565
0.21077748 0.18842 -0.14634277 -0.12328246 0.39482108 0.1644256 0.2583272 0.23555383
0.08281974 -0.50732356 -0.1993074 0.34933954 -0.052103132 -0.3165826 0.28261462 0.21128906
0.5838865 0.03725574 -0.06259867 0.41383025 0.36840644 0.21181998 0.32853392 0.0006655566
0.0034645624 -0.25503466 -0.1967635 -0.28279516 0.11642486 -0.06730555 -0.24854696 0.46146542
-0.07825837 0.58041275 0.3787659 0.04153184 -0.21162067 -0.08977587 -0.41410682 0.13247886
-0.34714735 0.6132259 -0.042114194 0.14071208 -0.4655564 0.51183224 0.27628025 0.26049
-0.22545762 -0.21402965 -0.64710176 -0.1152347 0.016010927 0.45993966 0.13794361 -0.07498516
-0.06682017 0.111657016 0.30328676 0.014250418 -0.03837825 -0.6566362 0.12904476 0.05453917
-0.10231652 -0.099163614 -0.13023876 -0.09100154 -0.06566332 -0.0881489 -0.38911057 0.1962208
0.034628868 0.039926346 0.21840855 -0.3389924 0.057165455 0.09713389 0.39469025 0.0063989186
-0.19724254 0.51417637 0.31844056 -0.025947444 -0.04660344 0.00040569625 -0.3422708 -0.121376716
-0.1502504 0.16201638 -0.25870344 0.23884727 0.08669321 -0.19281763 -0.22455221 0.40480196
0.1427929 0.12492456 0.1611826 -0.29435116 0.117714554 0.555087 0.2133801 -0.23192012
0.145476 -0.08745923 0.37126207 0.48841724 0.21837527 0.07068573 -0.48492935 0.51775575
-0.44306123 0.66930896 0.08145223 0.48543224 -0.44516814 0.07417931 -0.13231815 0.34781235
0.4282516 0.4893662 -0.11466704 -0.06891737 0.06482557 0.09890284 0.16750908 -0.3905758
0.032213848 -0.40084776 0.26278958 -0.3703873 0.24379028 0.2228406 0.026964068 0.27148798
-0.34855616 0.12923484 -0.09418926 0.28481007 0.19151413 -0.009644043 -0.45662245 -0.13291827
0.17828009 -0.119672656 -0.15169881 -0.038985826 0.16720344 0.04036202 0.109009504 0.14869466
0.37899825 -0.034223847 0.10782175 0.0019299344 0.24508838 -0.01779552 0.17233409 -0.13125247
-0.07642339 0.04665776 0.34403884 -0.14014214 0.03510789 0.24583705 -0.098264754 -0.042648423
-0.097681336 -0.08487387 0.17551197 0.09771495 -0.039024755 -0.08367186 -0.15302758 -0.24205822
0.317279 0.683635 0.2871275 0.49300295 0.1579562 -0.28279337 -0.09793343 0.068226404
-0.1878506 0.3132901 0.1394298 -0.1477079 -0.1051607 -0.33714682 0.28522775 -0.2534098
0.09076952 0.057801843 -0.09470455 -0.25117818 -0.06505312 0.2955107 0.23793696 -0.0863326
0.0793506 -0.16398491 -0.14745538 -0.18712996 -0.19209115 0.16200621 -0.08482434 0.024240086
00000000: 10d6 ad3e e7ba 1b3e 45f8 1a3e 1d31 32bd
00000010: f8e9 43bc 3742 963e fe2b d8bd 4586 923c
00000020: e4ee 96bd 303b 9bbe c650 03be 8122 47be
00000030: d93f 973c 5b47 d1be d493 7ebe 3bc4 c03e
00000040: 0d9c babd 4583 8cbe ec2c 063e 88e3 09be
00000050: 3aff 023f d3ee f43b 0ad9 bd3c cc6a e83e
00000060: 056f fb3d dc1d 3d3e aee5 84be a0a7 bd3e
00000070: 4191 cebe 9c81 e2bc 2ddc 25bc 19f4 213c
00000080: 9edf f23e eb5c eebc dbf1 c93d 56fb 4abe
00000090: bf7d 883c 0336 b83e eacf ad3d 2b94 a13d
000000a0: f7c1 10bf 379c 40be a3fe 0d3d 1584 de3d
000000b0: 43ca 31be f7f6 ce3c eae2 cbbe dd7d f0bd
000000c0: 0dd6 573e 2cf1 403e e1da 15be 847b fcbd
000000d0: fd25 ca3e 2f5f 283e 7643 843e 0635 713e
000000e0: 659d a93d f5df 01bf 3d17 4cbe a2dc b23e
000000f0: 186a 55bd 1d17 a2be ddb2 903e 295c 583e
00000100: 9679 153f 7a99 183d bb33 80bd 8fe1 d33e
00000110: c59f bc3e 56e7 583e 9935 a83e bf78 2e3a
00000120: b60d 633b e793 82be 5f7c 49be 87ca 90be
00000130: 2870 ee3d 7ed7 89bd 1883 7ebe 3245 ec3e
00000140: ed45 a0bd ee95 143f 9bed c13e 4a1d 2a3d
00000150: 17b3 58be 69dc b7bd cf05 d4be 8aa8 073e
00000160: 4cbd b1be 5ffc 1c3f ef7f 2cbd d416 103e
00000170: 695d eebe 7007 033f 9b74 8d3e f25e 853e
00000180: 5dde 66be 972a 5bbe 76a8 25bf 2c00 ecbd
00000190: 5929 833c 367d eb3e 1741 0d3e d291 99bd
000001a0: 03d9 88bd 6fac e43d 6748 9b3e 967a 693c
000001b0: 8332 1dbd 4f19 28bf 4f24 043e 7764 5f3d
000001c0: 538b d1bd 4b16 cbbd 4f5d 05be 045f babd
000001d0: 7e7a 86bd 6987 b4bd 8039 c7be 1bee 483e
000001e0: 00d7 0d3d cf89 233d 7ea6 5f3e 6990 adbe
000001f0: 5326 6a3d 22ee c63d d714 ca3e 05ae d13b
00000200: f3f9 49be 10a1 033f a40a a33e bc8f d4bc
00000210: 40e3 3ebd a1b3 d439 1e3e afbe 5b94 f8bd
00000220: 3edb 19be 9fe7 253e c774 84be 6194 743e
00000230: 368c b13d fc71 45be 04f1 65be 3442 cf3e
00000240: 4d38 123e 73d8 ff3d 0d0d 253e 32b5 96be
00000250: 5414 f13d 2e1a 0e3f 5080 5a3e 787c 6dbe
00000260: a9f7 143e d31d b3bd 1016 be3e d311 fa3e
00000270: c49d 5f3e aec3 903d a948 f8be a48b 043f
00000280: ecd8 e2be d557 2b3f 6dd0 a63d 938a f83e
00000290: 14ed e3be 52eb 973d 697e 07be 7614 b23e
000002a0: cb43 db3e 358e fa3e 8ed6 eabd 8d24 8dbd
000002b0: 45c3 843d 928d ca3d 8087 2b3e 8df9 c7be
000002c0: abf2 033d eb3b cdbe 5b8c 863e 67a3 bdbe
000002d0: 29a4 793e 5430 643e c0e3 dc3c 7900 8b3e
000002e0: f475 b2be 2356 043e 4ce6 c0bd a0d2 913e
000002f0: 481c 443e 0c02 1ebc 6bca e9be ba1b 08be
00000300: 0e8f 363e f016 f5bd ef56 1bbe 9aaf 1fbd
00000310: 6137 2b3e a552 253d 6040 df3d 6a43 183e
00000320: 0f0c c23e 4e2e 0cbd a6d1 dc3d daf5 fc3a
00000330: 73f8 7a3e e9c7 91bc 5978 303e 0c67 06be
00000340: de83 9cbd 351c 3f3d dc25 b03e 6c81 0fbe
00000350: 4acd 0f3d b5bc 7b3e 083f c9bd 1db0 2ebd
00000360: 270d c8bd 5ad2 adbd 69b9 333e c71e c83d
00000370: 6cd8 1fbd 275c abbd 43b3 1cbe 1cde 77be
00000380: 6572 a23e b402 2f3f 6002 933e e26a fc3e
00000390: 45bf 213e 4bca 90be 5291 c8bd 49ba 8b3d
000003a0: e85b 40be 8f67 a03e afc6 0e3e bd40 17be
000003b0: 7e5e d7bd 829e acbe 5f09 923e eebe 81be
000003c0: 5fe5 b93d a0c1 6c3d 76f4 c1bd 6d9a 80be
000003d0: 923a 85bd 2e4d 973e bfa5 733e 25cf b0bd
000003e0: 9182 a23d a9eb 27be 8bfe 16be ff9e 3fbe
000003f0: 8bb3 44be f5e4 253e 62b8 adbd 2593 c63c

fc2.bias f4 [128]
-0.12657298 -0.14655943 -0.26853985 -0.21882877 0.15115562 -0.28007665 -0.25894943 -0.07496036
-0.14872904 -0.28130415 -0.015769243 -0.23004743 -0.1408108 -0.09925441 0.025568346 0.20949362
0.14871766 -0.08379816 -0.0711726 -0.022908475 -0.23268451 -0.371264 -0.071716465 0.14561132
-0.1993593 -0.10033449 -0.036631484 -0.1634315 -0.34774518 -0.14231677 -0.0778018 -0.04591589
-0.3133412 0.12291097 -0.022144781 -0.3765361 -0.03387012 -0.23447064 -0.14767995 -0.12826082
0.016473237 0.042057496 0.041028984 -0.08315115 -0.34822857 -0.21667013 -0.017826937 -0.16486241
-0.092518985 -0.20119497 -0.006022098 0.07843172 -0.2414364 -0.048142493 -0.042200856 -0.38880292
-0.41036403 -0.12795614 -0.38092402 0.0206491 0.021185705 -0.087868266 0.046990953 -0.11177715
-0.15665913 -0.2742466 -0.24738884 -0.18316944 -0.24421722 -0.08526752 -0.1716248 -0.3871477
-0.016752413 -0.27095017 -0.13901295 -0.19449455 -0.18985598 -0.023139281 -0.45050606 -0.256535
-0.11587657 -0.12605627 -0.246043 -0.17922005 0.0068958197 -0.092744 -0.0007730396 -0.21977131
-0.023045572 0.20672108 -0.1842971 -0.022462573 -0.054413415 -0.30959705 0.06433805 0.042160388
-0.020732908 -0.28735954 -0.054544672 -0.014020525 0.31710654 -0.09462293 -0.33806592 -0.17471495
-0.38709408 -0.036512088 0.043975092 0.028337253 -0.3203453 -0.28571182 -0.07282014 -0.112385005
-0.5382121 -0.34841606 -0.12554905 -0.29273853 -0.2933962 0.0061535104 -0.23655641 -0.121484496
0.08032204 -0.017613506 -0.100882344 -0.28419107 0.096090585 -0.18871933 -0.3537771 -0.14437982
00000000: 599c 01be ad13 16be 0e7e 89be a614 60be
00000010: 8ac8 1a3e 3566 8fbe 0595 84be d184 99bd
00000020: 6d4c 18be 1907 90be 802e 81bc 8e91 6bbe
00000030: b530 10be e545 cbbd b574 d13c 7f85 563e
00000040: 7149 183e 5f9e abbd f1c2 91bd 8eaa bbbc
00000050: d944 6ebe 5116 bebe 15e0 92bd 221b 153e
00000060: d824 4cbe 2b7c cdbd e50a 16bd 965a 27be
00000070: a80b b2be 7dbb 11be 8d56 9fbd 4d12 3cbd
00000080: 426e a0be bfb8 fb3d f968 b5bc 57c9 c0be
00000090: 65bb 0abd 1219 70be 6a39 17be ce56 03be
000000a0: e2f2 863c 7b44 2c3d 020e 283d 264b aabd
000000b0: 044b b2be c6de 5dbe cc09 92bc b1d1 28be
000000c0: 987a bdbd 0e06 4ebe 0555 c5bb cfa0 a03d
000000d0: 1b3b 77be 1031 45bd ceda 2cbd 2d11 c7be
000000e0: 3c1b d2be ef06 03be 7908 c3be 4d28 a93c
000000f0: a58d ad3c 47f4 b3bd 9679 403d 6beb e4bd
00000100: 406b 20be 0d6a 8cbe 8053 7dbe c590 3bbe
00000110: 1414 7abe bda0 aebd 69be 2fbe 3938 c6be
00000120: 5b3c 89bc fbb9 8abe 6959 0ebe 9429 47be
00000130: 9b69 42be 978e bdbc bba8 e6be 8e58 83be
00000140: b250 edbd e514 01be b2f2 7bbe 7685 37be
00000150: 54f6 e13b 91f0 bdbd cfa5 4aba bb0b 61be
00000160: 11ca bcbc b1ae 533e 61b8 3cbe 6e03 b8bc
00000170: 9ae0 5ebd 8183 9ebe abc3 833d 5fb0 2c3d
00000180: 0fd8 a9bc ca20 93be 3c6a 5fbd 58b6 65bc
00000190: ca5b a23e abc9 c1bd fa16 adbe 7ae8 32be
000001a0: 3231 c6be b38d 15bd 3a1f 343d 8723 e83c
000001b0: 4d04 a4be d248 92be ba22 95bd 1c2a e6bd
000001c0: 45c8 09bf 9763 b2be ee8f 00be d3e1 95be
000001d0: 0738 96be 63a3 c93b d83b 72be ddcc f8bd
000001e0: e27f a43d 334a 90bc 679b cebd 7e81 91be
000001f0: 24cb c43d a43f 41be 4622 b5be 4ed8 13be

fc3.weight f4 [2, 128]
0.14454369 -0.77699775 0.6047026 -0.5673672 -0.64932835 -0.04861727 0.66089606 -0.013433581
0.6756328 -0.37120384 0.026503732 0.1297191 0.34941414 -0.51678354 0.57151854 -0.7147326
-0.06315059 -0.34027174 -0.5919148 -1.1379523 -2.5288246 0.9358755 -0.040139776 -0.4788277
0.479994 -0.37026143 -0.4940773 0.5883452 0.06554821 0.65454865 -0.011733383 -0.036093038
-1.081573 -0.5806443 0.23548138 1.9149102 0.18908413 -1.1496891 1.1354564 0.13881312
-0.99826634 -0.8867002 0.41119075 -0.37105197 -0.39309096 0.45491758 0.7699255 -0.43825015
-0.48051202 -0.018267345 0.002844699 1.1820127 -0.44708455 0.21389896 0.010512055 -0.4665911
-0.45965233 1.3576823 -0.7508936 0.6852676 0.11823482 0.85768443 -0.25169683 0.18595122
-1.1325495 1.0102315 0.47610414 0.23295483 1.3940128 0.66336083 -0.11407073 -0.7186473
0.2913908 -0.12482986 0.82722384 -1.4756207 -0.95242804 -0.8170169 0.14001025 0.14477947
-1.7133075 0.60035545 -0.5672788 -0.44013676 -0.34524867 -0.28528145 -0.54554397 -1.3125149
1.3259192 0.034786247 1.6290762 0.5484843 0.28419042 -0.61635196 -0.20933537 -0.9293052
-0.019313598 -0.16036986 -0.39930308 0.17473564 -0.08626392 -0.93029404 -0.12129854 -0.70084417
0.76263446 -0.4784481 0.21573915 0.21555111 -0.7334328 -1.6332595 -0.6434697 -0.6245222
0.9259259 -0.6950018 -0.22062919 -0.39514497 0.020742847 0.08902348 -0.4357329 1.1209804
-0.29752272 0.73397213 0.6646447 -0.61186576 0.5357587 0.3647923 0.565341 -1.8178822
0.5139856 -0.18107222 -0.8406895 0.27021152 0.666047 0.5026259 -0.41685843 1.165175
-0.81513494 1.4710941 -1.1587865 -1.6403167 0.3307148 0.15282194 0.28883383 -0.30897224
1.1301513 -0.8860386 -0.8506745 0.55636173 0.13141322 0.13292311 0.39101496 -0.49439767
-1.8875504 -0.9159605 -0.85300773 -0.65810883 -1.0262058 -1.8059108 0.5497274 1.0710344
-0.56104326 0.33633137 -1.8302733 -2.8800428 -2.0028448 0.3249619 0.5212185 -1.4659986
0.18789737 0.1397693 -0.5085656 1.3400043 -0.044257652 1.2474508 -0.98715794 -0.55972266
1.0639176 0.625555 -1.0108619 1.6430247 -0.18549496 0.40829614 0.5442904 -0.713183
0.8648929 0.068972796 -0.10075167 1.222637 -0.5850704 0.2835548 0.7929002 -0.35198954
0.93362397 -0.47258103 1.1577002 0.2142879 -0.64941263 1.3999144 -1.4679525 0.5952478
-1.4924619 0.6946517 0.18818174 0.71306187 0.6079877 -0.27348116 -1.3768855 1.9586809
0.23053285 0.10376536 -0.26933607 2.1607845 0.50403976 -0.9168345 0.5124731 0.27238527
0.6508914 -0.26620972 -0.012755255 -0.22038382 0.3648309 -1.1986418 1.1732843 0.7294387
0.4767466 -0.8754135 -0.911462 -1.0556802 -0.050175924 -0.7215402 -1.3939708 0.6588975
-1.1215539 0.8195567 -0.37567207 -1.3212756 0.2885996 0.4897958 0.19273819 -0.68608135
-0.3132675 -0.45450112 0.6257662 1.0971469 -1.2444478 0.30663896 1.6700007 -0.32733116
0.40916824 -0.9585061 0.47121468 0.62024474 -0.63439894 -0.53703165 0.22099946 0.5297545
00000000: 4303 143e 53e9 46bf cacd 1a3f fa3e 11bf
00000010: 623a 26bf e722 47bd 7c30 293f 8618 5cbc
00000020: 45f6 2c3f 6e0e bebe 5b1e d93c 15d5 043e
00000030: 69e6 b23e ed4b 04bf 0a4f 123f b7f8 36bf
00000040: 1955 81bd 1938 aebe ba87 17bf 6ca8 91bf
00000050: 43d8 21c0 8995 6f3f 9b69 24bd e728 f5be
00000060: c6c1 f53e e892 bdbe b3f7 fcbe cb9d 163f
00000070: 243e 863d 8090 273f 603d 40bc 4bd6 13bd
00000080: fc70 8abf 1ba5 14bf 0822 713e c71b f53f
00000090: 459f 413e 0329 93bf a356 913f 0725 0e3e
000000a0: 628e 7fbf c9fe 62bf 9887 d23e 86fa bdbe
000000b0: 3843 c9be f5ea e83e d619 453f 5362 e0be
000000c0: ac05 f6be 66a5 95bc 216e 3a3b 314c 973f
000000d0: 44e8 e4be 5408 5b3e c13a 2c3c 07e5 eebe
000000e0: 8d57 ebbe 89c8 ad3f 903a 40bf b36d 2f3f
000000f0: 1925 f23d 3591 5b3f 68de 80be ff69 3e3e
00000100: 62f7 90bf 444f 813f ecc3 f33e b68b 6e3e
00000110: 036f b23f 04d2 293f ea9d e9bd 45f9 37bf
00000120: 2d31 953e cca6 ffbd f1c4 533f 24e1 bcbf
00000130: 53d2 73bf 0528 51bf d95e 0f3e 1241 143e
00000140: a94d dbbf e5b0 193f 2f39 11bf 9b59 e1be
00000150: 6fc4 b0be 6910 92be c5a8 0bbf 7d00 a8bf
00000160: b8b7 a93f 067c 0e3d 9285 d03f 7869 0c3f
00000170: 6881 913e 3ec9 1dbf 035c 56be f2e6 6dbf
00000180: 8d37 9ebc ff37 24be 7471 ccbe e6ed 323e
00000190: 23ab b0bd c027 6ebf 5e6b f8bd 866a 33bf
000001a0: 033c 433f 26f7 f4be b9ea 5c3e 6eb9 5c3e
000001b0: 41c2 3bbf a60e d1bf 6eba 24bf b0e0 1fbf
000001c0: 7b09 6d3f a3eb 31bf 9eec 61be 7150 cabe
000001d0: e7ec a93c f151 b63d 6218 dfbe 497c 8f3f
000001e0: e654 98be 99e5 3b3f 2826 2a3f 3ca3 1cbf
000001f0: 7b27 093f 0ec6 ba3e 30ba 103f 5db0 e8bf
00000200: 8f94 033f ff6a 39be 6d37 57bf 2a59 8a3e
00000210: 0e82 2a3f 17ac 003f 786e d5be 7424 953f
00000220: afac 50bf d04c bc3f 1e53 94bf e6f5 d1bf
00000230: 7353 a93e 5b7d 1c3e 07e2 933e 9c31 9ebe
00000240: cca8 903f 6dd3 62bf cec5 59bf b96d 0e3f
00000250: 3091 063e ff1c 083e 1d33 c83e b121 fdbe
00000260: 409b f1bf 637c 6abf b75e 5abf d279 28bf
00000270: b65a 83bf 1628 e7bf efba 0c3f a817 893f
00000280: 88a0 0fbf a033 ac3e 6546 eabf 9f52 38c0
00000290: 9c2e 00c0 6861 a63e 936e 053f d8a5 bbbf
000002a0: 2b68 403e af1f 0f3e 5b31 02bf 4385 ab3f
000002b0: 8347 35bd 78ac 9f3f 62b6 7cbf fc49 0fbf
000002c0: 742e 883f 5f24 203f ec63 81bf a24e d23f
000002d0: 64f2 3dbe 310c d13e 9e56 0b3f 2993 36bf
000002e0: 9f69 5d3f 9c41 8d3d e456 cebd 5f7f 9c3f
000002f0: 2cc7 15bf 182e 913e 82fb 4a3f f937 b4be
00000300: fb01 6f3f 24f6 f1be 852f 943f 4a6e 5b3e
00000310: e83f 26bf 6530 b33f dee5 bbbf 2962 183f
00000320: fe08 bfbf b2d4 313f b7b2 403e 398b 363f
00000330: 15a5 1b3f b905 8cbe c93d b0bf 0eb6 fa3f
00000340: ce10 6c3e ef82 d43d 6be6 89be 4b4a 0a40
00000350: c008 013f aab5 6abf 7031 033f 1576 8b3e
00000360: d2a0 263f a44c 88be 6bfb 50bc 4cac 61be
00000370: 1ecb ba3e 186d 99bf 2e2e 963f 7fbc 3a3f
00000380: 2118 f43e 191b 60bf 9355 69bf 8720 87bf
00000390: 4585 4dbd dcb6 38bf a36d b2bf 82ad 283f
000003a0: 148f 8fbf 78ce 513f 1758 c0be 8f1f a9bf
000003b0: 54c3 933e 84c6 fa3e 295d 453e 07a3 2fbf
000003c0: 9964 a0be 5fb4 e8be 3732 203f 4f6f 8c3f
000003d0: 114a 9fbf c8ff 9c3e 95c2 d53f f397 a7be
000003e0: 807e d13e a860 75bf 0d43 f13e 5cc8 1e3f
000003f0: f867 22bf e87a 09bf af4d 623e fe9d 073f

fc3.bias f4 [2]
0.012456792 0.10658411
00000000: 9317 4c3c c548 da3d

bn1.weight f4 [256]
0.92365277 0.9280315 0.7274342 1.2043657 1.4820223 1.0519855 1.0981768 0.8202313
1.0332797 0.729341 1.1134168 0.89224696 0.66806424 0.98658496 1.0983497 1.1848308
0.788023 0.26809937 0.8427652 0.86435705 0.17460436 1.5907179 0.7494577 0.8694278
0.2450775 0.70060277 0.6625224 0.38617086 0.617464 1.3818341 0.78883076 1.1618122
0.6527851 0.8703055 0.3698499 0.82115096 0.5524198 1.0053326 1.3725835 0.95227844
2.0265713 0.6195713 1.0051805 1.0633676 0.8755786 0.5341858 0.30492014 0.69926405
1.3251082 1.364192 0.85664093 0.58055824 0.9428355 0.80277026 0.89281595 0.4236613
0.9265244 1.1602166 0.59481186 1.171397 0.7076868 1.0958686 0.7962562 1.0598831
0.84876317 1.0753098 1.3605471 1.2362487 0.50489026 0.97674024 0.45614165 0.75571436
0.6586836 0.736057 1.1715733 1.0884064 0.875105 0.660773 0.58562124 0.6300265
1.3626997 0.6548725 1.113876 0.5196811 0.6228199 0.9476292 0.9103945 0.44163504
0.9825641 1.2116885 1.0414519 1.3939145 1.1503189 0.59578615 0.7553874 0.39672014
1.0684447 0.4976356 0.6694427 1.0474672 0.7971975 1.341096 0.9106349 0.58748055
2.2265878 0.38347912 0.47640556 0.34886733 0.651962 0.8856161 0.58237976 0.7212858
0.73709434 1.3155595 0.60778385 0.8866548 1.5179976 0.97939825 0.71751887 0.6549472
0.83533543 0.7516088 0.7023563 1.7389157 0.42597207 0.6871777 0.48815688 0.51321155
0.6669045 0.6361398 0.8815951 0.92060363 0.92763543 1.2583498 1.5783573 0.56421554
0.62827337 0.73539805 0.34291184 0.84963197 0.94792753 1.0329633 1.0733324 1.0195141
0.4644214 1.0394132 0.9678812 0.4034096 0.9583091 0.19156322 0.49081016 0.65849525
1.3471695 0.9281752 0.62584907 0.7073531 0.2634018 0.62918633 1.6368215 0.9866129
1.386141 0.9062022 1.0798334 1.5589046 1.00839 0.25000706 0.6399207 0.028596872
1.3495685 1.254733 -0.36049697 0.33576372 0.8940384 1.1594012 0.74599665 2.2806451
0.68399817 0.8419889 1.0327857 0.97707516 0.68952674 0.64691955 0.8177307 0.77331424
0.6576191 0.16030024 0.47682032 0.4006252 0.38481042 0.92265695 0.7542639 0.88251275
0.26229075 0.39856592 0.6452293 0.8585521 1.290634 0.788281 0.73682886 1.1734016
0.8220419 1.2339478 1.3774031 0.51935107 0.5173791 0.6971791 1.1744148 0.49027124
0.646394 0.4708397 0.6281663 1.1872504 0.6456321 0.7005982 0.50336325 1.0580963
0.5938528 0.976231 0.5016081 -0.14397795 0.70742995 0.66924536 1.3306985 1.049731
0.72533643 0.59326035 0.33279184 0.6662442 0.7496064 0.3876937 0.99619645 0.9823516
1.7981554 0.90968066 0.47476676 1.6764888 0.833703 0.55852073 0.846442 1.041255
0.5788781 0.781843 0.5431669 0.695666 0.8037428 0.6174384 0.6881684 0.5728102
0.01890485 0.7753467 0.8847579 0.3064135 1.7060559 0.725331 0.4785151 0.67825633
00000000: 8274 6c3f 7993 6d3f 2139 3a3f a828 9a3f
00000010: e8b2 bd3f 76a7 863f 0f91 8c3f aefa 513f
00000020: 8242 843f 17b6 3a3f 7184 8e3f 4c6a 643f
00000030: 4206 2b3f d590 7c3f b996 8c3f 89a8 973f
00000040: e0bb 493f 5244 893e 76bf 573f 8146 5d3f
00000050: 7ccb 323e a59c cb3f 76dc 3f3f d292 5e3f
00000060: 99f5 7a3e b45a 333f 119b 293f 30b8 c53e
00000070: 1f12 1e3f f1df b03f d0f0 493f 43b6 943f
00000080: ed1c 273f 57cc 5e3f f75c bd3e f336 523f
00000090: 626b 0d3f bdae 803f d1b0 af3f 85c8 733f
000000a0: 58b3 0140 3a9c 1e3f c1a9 803f 6e1c 883f
000000b0: eb25 603f 67c0 083f 7e1e 9c3e f802 333f
000000c0: 259d a93f d89d ae3f d24c 5b3f 779f 143f
000000d0: ab5d 713f 5a82 4d3f 968f 643f 22ea d83e
000000e0: b430 6d3f fa81 943f 9745 183f 56f0 953f
000000f0: f62a 353f 6c45 8c3f 72d7 4b3f 40aa 873f
00000100: 8b48 593f c0a3 893f 6826 ae3f 663d 9e3f
00000110: 7d40 013f a60b 7a3f 668b e93e 7f76 413f
00000120: 7d9f 283f 3b6e 3c3f 1df6 953f e750 8b3f
00000130: e206 603f 6b28 293f 46eb 153f 6b49 213f
00000140: f26c ae3f b9a5 273f 7d93 8e3f d209 053f
00000150: 2071 1f3f d497 723f 9d0f 693f fd1d e23e
00000160: 5289 7b3f 9c18 9b3f 4c4e 853f ca6b b23f
00000170: a63d 933f 7185 183f 1261 413f e71e cb3e
00000180: ccc2 883f 18ca fe3e 9960 2b3f 6813 863f
00000190: 2315 4c3f 09a9 ab3f 5e1f 693f 2065 163f
000001a0: 6a80 0e40 6057 c43e 6eeb f33e bd9e b23e
000001b0: fbe6 263f bdb7 623f d716 153f 30a6 383f
000001c0: 37b2 3c3f 4164 a83f b997 1b3f cffb 623f
000001d0: bf4d c23f d8b9 7a3f 51af 373f 9faa 273f
000001e0: 8bd8 553f 6f69 403f 9fcd 333f ca94 de3f
000001f0: 0319 da3e e1ea 2f3f b3ef f93e d561 033f
00000200: 41ba 2a3f 0fda 223f 37b0 613f aeac 6b3f
00000210: 8479 6d3f 9b11 a13f 9d07 ca3f 6e70 103f
00000220: 86d6 203f 0c43 3c3f 2492 af3e 7b81 593f
00000230: 61ab 723f 2438 843f f562 893f 707f 823f
00000240: a4c8 ed3e 7e0b 853f 10c7 773f b48b ce3e
00000250: bf53 753f 2629 443e 784b fb3e 2593 283f
00000260: 0d70 ac3f e49c 6d3f a537 203f 1815 353f
00000270: 9adc 863e 5b12 213f 5e83 d13f aa92 7c3f
00000280: 116d b13f defc 673f fb37 8a3f 308a c73f
00000290: ec12 813f ed00 803e d8d1 233f fd43 ea3c
000002a0: a9be ac3f 179b a03f 0f93 b8be 39e9 ab3e
000002b0: b3df 643f 4267 943f a3f9 3e3f 17f6 1140
000002c0: 811a 2f3f 968c 573f 5232 843f 9921 7a3f
000002d0: d384 303f 859c 253f cd56 513f ecf7 453f
000002e0: ba59 283f bf25 243e cb21 f43e bf1e cd3e
000002f0: df05 c53e 3f33 6c3f 7017 413f 5bec 613f
00000300: f94a 863e d510 cc3e bf2d 253f 12ca 5b3f
00000310: 7f33 a53f c9cc 493f d1a0 3c3f 0632 963f
00000320: 5771 523f 00f2 9d3f bf4e b03f 31f4 043f
00000330: f572 043f 547a 323f 3953 963f d504 fb3e
00000340: 147a 253f e711 f13e 82cf 203f d2f7 973f
00000350: 2548 253f 675a 333f 6adc 003f b36f 873f
00000360: bd06 183f 46ea 793f 6369 003f f56e 13be
00000370: 211a 353f aa53 2b3f 5454 aa3f 965d 863f
00000380: a6af 393f e9df 173f b163 aa3e fb8e 2a3f
00000390: 34e6 3f3f ca7f c63e bb06 7f3f 657b 7b3f
000003a0: f529 e63f d5e0 683f a114 f33e 2f97 d63f
000003b0: 8f6d 553f 37fb 0e3f 6cb0 583f d847 853f
000003c0: 5b31 143f dd26 483f fc0c 0b3f 2b17 323f
000003d0: 17c2 4d3f 7110 1e3f ce2b 303f b0a3 123f
000003e0: 58de 9a3c 1f7d 463f 7e7f 623f 3be2 9c3e
000003f0: 0a60 da3f 4baf 393f eeff f43e 35a2 2d3f

bn1.bias f4 [256]
0.34934285 0.08402212 0.26470822 0.31079912 0.22965325 0.17924652 0.46786806 -0.008551444
0.34251735 0.9286165 -0.008780147 0.1135909 0.13496397 0.5883161 0.01939159 0.16336982
-0.25469854 0.3027494 -0.28327695 0.17313656 -0.5447039 0.2662476 1.0102073 0.10493381
0.00945607 0.06559186 0.3708891 -0.048607234 0.21259813 0.14354883 -0.09577217 -0.22657228
0.26256782 0.15671556 0.2022808 0.22274753 0.18864429 0.034113385 0.57092303 0.20301658
0.44237715 0.38522097 -0.00717039 0.19808957 0.48171616 0.29515302 0.35334253 0.026279379
0.5574546 0.3373646 0.15870568 0.23994373 0.39430434 -0.58069193 -0.5603507 0.12885484
0.5512647 0.5064939 0.20960377 0.18431559 0.2563222 0.43170866 -0.11361291 -0.46380794
0.11794187 0.50639915 -0.1648803 0.40043202 0.013722997 0.08147405 -0.280526 0.5756471
0.42037123 0.16930394 0.39665848 -0.10313512 0.11850467 0.33618537 -0.023224823 -0.36447507
0.38702404 -0.04309944 -0.26100254 -0.14375137 0.64442265 0.24511227 0.44379914 0.27024502
0.45900854 0.15492374 0.3418467 -0.5409018 0.5212437 -0.24358849 0.064308904 -0.0009846285
0.75674707 -0.0048234756 0.6971442 0.06339966 0.69815993 -0.10372896 0.0010848287 0.7081895
0.20299578 0.36371362 -0.26267403 -0.046125244 -0.008586812 0.08693811 -0.18373619 0.03084159
-0.16012383 0.13133156 0.35922393 -0.12471698 0.22880894 0.56999856 0.46188214 0.18398301
0.2094834 0.47633404 -0.27588308 0.308111 0.107513614 0.14155686 0.1896125 0.09437231
0.10631168 0.2143543 0.3673695 0.40830588 0.09369835 0.3556211 0.5921975 0.16841942
0.5143886 0.0025822811 0.19323152 -0.007407425 0.2245438 -0.17375249 -0.07556512 0.2615403
0.22718439 0.40875238 0.9019667 0.19967036 -0.124269836 -0.13412227 0.05874105 -0.016995046
0.4492214 0.0077667735 -0.03620123 -0.089618 -0.06995076 0.20681013 0.047704726 0.2891758
0.12042171 -0.031154603 0.15637249 0.06797786 0.6645687 0.13830158 -0.035116673 -0.10800563
-0.026217787 0.39413434 -0.08244882 0.51298845 0.21325058 0.4043069 -0.39607367 0.5208779
0.2150608 0.20308748 0.39850667 0.082904376 -0.28112516 0.028829882 -0.17514086 -0.46534067
0.6750188 0.05011498 0.20858689 -0.1556137 -0.020742496 0.2893746 0.41011342 -0.37863588
-0.027649097 0.01296502 0.3192505 0.13860089 0.6238439 0.44455224 0.075631134 0.7489277
0.2655427 0.090067506 0.85196096 0.16850099 0.085373044 -0.0794575 -0.30927533 0.42332646
0.11244629 0.08919945 -0.048005756 0.64222103 -0.121327534 0.27636048 0.014589358 0.19956635
0.5090422 0.27504626 -0.05532123 -0.14654468 0.28365853 0.31703773 0.44993716 0.3016079
0.44967705 -0.047933012 -0.22351612 -0.083862744 0.030591693 0.68707216 0.6472462 0.086546525
0.3590734 -0.22209732 0.17178558 0.40845966 0.43388948 0.5684077 0.10378872 0.41463748
-0.012311065 -0.101003855 0.22591497 0.609488 -0.0036445938 0.46227157 -0.18258563 -0.14923844
0.015353102 0.31292737 0.46682972 0.2872089 0.38852054 -0.4028977 0.59438413 0.13232736
00000000: 11dd b23e ca13 ac3d d687 873e 1021 9f3e
00000010: 392a 6b3e 668c 373e 678c ef3e 5b1b 0cbc
00000020: 6f5e af3e d0b9 6d3f 9bda 0fbc 59a2 e83d
00000030: ff33 0a3e e29b 163f 1ddb 9e3c 6b4a 273e
00000040: d967 82be f801 9b3e ad09 91be b64a 313e
00000050: b771 0bbf 9b51 883e 794e 813f 8ae7 d63d
00000060: a2ed 1a3c 0655 863d 2de5 bd3e 6118 47bd
00000070: 53b3 593e 77fe 123e 3324 c4bd 9002 68be
00000080: 4a6f 863e 0b7a 203e b322 4f3e ee17 643e
00000090: f82b 413e 7aba 0b3d 0328 123f 94e3 4f3e
000000a0: 427f e23e af3b c53e 97f5 eabb fed7 4a3e
000000b0: 80a3 f63e 4c1e 973e 50e9 b43e da47 d73c
000000c0: 58b5 0e3f 0ebb ac3e be83 223e cfb3 753e
000000d0: 42e2 c93e 3aa8 14bf 2573 0fbf 86f2 033e
000000e0: af1f 0d3f 96a9 013f 5fa2 563e 3abd 3c3e
000000f0: aa3c 833e eb08 dd3e e3ad e8bd 3c78 edbe
00000100: 828b f13d 60a3 013f 62d6 28be 6d05 cd3e
00000110: 6cd6 603c dedb a63d 1ba1 8fbe 9c5d 133f
00000120: e63a d73e 035e 2d3e d216 cb3e 8138 d3bd
00000130: 94b2 f23d 7d20 ac3e fc41 bebc 7a9c babe
00000140: 0428 c63e 0a89 30bd 20a2 85be 8f33 13be
00000150: e2f8 243f b6fe 7a3e a439 e33e 8e5d 8a3e
00000160: 2b03 eb3e 54a4 1e3e 8806 af3e 8a78 0abf
00000170: 3a70 053f 436f 79be 63b4 833d a60e 81ba
00000180: 2dba 413f 3f0e 9ebb 0b78 323f aed7 813d
00000190: 9cba 323f d96f d4bd d030 8e3a e84b 353f
000001a0: 20de 4f3e ac38 ba3e 367d 86be d3ed 3cbd
000001b0: b3af 0cbc 9c0c b23d 5725 3cbe 81a7 fc3c
000001c0: 80f7 23be c87b 063e 33ec b73e 9e6b ffbd
000001d0: e44c 6a3e 6deb 113f d17b ec3e 0b66 3c3e
000001e0: d182 563e 0ee2 f33e 8c40 8dbe bac0 9d3e
000001f0: 1930 dc3d 48f4 103e c729 423e 4546 c13d
00000200: f0b9 d93d b27f 5b3e db17 bc3e 780d d13e
00000210: ece4 bf3d f813 b63e 419a 173f 2476 2c3e
00000220: f9ae 033f 7d3b 293b 7cde 453e fcb9 f2bb
00000230: cfee 653e 2cec 31be e3c1 9abd 9ce8 853e
00000240: 06a3 683e fe47 d13e 4ae7 663f 6376 4c3e
00000250: 2f81 febd 5957 09be 759a 703d 3239 8bbc
00000260: 5900 e63e 6b80 fe3b be47 14bd a489 b7bd
00000270: 5842 8fbd 09c6 533e 0866 433d da0e 943e
00000280: a89f f63d f037 ffbc 1c20 203e fa37 8b3d
00000290: 2d21 2a3f ee9e 0d3e 80d6 0fbd 0e32 ddbd
000002a0: afc6 d6bc facb c93e edda a8bd 3653 033f
000002b0: 5c5e 5a3e 5001 cf3e 2bca cabe 4158 053f
000002c0: e638 5c3e 2af6 4f3e 1109 cc3e c5c9 a93d
000002d0: a3ef 8fbe a52c ec3c 2058 33be 2241 eebe
000002e0: 08ce 2c3f 5e45 4d3d cd97 553e 3359 1fbe
000002f0: 2bec a9bc e828 943e 63fa d13e 90dc c1be
00000300: 5c80 e2bc 3c6b 543c cd74 a33e 64ed 0d3e
00000310: 3cb4 1f3f 5a9c e33e 7fe4 9a3d bab9 3f3f
00000320: 36f5 873e 5075 b83d 1d1a 5a3f 868b 2c3e
00000330: 10d8 ae3d 9dba a2bd 5659 9ebe 3fbe d83e
00000340: 3e4a e63d 34ae b63d afa1 44bd 9968 243f
00000350: 927a f8bd 1f7f 8d3e 3408 6f3c 1f5b 4c3e
00000360: 9750 023f ddd2 8c3e 8498 62bd cf0f 16be
00000370: b13b 913e c552 a23e 2a5e e63e 5a6c 9a3e
00000380: 123c e63e 6855 44bd 69e1 64be 3bc0 abbd
00000390: 6e9b fa3c f6e3 2f3f edb1 253f 4e3f b13d
000003a0: 78d8 b73e 7b6d 63be 8fe8 2f3e a021 d13e
000003b0: c326 de3e 2b83 113f 2e8f d43d 5d4b d43e
000003c0: 59b4 49bc 1cdb cebd 4156 673e 6807 1c3f
000003d0: 23da 6ebb dcae ec3e baf7 3abe f6d1 18be
000003e0: 948b 7b3c 0438 a03e 4e04 ef3e 0c0d 933e
000003f0: 2aec c63e 9b48 cebe 8f29 183f d380 073e

bn1.running_mean f4 [256]
1.21232 1.1073686 4.3582826 1.1952668 1.0995092 0.36672473 2.767902 7.472697e-25
1.0397804 3.5648935 3.1912422 0.16910793 1.4773662 2.6294503 1.2332034e-05 0.25400668
2.9066916 2.9620564 0.29785112 0.058209162 0.52085173 7.022411 0.14977475 0.09116315
1.4496629 1.3020236 0.06994864 1.7581584 5.8590126 7.3588624 1.154804 12.464677
0.006266621 0.003603825 0.88962996 21.346619 1.3625426 6e-45 2.4849463 1.367465
3.7477205 0.00011378458 6e-45 1.5913088 3.0966544 3.0443563 15.72571 0.66870934
1.2278079 1.6727655 1.0761315 0.61010444 0.52153295 3.7258246 0.038778238 3.197832
1.5243636 0.15693034 0.6368758 0.14330989 12.447779 3.0446012 3.1329904 0.03596346
0.8298195 3.4056594 3.1105046 1.6055907 0.0015173849 2.691168 1.3400153 0.78938806
8.430738 0.39105958 0.013525027 0.19656938 2.4097888 0.0011943575 1.5273182 0.39380133
0.2708442 0.0064322054 1.4841343 1.4798291 0.20966133 0.7722663 0.012039072 1.492365
4.9798126 0.31036177 0.7840993 3.12122 0.5161642 1.0596652 5.123234 6e-45
3.5810025 3.960413e-06 0.15657185 0.0041422714 6.296234 0.720162 1.9009236 2.2348187
2.4074433 7.388898 5.9190717 4.6521727e-06 6e-45 0.13917845 6e-45 0.00064996246
0.47336224 10.319096 0.39118135 0.31998837 2.4151318 0.022055076 0.0022931634 0.0053198677
7.763226 1.4537839 7.3983244e-08 3.7764046 2.3356354 2.69498 7.0995045 1.0911673
0.12614879 2.6124277 2.4326904 5.0903316 1.0412878 0.63241 2.6541202 0.2326781
2.3006446 5.8934836 5.935343 0.11183395 0.8379217 0.726459 0.07804915 0.055849347
6.7101927 0.10896801 10.162654 6.682277 13.600819 7.2829285 0.40385348 6e-45
0.8112717 4.341428e-06 8.04498 0.5179878 1.8325272 8.096139 0.43600842 1.4781743
0.10892739 0.06621929 0.9816306 0.64500463 0.9943098 15.530663 0.013945889 0.4337973
0.005563381 0.48878238 1.6295751 6e-45 1.3861138 4.2632923 3.561043 4.89733
1.5186403 6.0116272e-05 0.45495167 3.5107622 0.41114047 0.027365146 6e-45 9.618162e-07
0.25947502 0.9757679 0.33317485 19.633556 11.228185 1.0637455 0.0016556806 3.9903681
0.00018302383 7.714681 3.344596 0.013876427 3.9230876 0.47857726 0.008687429 0.27437598
2.0809288 9.841202e-05 1.5279176 1.9233224 4.6570463 0.00016454334 1.7241906 2.827827
0.49988592 1.4413453 0.46873403 2.585274 21.037283 0.18182561 0.000827968 13.777628
0.7892279 6e-45 14.069663 1.9155768 0.030466842 5.1287107 9.307505 0.2222293
2.2103362 0.15604253 3.108158 2.3603313 1.7661237 3.4978787e-06 5.094315 0.0030932103
2.9366322 0.8927114 2.065283 4.055354 1.3333458 15.384152 1.2784992 0.4404526
6e-45 0.9459714 0.5967885 6.18251 0.00073253503 2.8695505 3.572121 0.0042901468
19.124094 0.36503732 2.325427 6e-45 2.0315988 2.0825374 0.9283106 0.005674927
00000000: 4d2d 9b3f 41be 8d3f 0d77 8b40 81fe 983f
00000010: b8bc 8c3f 58c3 bb3e 4e25 3140 ce44 6717
00000020: 8617 853f 3727 6440 503d 4c40 a12a 2d3e
00000030: 561a bd3f ea48 2840 afe5 4e37 2a0d 823e
00000040: 3c07 3a40 5592 3d40 f17f 983e bb6c 6e3d
00000050: 8a56 053f 97b7 e040 8d5e 193e bfb3 ba3d
00000060: 8e8e b93f b6a8 a63f 3c41 8f3d 560b e13f
00000070: 087d bb40 cd7b eb40 9ed0 933f 516f 4741
00000080: 3a58 cd3b 272e 6c3b cabe 633f e0c5 aa41
00000090: cc67 ae3f 0400 0000 5c09 1f40 1809 af3f
000000a0: a7da 6f40 a29f ee38 0400 0000 02b0 cb3f
000000b0: 962f 4640 bcd6 4240 829c 7b41 8930 2b3f
000000c0: cf28 9d3f 2e1d d63f adbe 893f ce2f 1c3f
000000d0: 2f83 053f e973 6e40 eed5 1e3d 48a9 4c40
000000e0: 591e c33f 59b2 203e 4b0a 233f d4bf 123e
000000f0: 1a2a 4741 bfda 4240 ea82 4840 6c4e 133d
00000100: 0d6f 543f 53f6 5940 8212 4740 ff83 cd3f
00000110: fde2 c63a 193c 2c40 9f85 ab3f 5615 4a3f
00000120: 4ee4 0641 f638 c83e 1398 5d3c 7c49 493e
00000130: fb39 1a40 fd8b 9c3a 2a7f c33f 54a0 c93e
00000140: 17ac 8a3e 40c5 d23b 1df8 bd3f 0a6b bd3f
00000150: 76b1 563e 3fb3 453f 873f 453c d105 bf3f
00000160: a05a 9f40 bde7 9e3e bbba 483f 12c2 4740
00000170: 5623 043f 1ca3 873f 88f1 a340 0400 0000
00000180: 252f 6540 b0e3 8436 5f54 203e e4bb 873b
00000190: c07a c940 895c 383f 7751 f33f 4507 0f40
000001a0: 8d13 1a40 da71 ec40 0969 bd40 dc19 9c36
000001b0: 0400 0000 cc84 0e3e 0400 0000 3e62 2a3a
000001c0: 895c f23e 041b 2541 ec48 c83e 84d5 a33e
000001d0: 8591 1a40 d9ac b43c e648 163b 4952 ae3b
000001e0: 596c f840 9715 ba3f b8e0 9e33 9db0 7140
000001f0: 0d7b 1540 8d7a 2c40 242f e340 5fab 8b3f
00000200: 262d 013e 0432 2740 33b1 1b40 ffe3 a240
00000210: eb48 853f 9fe5 213f 1bdd 2940 2b43 6e3e
00000220: c33d 1340 6b97 bc40 54ee bd40 3309 e53d
00000230: 0982 563f 38f9 393f 3cd8 9f3d 49c2 643d
00000240: e6b9 d640 9f2a df3d 3b9a 2241 37d5 d540
00000250: f49c 5941 c00d e940 e2c5 ce3e 0400 0000
00000260: 81af 4f3f 95ac 9136 3db8 0041 d99a 043f
00000270: 4090 ea3f c989 0141 7f3c df3e d134 bd3f
00000280: 5315 df3d fb9d 873d 254c 7b3f 061f 253f
00000290: 168b 7e3f 987d 7841 4c7d 643c ae1a de3e
000002a0: 064d b63b af41 fa3e eb95 d03f 0400 0000
000002b0: 2d6c b13f e46c 8840 21e8 6340 edb6 9c40
000002c0: ce62 c23f 5b25 7c38 6def e83e 54b0 6040
000002d0: 0181 d23e df2c e03c 0400 0000 c117 8135
000002e0: e9d9 843e edcb 793f e595 aa3e 8611 9d41
000002f0: a5a6 3341 d028 883f 6c03 d93a 3162 7f40
00000300: 16ea 3f39 abde f640 dc0d 5640 f459 633c
00000310: de13 7b40 1408 f53e b855 0e3c 027b 8c3e
00000320: f02d 0540 8d62 ce38 ce92 c33f 6e2f f63f
00000330: 8606 9540 4489 2c39 47b2 dc3f 1efb 3440
00000340: 0cf1 ff3e 017e b83f e8fd ef3e 2175 2540
00000350: 5b4c a841 7e30 3a3e fe0b 593a 2a71 5c41
00000360: d70a 4a3f 0400 0000 571d 6141 9f31 f53f
00000370: 9995 f93c 661e a440 8aeb 1441 1490 633e
00000380: 2676 0d40 9dc9 1f3e 10ec 4640 ab0f 1740
00000390: 5710 e23f 19bd 6a36 a104 a340 75b7 4a3b
000003a0: c8f1 3b40 bc88 643f 992d 0440 76c5 8140
000003b0: 13ab aa3f 7d25 7641 dda5 a33f 0183 e13e
000003c0: 0400 0000 2f2b 723f 22c7 183f 1fd7 c540
000003d0: 9807 403a b7a6 3740 a19d 6440 5c94 8c3b
000003e0: 25fe 9841 2ce6 ba3e ccd3 1440 0400 0000
000003f0: b705 0240 4b48 0540 c3a5 6d3f bdf4 b93b
